noisy_ablation_results_20250630_152010/baseline_high_noise/best_model.pth (torch, 46946 bytes, 18 tensors)

layers.0.weight f4 [64, 7]
0	0x3f00245a	0.5005547
1	0x3e84678a	0.25860244
2	0x3dfaaa2c	0.12239489
3	0x3ebca432	0.3684402
4	0x3e27f807	0.16403209
5	0xbd219e3e	-0.039457552
6	0xbdd82604	-0.10554126
7	0x3e632ca6	0.22185001
8	0x3eaa7829	0.332948
9	0xbe8dd861	-0.27704147
10	0x3ea8147f	0.32828137
11	0x3d90bff0	0.07067859
12	0x3e8ed909	0.2789996
13	0x3d518a78	0.051157445
14	0x3f2e6ecf	0.6813783
15	0xbe095b5f	-0.13413762
16	0x3f452fea	0.77026236
17	0x3d9fb016	0.077972576
18	0x3ebee6ae	0.3728537
19	0xbd3489f3	-0.04407687
20	0xbe0e647d	-0.1390552
21	0xbd4ac211	-0.049501482
22	0xbe12cd6d	-0.14336176
23	0x3e80f942	0.2519017
24	0xbe92fee5	-0.28710094
25	0xbe3d52be	-0.18488595
26	0xbe807070	-0.25085783
27	0xbe6b68cc	-0.22989196
28	0xbb29e0f3	-0.0025921434
29	0xbec9448e	-0.39310116
30	0x3e9bdb46	0.3044073
31	0xbeb0e2a1	-0.34547904
32	0x3e8383de	0.25686544
33	0x3d21fa11	0.039545123
34	0xbe0b8e43	-0.13628487
35	0x3f391cd6	0.72309625
36	0xbc12c917	-0.008959076
37	0x3f44c862	0.7686826
38	0x3d861b34	0.06548157
39	0x3ed04991	0.40681127
40	0xbde7d0cc	-0.11319122
41	0xbd978fca	-0.074004725
42	0x3f1a43c7	0.6025967
43	0x3e712236	0.23548207
44	0x3f23c65b	0.6397454
45	0xbdbbaf3a	-0.09164281
46	0x3f3002c7	0.6875424
47	0xbdeda9ee	-0.11604677
48	0x3e6a1e8e	0.22863218
49	0xbe94b6dc	-0.2904576
50	0xbea54997	-0.32282707
51	0xbe42c55d	-0.190206
52	0xbe87dac1	-0.26534083
53	0x3ebebe9f	0.37254807
54	0x3e146e6a	0.14495245
55	0x3e307894	0.17233497
56	0x3f1b1cac	0.60590625
57	0x3da25dda	0.07928057
58	0x3f44b8a8	0.76844263
59	0xbe1f9045	-0.15582378
60	0x3f0d75b5	0.5525773
61	0xbe395c0b	-0.18101518
62	0x3e10aec4	0.14129168
63	0xbf115139	-0.5676456
64	0x3dcea6a1	0.10090376
65	0xbf00d92f	-0.50331396
66	0x3e460e3c	0.19341367
67	0xbf25d44c	-0.64777064
68	0xbe361480	-0.17781258
69	0xbe228cc8	-0.15874016
70	0x3f509127	0.81471485
71	0x3e20cc77	0.15702997
72	0x3f51494d	0.81752473
73	0xbe85cf6a	-0.26134807
74	0x3e169138	0.14703834
75	0xbe8062c7	-0.2507536
76	0xbe3b1363	-0.18269114
77	0x3df2abb2	0.118491545
78	0x3e158d00	0.14604568
79	0x3e8ef9cd	0.27924958
80	0xbe273e88	-0.16332448
81	0xbe956a77	-0.2918279
82	0x3e2d68e1	0.1693454
83	0xbdf413e8	-0.11917859
84	0x3f415e11	0.7553416
85	0xbd354d16	-0.044262968
86	0x3f39bd6e	0.7255467
87	0xbe827989	-0.2548335
88	0x3ec25074	0.37952006
89	0x3d9eafb2	0.07748355
90	0x3df7fde5	0.121089734
91	0xbe32bb1c	-0.17454189
92	0x3eab342f	0.3343825
93	0x3e4336c0	0.19063854
94	0xbe4d9863	-0.20077662
95	0xbe42999c	-0.1900391
96	0x3f0264e8	0.5093522
97	0xbdea5f27	-0.1144393
98	0xbeef7382	-0.46767813
99	0xbecee40e	-0.40408367
100	0xbf0a66bf	-0.5406303
101	0x3d2c3c37	0.042049613
102	0xbeea6089	-0.45776775
103	0xbec0ebbd	-0.37679854
104	0x3bd6f5d8	0.0065600686
105	0xbeb2f4a7	-0.3495228
106	0xbec463ba	-0.38357335
107	0xbe9e131c	-0.30873954
108	0xbec08c96	-0.3760726
109	0xbeeaceb9	-0.45860842
110	0x3eabb086	0.33533114
111	0x3cfbbe7f	0.030730484
112	0x3e0d3dcb	0.13793103
113	0xbe95d6f1	-0.2926555
114	0xbe63cc94	-0.22246009
115	0xbd9ed0b2	-0.07754649
116	0x3e04f4bb	0.12983982
117	0xbe73d143	-0.23810296
118	0xbdc1a270	-0.094548106
119	0xbe9f7dcc	-0.31150663
120	0xbd207347	-0.039172437
121	0xbe7b9f72	-0.24572542
122	0xbd58d268	-0.052935034
123	0xbf04837e	-0.5176314
124	0xbefa5230	-0.4889083
125	0xbe7cfe99	-0.24706496
126	0xbe399229	-0.18122162
127	0xbeb00864	-0.34381402
128	0x3e8938c6	0.26801127
129	0xbe072b17	-0.13200031
130	0x3e8dd52b	0.27701697
131	0x3d83f695	0.06443516
132	0xbeb96d97	-0.36216423
133	0x3de6dbdd	0.11272404
134	0xbe007485	-0.12544449
135	0xbe9f9865	-0.31170955
136	0xbeadd6d0	-0.3395295
137	0xbf33ac8f	-0.7018518
138	0xbde77a42	-0.11302616
139	0xbdb6c2ba	-0.0892386
140	0x3e8991d0	0.2686906
141	0xbe6d7338	-0.23188484
142	0x3ecb6389	0.39724377
143	0xbe53dd95	-0.20689996
144	0x3d9dfc1a	0.077141
145	0x3df7e1af	0.121035926
146	0x3e83cc95	0.2574202
147	0x3e9fbc82	0.31198508
148	0x3ecf115c	0.40442932
149	0xbe9078e1	-0.28217223
150	0x3e022481	0.12709238
151	0xbdb1888e	-0.08668624
152	0x3d6aaa6e	0.05729144
153	0xbe8c7f0d	-0.27440682
154	0x3f20c983	0.6280748
155	0xbe79603a	-0.24353114
156	0x3ef777f8	0.48333716
157	0x3e36ecb5	0.17863734
158	0x3edce00c	0.43139684
159	0xbe0c39e3	-0.13693957
160	0x3ed0a01b	0.4074715
161	0xbe9e8035	-0.3095719
162	0xbc96e0a8	-0.018417671
163	0xbf371a15	-0.71524173
164	0x3da417e9	0.08012373
165	0xbeed2225	-0.46315113
166	0xbe8902d1	-0.2675996
167	0x3e8b09d0	0.27155924
168	0x3d4d007b	0.050049286
169	0xbe3a7448	-0.1820842
170	0xbe671f80	-0.2257061
171	0x3bddc155	0.0067674317
172	0x3e69a970	0.22818542
173	0xbc58b056	-0.0132256355
174	0xbe4afd39	-0.1982316
175	0xbeed3282	-0.46327597
176	0xbe8e2256	-0.2776057
177	0xbe427fa0	-0.18993998
178	0x3e6562f6	0.22401032
179	0xbf37e9c0	-0.7184105
180	0x3d65e3e4	0.056125537
181	0x3dd3f69f	0.103497736
182	0x3f177baa	0.5917307
183	0xbe465b1a	-0.1937069
184	0x3f344abd	0.7042654
185	0x3e6c79e9	0.2309338
186	0x3f345256	0.70438135
187	0xbe51d3c9	-0.20490946
188	0x3bea56fd	0.007151483
189	0x3f0dc512	0.5537883
190	0xbe366a5c	-0.1781401
191	0x3ebd9d54	0.37034094
192	0x3e8bdacf	0.27315375
193	0x3f5c8612	0.86142075
194	0xbe83fb64	-0.25777733
195	0xbc3ee6c9	-0.011651703
196	0xbe14721b	-0.14496653
197	0xbdaaac7b	-0.08333679
198	0xbdab0d7c	-0.08352181
199	0x3dad1c39	0.08452649
200	0xbf27ec84	-0.6559527
201	0xbed2330f	-0.4105458
202	0x3e8c8bbf	0.27450368
203	0xbcd7ac9a	-0.02632742
204	0xbd8be047	-0.06829887
205	0xbed84a20	-0.42244053
206	0xbe87a66c	-0.26494157
207	0xbf2fd5e3	-0.6868574
208	0xbeb97ef6	-0.36229676
209	0x3de16180	0.11004925
210	0xbb626fc9	-0.0034551492
211	0x3e91ebe0	0.2850027
212	0xbf148cfb	-0.5802762
213	0xbe110b33	-0.14164428
214	0xbec1cce2	-0.37851626
215	0x3f1a1f5c	0.602041
216	0x3dd79a2c	0.10527453
217	0x3ebb7035	0.36609045
218	0x3e3302d7	0.17481552
219	0x3e9bb4c0	0.3041134
220	0xbe2f54cf	-0.17122196
221	0x3f4543fc	0.7705686
222	0xbe178513	-0.14796858
223	0xbb9f6103	-0.0048638596
224	0xbf42c06b	-0.76074857
225	0x3e4c4aa1	0.19950344
226	0xbdd5d3f1	-0.10440815
227	0x3cd9ac59	0.02657144
228	0xbf34a207	-0.70559734
229	0xbedc38d9	-0.4301212
230	0xbe810726	-0.25200766
231	0x3f3b0eeb	0.7306964
232	0x3de2599d	0.110522486
233	0x3f430ae8	0.76188517
234	0x3e3ee04e	0.18640253
235	0x3f16c384	0.58892083
236	0xbde55eb9	-0.111997075
237	0xbe6e08fb	-0.23245613
238	0xbee4b3d1	-0.4466844
239	0xbeb3eb2b	-0.35140356
240	0x3c1dd513	0.00963332
241	0xbe2c171d	-0.16805692
242	0xbec3a114	-0.3820883
243	0xbece38c4	-0.40277684
244	0xbcdce8cb	-0.026966473
245	0x3e88afb1	0.26696542
246	0xbe1b8ede	-0.15191218
247	0x3f20a0b8	0.6274524
248	0xbba50a58	-0.0050366335
249	0x3f4ad3f7	0.7922968
250	0xbdb2da10	-0.08732998
251	0xbe7cf3ad	-0.2470233
252	0xbd90c700	-0.07069206
253	0xbe2721d9	-0.16321506
254	0xbdebce66	-0.11513977
255	0xbeaeb964	-0.34125817

layers.0.bias f4 [64]
0	0x3e9432c7	0.2894499
1	0xbe93a297	-0.28834984
2	0xbe400fc6	-0.18756017
3	0xbe6c2c1f	-0.23063706
4	0xbeb02d1b	-0.34409413
5	0xbcd73556	-0.02627055
6	0xbae8d21b	-0.0017762812
7	0x3e90559a	0.2819031
8	0xbe836ba5	-0.25668064
9	0x3eca6273	0.39528236
10	0xbe13d29d	-0.14435811
11	0xbe83c7c7	-0.25738356
12	0xbe48b7ec	-0.1960141
13	0x3e8a87d1	0.27056745
14	0x3ea45be9	0.32101372
15	0xbe88edde	-0.26743978
16	0x3e869fe1	0.26293853
17	0xbd51bdd4	-0.051206425
18	0xbe81bb00	-0.25337982
19	0xbd7c5e10	-0.061613142
20	0x3eb5e59f	0.3552675
21	0x3ed1a5bb	0.40946755
22	0x3e9a6042	0.30151564
23	0x3eafe054	0.34350836
24	0x3ecd04a5	0.40042606
25	0x3e9650df	0.29358575
26	0xbe8ec8ee	-0.27887672
27	0xbbc99609	-0.006151919
28	0x3d90043b	0.07032057
29	0x3d87b2f0	0.066259265
30	0x3e4db92b	0.20090167
31	0x3d51ec75	0.051250894
32	0x3eae23cb	0.34011683
33	0xbe974914	-0.29547942
34	0xbddc9daa	-0.107722595
35	0xbdf15766	-0.11784248
36	0xbe2ac82b	-0.1667792
37	0xbee1f47b	-0.44131836
38	0x3e88709f	0.26648423
39	0xbe57086f	-0.20999311
40	0x3ece515a	0.4029644
41	0x3ef2f48e	0.47452205
42	0x3e837a88	0.2567942
43	0x3e8ad96f	0.27119014
44	0x3e876727	0.26445886
45	0xbe72ffb0	-0.2373035
46	0x3e51a513	0.20473127
47	0x3ea0da8f	0.31416747
48	0x3ea0bc28	0.31393552
49	0x3ed3623e	0.4128589
50	0xbe539555	-0.20662434
51	0xbd633ee4	-0.0554799
52	0xbe84927c	-0.2589301
53	0xbe37d34a	-0.17951694
54	0xbe5c7b6b	-0.21531455
55	0x3edb3ae3	0.42818365
56	0x3ed1bbaf	0.40963504
57	0x3dc94f53	0.09829583
58	0xbea66a40	-0.32502937
59	0xbe095daa	-0.13414636
60	0xbe0b6faf	-0.13616823
61	0x3e8c0c1f	0.27352998
62	0x3ea1fe42	0.31639296
63	0xbd973bac	-0.073844284

layers.4.weight f4 [32, 64]
0	0xbdb04df6	-0.0860862
1	0xbdc32b9e	-0.09529804
2	0xbd90b0ef	-0.070649974
3	0xbd9f204a	-0.077698305
4	0x3df13784	0.11778167
5	0xbdf42176	-0.11920445
6	0x3dba5d44	0.0909982
7	0xbe661ed9	-0.22472705
8	0x3c98fb1a	0.018674422
9	0x3daffcc1	0.08593131
10	0x3b03b697	0.0020097846
11	0x3da06d34	0.07833329
12	0x3dec6aa9	0.11543781
13	0xbe905396	-0.2818877
14	0x3d9f25ef	0.07770907
15	0xbc8acdde	-0.016943868
16	0xbd3a0e8b	-0.045424026
17	0xbb14ee26	-0.0022724955
18	0x3d1c6c9e	0.038189523
19	0xbca88fd1	-0.02057639
20	0xbda59035	-0.08084146
21	0xbcf9bb99	-0.030484961
22	0x3cb01666	0.021495055
23	0xbb4d7497	-0.003135001
24	0xbea68f3c	-0.32531154
25	0x3d0c87e3	0.03430928
26	0xbddb8d26	-0.10720281
27	0x3d960843	0.073257945
28	0x3c6f3068	0.014598943
29	0x3d241c27	0.04006591
30	0x3b412f56	0.0029477677
31	0x3a975ee4	0.0011548665
32	0x3e06dd78	0.13170421
33	0x3d26bcf4	0.040707543
34	0x3d9f6b23	0.077841066
35	0x3ddd75ca	0.10813482
36	0x3df3c785	0.1190329
37	0xbda49e4c	-0.08038005
38	0xbd7341a0	-0.059388757
39	0x3d87602a	0.06610139
40	0xbded2c3d	-0.115807034
41	0xbdb2cc24	-0.08730343
42	0x3c5b8235	0.013397743
43	0xbe7ef903	-0.24899678
44	0x3dbf0b2f	0.09328305
45	0x3cf12b82	0.029439691
46	0x3e036322	0.12830785
47	0x3e227139	0.15863504
48	0x3dfe3fc6	0.124145076
49	0x3e2693f8	0.16267383
50	0xbc394e9f	-0.011310249
51	0xbd243334	-0.040087894
52	0xbd15a487	-0.03653386
53	0xbdf580ee	-0.11987482
54	0xbdb75a1e	-0.08952735
55	0xbe3d1d4a	-0.18468204
56	0xbe830932	-0.25592953
57	0xbe1fbb6b	-0.15598838
58	0xbe0d3636	-0.13790211
59	0xbda14f91	-0.07876504
60	0xbe2d113c	-0.16901106
61	0x3dca3da3	0.098750375
62	0x3e03fff4	0.12890607
63	0x3db4adfa	0.08822246
64	0x3dda8429	0.10669739
65	0x3d889132	0.06668319
66	0xba7f1ec2	-0.00097320613
67	0xbdd8ac2e	-0.10579716
68	0x3d43547e	0.047688
69	0xbbbf9297	-0.0058463323
70	0x3e014587	0.12624179
71	0x3e5866bf	0.21132945
72	0xbc9a4f3b	-0.018836608
73	0x3dc77091	0.09738267
74	0xbcce55fd	-0.025187487
75	0x3c0fe2cc	0.0087821
76	0x3c65b25f	0.014019578
77	0x3e4d4f50	0.20049787
78	0x3d4de12b	0.050263565
79	0xbd0b116a	-0.033952154
80	0x3b297777	0.002585856
81	0xbe4abd4a	-0.1979877
82	0xbdb6a798	-0.08918685
83	0xbe9e42ec	-0.30910432
84	0x3dd67615	0.10471741
85	0x3d3a397a	0.04546497
86	0x3e4651aa	0.1936709
87	0x3dcb03b0	0.09912813
88	0x3d6cd831	0.057823364
89	0x3d3d7194	0.046250895
90	0xbe2e3c61	-0.1701522
91	0x3dae5f9a	0.08514328
92	0xbe9bc99c	-0.30427253
93	0xbea634e4	-0.32462227
94	0xbdd70eaf	-0.105008475
95	0x3dffa558	0.12482709
96	0x3e1bcdfe	0.15215299
97	0x3df4bd04	0.11950114
98	0xbd910ab4	-0.070821196
99	0xbcd3433c	-0.025788896
100	0xbe0e8a46	-0.13919935
101	0xbd99289d	-0.074784495
102	0x3e0af6d0	0.13570714
103	0x3d55c946	0.052193902
104	0x3e016cc9	0.12639154
105	0x3d5534a6	0.052052163
106	0xbd3309b8	-0.04371044
107	0x3e7f60a3	0.24939208
108	0x3a131149	0.00056101807
109	0x3cc03a5b	0.023465326
110	0xbe153628	-0.1457144
111	0xbdb62e01	-0.08895493
112	0x3c2f32a3	0.010693225
113	0xbd154c76	-0.036449872
114	0xbc659985	-0.014013653
115	0xbcbb1733	-0.02283821
116	0xbeb95b2f	-0.3620238
117	0xbe06376a	-0.13107076
118	0x3b741476	0.003724364
119	0x3dacdac9	0.084401675
120	0x3e18c519	0.14918937
121	0x3e8109e9	0.25202873
122	0xbe38d56e	-0.18050167
123	0xbe2173d5	-0.15766843
124	0xbdaa17b5	-0.08305303
125	0xbd8573a7	-0.065161996
126	0xbdf6eced	-0.12056909
127	0xbe03e937	-0.12881933
128	0x3b643572	0.0034821895
129	0xbdefb71e	-0.11704849
130	0x3e5a79bd	0.21335502
131	0x3d740d5e	0.05958306
132	0xbe0b452b	-0.13600604
133	0xbca4395d	-0.020046884
134	0x3d6f86c1	0.05847812
135	0xbc8b0ea1	-0.016974749
136	0x3e129781	0.14315607
137	0xbeb1540e	-0.3463444
138	0x3e1ffd76	0.15624031
139	0xbd940f42	-0.07229473
140	0x3e508987	0.20364963
141	0x3c33ad50	0.010966614
142	0xbec56340	-0.38552284
143	0x3d5d600a	0.054046668
144	0xbd26251a	-0.040562727
145	0xbdf0021a	-0.11719151
146	0xbcf59e4a	-0.029982705
147	0x3d88eafb	0.06685444
148	0xbd7b9ad6	-0.06142696
149	0xbc5976d5	-0.013272961
150	0xbde99b94	-0.11406627
151	0xbe764b01	-0.24052049
152	0x3ce4e862	0.02794284
153	0xbec0af5f	-0.37633798
154	0x3e4b2766	0.19839248
155	0xbbbf129a	-0.005831075
156	0xbde621cf	-0.11236917
157	0xbe0dc681	-0.13845254
158	0xbe909061	-0.28235152
159	0x3c868e33	0.016425228
160	0xbe82839b	-0.25491032
161	0x3e49f00d	0.19720478
162	0xbdf7780d	-0.12083445
163	0x3e1c2424	0.15248162
164	0xbd127009	-0.035751376
165	0xbd4a93aa	-0.04945723
166	0xbe93d9fd	-0.2887725
167	0x3dbe9897	0.09306448
168	0x3cf88c34	0.030340292
169	0xbc0e0243	-0.008667531
170	0xbea9f442	-0.33194166
171	0xbc3bb532	-0.011456775
172	0xbeaa0cfc	-0.3321303
173	0x3e5a97e9	0.21347012
174	0xbede3668	-0.43400884
175	0xbee11891	-0.43964055
176	0xbef22f4f	-0.4730172
177	0xbef50731	-0.4785705
178	0x3e0d0f96	0.13775477
179	0x3d93ece5	0.072229184
180	0xba817449	-0.0009876575
181	0x3ddb44fc	0.10706517
182	0x3e0cc4d4	0.13746959
183	0x3cdd2dd3	0.02699939
184	0x3d11e2d2	0.035616703
185	0x3de6000d	0.112304784
186	0xbdccc3e5	-0.099983014
187	0x3e277bb5	0.16355784
188	0x3d5fb1e0	0.054612994
189	0xbed250d8	-0.41077304
190	0xbef8c169	-0.4858506
191	0xbd4b5feb	-0.04965202
192	0x3d3aad10	0.0455752
193	0xbdcf6030	-0.10125768
194	0x3df6bc20	0.12047601
195	0x3d11f40d	0.035633136
196	0xbde3c079	-0.111206956
197	0x3d911fd6	0.0708615
198	0xbd2be7ea	-0.041969217
199	0x3e0b649d	0.136126
200	0x3e2779ca	0.16355053
201	0xbeae5667	-0.34050295
202	0x3df2e6d8	0.11860436
203	0x3dc4cedf	0.0960977
204	0x3e06bffb	0.13159172
205	0xbd2ac56f	-0.041692194
206	0xbec4d63b	-0.38444695
207	0xbd3234c4	-0.043507352
208	0x3c8bca58	0.017064258
209	0x3d83a84b	0.06428584
210	0x3d4f19ef	0.05056184
211	0x3dbde008	0.09271246
212	0x3c7ed5f7	0.015553943
213	0x3d74d4b5	0.059773166
214	0x3ddb26c0	0.1070075
215	0xbe9e2e55	-0.30894724
216	0xbd85545d	-0.06510232
217	0xbec72879	-0.38898066
218	0x3e6d5da0	0.23180246
219	0xbe02cdc1	-0.12773801
220	0xbe6f17a6	-0.23348865
221	0x3d8ce6e9	0.0687998
222	0xbe28ba45	-0.16477306
223	0x3da51ec2	0.08062507
224	0xbed0c9ab	-0.4077886
225	0x3c84cb11	0.01621011
226	0x3d4eb71e	0.050467603
227	0x3e2c8166	0.16846237
228	0x3db112d8	0.08646172
229	0x3c9bd0cd	0.019020462
230	0xbd69e0a2	-0.057098992
231	0x3e318fa0	0.17339945
232	0xbcdb76ba	-0.026790012
233	0xbc00bd20	-0.007857591
234	0xbdd332ba	-0.1031241
235	0xbd26039b	-0.040530782
236	0xbea184ba	-0.31546575
237	0x3e0ea01f	0.13928269
238	0xbe610331	-0.21973874
239	0xbe9edd40	-0.31028175
240	0xbeccb4fb	-0.39981827
241	0xbecdf899	-0.40228727
242	0x3e6e399a	0.23264161
243	0xbda4a2f5	-0.08038894
244	0xba3c2e31	-0.0007178514
245	0x3d5f32fa	0.054491974
246	0x3c7a7640	0.015286982
247	0x3df1f10e	0.11813556
248	0xbcd9e4ed	-0.026598418
249	0x3c14ba1d	0.009077576
250	0xbd1f5dba	-0.038907744
251	0xbd55b175	-0.05217119
252	0xbddee52a	-0.10883553
253	0xbe7355ce	-0.237632
254	0xbeaecb01	-0.34139255
255	0xbdfbc4de	-0.12293409

layers.4.bias f4 [32]
0	0xbe9e5fa3	-0.3093234
1	0x3ec4b800	0.3842163
2	0x3dfec3bd	0.12439678
3	0x3dc01865	0.09379653
4	0xbdb5e69e	-0.08881877
5	0x3c0399c4	0.008032266
6	0x3dcc83a3	0.09986045
7	0x3e8653f3	0.26235923
8	0x3e2190f1	0.15777947
9	0x3e64dc01	0.2234955
10	0x3e84b5f1	0.2592006
11	0x3de2cd16	0.11074273
12	0x3e25b741	0.16183187
13	0x3e3867b1	0.18008305
14	0x3e00370c	0.12520999
15	0xbda7b8f9	-0.081895776
16	0x3ea5f616	0.3241431
17	0x3d36f555	0.04466756
18	0xbf10c1a4	-0.5654547
19	0x3ea7eabe	0.32796282
20	0x3da58325	0.080816545
21	0x3e6583cc	0.22413558
22	0x3ec396db	0.3820103
23	0xbdb22289	-0.08697993
24	0x3d45bac7	0.048273828
25	0x3e463af2	0.19358423
26	0x3e732abb	0.23746769
27	0x3e2678a9	0.16256966
28	0x3ee441c3	0.44581422
29	0x3e6d0a38	0.2314843
30	0xbdda952e	-0.10672985
31	0xbcf85dbe	-0.030318137

mean_head.weight f4 [1, 32]
0	0x3dc023d1	0.093818314
1	0x3c8c3216	0.017113727
2	0x3e383e5e	0.17992541
3	0x3e0e5990	0.13901353
4	0x3e05ee42	0.1307917
5	0x3dc8840f	0.09790813
6	0x3e0cc5a5	0.1374727
7	0xbe2d8ed7	-0.1694902
8	0xbe3d2e16	-0.18474612
9	0xbdc38be5	-0.09548167
10	0x3c921ec0	0.017836928
11	0x3e156129	0.14587845
12	0xbdfd7be8	-0.12377149
13	0x3e33162b	0.17488925
14	0xbdc2250c	-0.094797224
15	0xbd62a9e2	-0.055337794
16	0x3ca57eac	0.020202003
17	0xbdfc0e45	-0.12307409
18	0x3efd5a4a	0.49482948
19	0x3c716726	0.014734065
20	0x3e35d79a	0.17758027
21	0xbdb96d81	-0.09054089
22	0xbdcabcc4	-0.098992854
23	0x3c83f33b	0.016107192
24	0x3de81657	0.11332386
25	0x3d20d7d2	0.039268322
26	0x3d39495a	0.04523597
27	0xbe336178	-0.1751765
28	0x3c08b250	0.008343294
29	0xbdcc626f	-0.09979712
30	0xbe047f0d	-0.12939091
31	0xbd7162d1	-0.05893213

var_head.0.weight f4 [1, 32]
0	0x3e9f9602	0.31169134
1	0xbec56558	-0.38553882
2	0xbdc3e414	-0.09564987
3	0x3e3e27fb	0.18569939
4	0xbdf0a5d9	-0.11750383
5	0x3e0fc4ef	0.14039968
6	0xbcc6a914	-0.024250545
7	0x3d01785b	0.03160892
8	0x3e04de38	0.12975395
9	0xbeaca2e1	-0.33718017
10	0xbea95e3c	-0.33079708
11	0x3e3ae9e1	0.1825328
12	0xbd1f2f2d	-0.03886335
13	0xbdce50fc	-0.1007404
14	0x3e8833b9	0.2660196
15	0xbd19ef2b	-0.037581604
16	0xbe934bb2	-0.28768688
17	0x3d99461d	0.07484076
18	0x3b16a9b3	0.0022989332
19	0xbeab25e4	-0.33427346
20	0x3d177f5c	0.036986694
21	0xbedaffb0	-0.427732
22	0xbf43103f	-0.76196665
23	0x3dcd85e9	0.10035307
24	0xbd06ca11	-0.03290755
25	0xbeaa2b79	-0.33236292
26	0xbea0f3e9	-0.3143609
27	0xbe06db80	-0.1316967
28	0xbeaf525e	-0.3424253
29	0xbf205e4f	-0.62643903
30	0xbe480c59	-0.1953596
31	0x3e2b2481	0.16713144

exp_avg f4 [64, 7]
0	0xba44fe40	-0.0007514693
1	0xb684c1c0	-3.956462e-06
2	0xba4ea676	-0.0007883081
3	0x390690ab	0.00012833129
4	0xba094d6d	-0.00052376726
5	0x380d01ac	3.3618577e-05
6	0xb9302506	-0.0001679846
7	0x00000000	0.0
8	0x00000000	0.0
9	0x00000000	0.0
10	0x00000000	0.0
11	0x00000000	0.0
12	0x00000000	0.0
13	0x00000000	0.0
14	0xbaa66407	-0.0012694605
15	0x393a1155	0.00017744799
16	0xbaad7880	-0.0013234764
17	0x39842509	0.00025204595
18	0xba965a72	-0.0011471047
19	0xb9bd8c30	-0.00036153337
20	0x37cf190c	2.4687986e-05
21	0xb7b8679e	-2.198276e-05
22	0xb8f61036	-0.000117332136
23	0xb7b3176a	-2.1349366e-05
24	0xb91d79b6	-0.00015018028
25	0xb7ccc23c	-2.4409142e-05
26	0xb9109185	-0.0001378712
27	0x3175736b	3.57178e-09
28	0xb7acc401	-2.059527e-05
29	0xb8e80da7	-0.00011065165
30	0xb7a7a703	-1.9985722e-05
31	0xb912c0c3	-0.00013995454
32	0xb7c01c2f	-2.2901308e-05
33	0xb9073b73	-0.0001289675
34	0x321cc866	9.12596e-09
35	0xbb24a6c9	-0.0025123826
36	0x38e3eb44	0.00010868025
37	0xbb273e9b	-0.0025519494
38	0x39737fe8	0.00023221935
39	0xbb219a46	-0.0024658605
40	0xb96d5232	-0.00022632701
41	0xb9542cc6	-0.00020234575
42	0xba7783b2	-0.00094419264
43	0x3937e5ed	0.00017537894
44	0xba73a684	-0.0009294527
45	0x39254d98	0.00015764532
46	0xba38e5e7	-0.0007053301
47	0xb8ab8d4f	-8.180236e-05
48	0xb9898b04	-0.0002623425
49	0x38873d20	6.448687e-05
50	0x38b19f62	8.469705e-05
51	0x38cc4d2c	9.7418524e-05
52	0x3999a1db	0.00029303026
53	0x398bdd0e	0.00026676845
54	0x39550edf	0.00020318803
55	0xb900ac32	-0.00012271179
56	0xbba42ed4	-0.005010465
57	0xb8839260	-6.273831e-05
58	0xbbb96e9d	-0.005658938
59	0x348ea960	2.6572798e-07
60	0xbb98fa63	-0.0046685203
61	0xba72ae8d	-0.00092575775
62	0x38277146	3.9921397e-05
63	0x3bdfb9f6	0.006827588
64	0x38991659	7.299771e-05
65	0x3c0162ca	0.007897088
66	0xb987c13a	-0.00025893172
67	0x3bd4a0c0	0.0064888895
68	0x3a8e69a3	0.0010865222
69	0x3940a054	0.00018370274
70	0xbacc7f9d	-0.0015601997
71	0x39c93851	0.00038379667
72	0xbae5e494	-0.0017539435
73	0x3a34d423	0.0006898066
74	0xbac16839	-0.0014755792
75	0x390e7ec5	0.000135894
76	0xb8b4a1a6	-8.613178e-05
77	0x00000004	6e-45
78	0x80000004	-6e-45
79	0x00000004	6e-45
80	0x80000004	-6e-45
81	0x00000004	6e-45
82	0x00000004	6e-45
83	0x80000004	-6e-45
84	0xbb6b1a48	-0.003587382
85	0xb8890501	-6.533601e-05
86	0xbb6c3cc4	-0.0036046961
87	0x392976d4	0.00016161363
88	0xbb52a0a4	-0.0032139206
89	0xba5067cc	-0.0007950037
90	0xb8c0c32a	-9.1916256e-05
91	0xba247bea	-0.0006274568
92	0xb805582c	-3.1791787e-05
93	0xba00605e	-0.00048971723
94	0x37cf9138	2.4743946e-05
95	0xb9ed2adb	-0.00045236092
96	0x36b3e890	5.3616895e-06
97	0xb88f15f3	-6.82286e-05
98	0x3ba6820c	0.0050814208
99	0xb93acb7d	-0.00017814148
100	0x3bc0b47c	0.0058808904
101	0x381e115a	3.7686295e-05
102	0x3ba6b2d4	0.005087236
103	0x39c8ddb1	0.00038312146
104	0x39760c28	0.00023464917
105	0xba5ba78b	-0.0008379153
106	0x3825a228	3.9490085e-05
107	0xba6a6f03	-0.00089429336
108	0x38971a92	7.20519e-05
109	0xba595933	-0.0008291185
110	0x393c667d	0.00017967257
111	0xb856ae78	-5.1184063e-05
112	0xbae9adc7	-0.0017828279
113	0xb6ca48b0	-6.028531e-06
114	0xbae28b84	-0.001728401
115	0x377433f0	1.4555626e-05
116	0xbad569f8	-0.0016282192
117	0xb88590dc	-6.3689164e-05
118	0xb8c53f5e	-9.405495e-05
119	0xbade183c	-0.0016944478
120	0xb93fd0de	-0.00018292989
121	0xbae000a3	-0.0017090034
122	0xb97fab3e	-0.00024382488
123	0xbadd9c0e	-0.001690747
124	0xb963b9cb	-0.0002171762
125	0x387a482f	5.967187e-05
126	0xb8029fc9	-3.1143227e-05
127	0xb92ecd5a	-0.00016670433
128	0xb7fda1af	-3.023524e-05
129	0xb95e9495	-0.00021226921
130	0xb8112201	-3.4602363e-05
131	0xb94cac15	-0.00019519062
132	0x321880e4	8.876871e-09
133	0xbb2650f7	-0.0025377849
134	0xb996f07e	-0.0002878941
135	0xbb269e2c	-0.0025423868
136	0xb9b244f9	-0.00034002194
137	0xbb221382	-0.0024730866
138	0xb9b202ed	-0.00033952986
139	0x3860b448	5.357366e-05
140	0xba9caa83	-0.0011952672
141	0x38862e61	6.398257e-05
142	0xbaa32e82	-0.0012449773
143	0x39882281	0.0002596565
144	0xba8e1928	-0.0010841237
145	0x38e9a5cd	0.000111411886
146	0xb90d5660	-0.00013478985
147	0xbadddba9	-0.0016926426
148	0xb8452fc2	-4.7012938e-05
149	0xbad88d30	-0.0016521569
150	0xb8930aa4	-7.011488e-05
151	0xbac84e96	-0.001528221
152	0xb8fdd0fb	-0.00012102906
153	0xb881f8ce	-6.197543e-05
154	0xb9e96e8c	-0.00044523587
155	0x382969dd	4.0391333e-05
156	0xba1642b4	-0.00057319854
157	0x395e01c0	0.00021172222
158	0xb9c9016a	-0.0003833876
159	0xb83010da	-4.1977364e-05
160	0xb91d00f2	-0.00014973039
161	0x3b2e64b4	0.0026610317
162	0xb8df7dad	-0.000106568776
163	0x3b479092	0.003045116
164	0xb9d23ccd	-0.0004009962
165	0x3b376b40	0.002798751
166	0x388d054a	6.724389e-05
167	0x394e2e6c	0.00019662984
168	0xbb0a8ab1	-0.0021139795
169	0xb839acde	-4.4268432e-05
170	0xbb04d8f3	-0.0020270913
171	0x38819acf	6.180035e-05
172	0xbb00531a	-0.0019580782
173	0xb8a345cd	-7.785447e-05
174	0xb8c846ce	-9.5499316e-05
175	0x3b0179e7	0.0019756497
176	0xb9c89966	-0.00038261263
177	0x3b1cde6a	0.002393628
178	0xb9558cbb	-0.00020365689
179	0x3afbfff1	0.0019226057
180	0x38c1696a	9.222592e-05
181	0xb8dd318f	-0.00010547332
182	0xbb47b302	-0.0030471687
183	0xb8641f80	-5.4388773e-05
184	0xbb77867b	-0.0037769366
185	0x387ec9b2	6.0746162e-05
186	0xbb345d40	-0.0027521402
187	0xba802829	-0.0009777594
188	0x38d5554c	0.00010172519
189	0xba986dd8	-0.0011629416
190	0x38ab1d4a	8.159371e-05
191	0xba9487d8	-0.0011331988
192	0x392c587e	0.00016436164
193	0xba795422	-0.0009511133
194	0xb921a705	-0.00015416376
195	0xb9679a50	-0.00022087363
196	0xbb4abebc	-0.003093644
197	0xba2abbe2	-0.0006512982
198	0xbb2e7fe5	-0.0026626524
199	0xba6e4b00	-0.00090901554
200	0xbb41aec8	-0.002955364
201	0xba69b6d0	-0.0008915486
202	0x39ab27de	0.00032645365
203	0xbb0db298	-0.0021621343
204	0xba1dadb4	-0.00060149585
205	0xbaedfe8b	-0.0018157525
206	0xba628c9f	-0.000864217
207	0xbb00866e	-0.0019611376
208	0xba41a55c	-0.0007387006
209	0x39ac5235	0.00032867645
210	0xba1f4e31	-0.000607702
211	0xb8e57923	-0.000109421344
212	0xb8ea0754	-0.000111593545
213	0xb988b704	-0.000260763
214	0xba6b0ef7	-0.00089667685
215	0x39a08db8	0.00030623167
216	0x396c3740	0.00022527296
217	0xbaef4291	-0.0018254091
218	0x390041aa	0.00012231493
219	0xbae963f8	-0.0017806282
220	0x38aa864e	8.131248e-05
221	0xbad26a07	-0.0016053327
222	0xb8b1b4e9	-8.473715e-05
223	0xb9825860	-0.00024861377
224	0x3bac045e	0.005249544
225	0xb77b5780	-1.49811385e-05
226	0x3bbfb3df	0.0058502997
227	0xb991a7bc	-0.00027781527
228	0x3bb0e452	0.0053983117
229	0x3995ec8c	0.00028595736
230	0x39b1c6ef	0.00033908288
231	0xbacee520	-0.0015784837
232	0xb7729498	-1.4458921e-05
233	0xbb190d66	-0.0023353933
234	0x38ad49b6	8.2630126e-05
235	0xbabbe742	-0.0014335888
236	0xba2a6f4d	-0.00065015705
237	0xb95183a2	-0.0001998083
238	0xbab6703a	-0.0013918944
239	0xb601716c	-1.9288518e-06
240	0xbab87aaa	-0.0014074643
241	0x371262f7	8.72532e-06
242	0xbab18ce8	-0.0013546022
243	0x35f692b0	1.837112e-06
244	0x377c9576	1.505517e-05
245	0xba9e347f	-0.0012070088
246	0x38ac9119	8.228626e-05
247	0xba8f158b	-0.0010916454
248	0x39774a8f	0.00023583531
249	0xba8d7036	-0.0010790888
250	0xb935f753	-0.0001735364
251	0xb7a41c7e	-1.9563591e-05
252	0xb7f6c091	-2.9415156e-05
253	0xb9270714	-0.00015928998
254	0xb7efad5c	-2.8571747e-05
255	0xb956ac69	-0.00020472858

exp_avg_sq f4 [64, 7]
0	0x370d2d0e	8.414745e-06
1	0x33d1c86b	9.768777e-08
2	0x370d89a5	8.436303e-06
3	0x33d0ff69	9.7322136e-08
4	0x37102835	8.59243e-06
5	0x33f45956	1.13783855e-07
6	0x33c7250d	9.273399e-08
7	0x00000000	0.0
8	0x00000000	0.0
9	0x00000000	0.0
10	0x00000000	0.0
11	0x00000000	0.0
12	0x00000000	0.0
13	0x00000000	0.0
14	0x388e3f52	6.782882e-05
15	0x35ae9d6a	1.3009824e-06
16	0x388ff583	6.8645015e-05
17	0x35a9c121	1.2647689e-06
18	0x38942496	7.0640046e-05
19	0x35b9d753	1.3846242e-06
20	0x35a9bf49	1.2647153e-06
21	0x33b7bf9b	8.5564544e-08
22	0x35af8cfe	1.307955e-06
23	0x33b3c057	8.3703235e-08
24	0x35bdba75	1.4135863e-06
25	0x33da884b	1.01762076e-07
26	0x35d194db	1.5615036e-06
27	0x2d96a423	1.7125917e-11
28	0x3282b8fb	1.5218111e-08
29	0x352847e9	6.268952e-07
30	0x32794a1d	1.4510559e-08
31	0x351edd03	5.91812e-07
32	0x32b8203d	2.143508e-08
33	0x35202abc	5.966683e-07
34	0x2cce1fa8	5.8583867e-12
35	0x37981c02	1.8132854e-05
36	0x351c6ac3	5.826989e-07
37	0x379bf354	1.8590748e-05
38	0x3527e369	6.2543273e-07
39	0x379ef219	1.8947803e-05
40	0x35489cd4	7.473402e-07
41	0x352021bf	5.965375e-07
42	0x378fd878	1.714773e-05
43	0x351a35b7	5.7447636e-07
44	0x37910d79	1.729162e-05
45	0x35247ec2	6.127922e-07
46	0x3795dcc4	1.7864986e-05
47	0x353df741	7.076779e-07
48	0x351ffa82	5.959665e-07
49	0x3824814a	3.9221057e-05
50	0x3587e5a6	1.012512e-06
51	0x3825b146	3.9504164e-05
52	0x35b03b5c	1.3130298e-06
53	0x38498742	4.8048103e-05
54	0x35a13972	1.2012154e-06
55	0x341a3f73	1.436545e-07
56	0x38e82684	0.00011069796
57	0x35f63aca	1.8345538e-06
58	0x38ed2adf	0.00011309026
59	0x35e40825	1.6989694e-06
60	0x38f25697	0.00011555588
61	0x3605c21f	1.9931538e-06
62	0x35f6aaee	1.8378175e-06
63	0x391f9c29	0.00015221596
64	0x362333d2	2.4319056e-06
65	0x3921d55e	0.00015433642
66	0x362e66f9	2.5987958e-06
67	0x392672fe	0.00015873832
68	0x364c9005	3.04822e-06
69	0x36031467	1.9532397e-06
70	0x3848d0da	4.7878224e-05
71	0x36512de9	3.117015e-06
72	0x3847e6af	4.7660138e-05
73	0x3692b766	4.3724895e-06
74	0x384eddba	4.9320726e-05
75	0x3689cbcb	4.106643e-06
76	0x35820e4a	9.689913e-07
77	0x291eb998	3.5244024e-14
78	0x266053f7	7.7829405e-16
79	0x29329e98	3.9661498e-14
80	0x2488efdd	5.938694e-17
81	0x28e47b97	2.5366684e-14
82	0x22383d48	2.4969092e-18
83	0x24ca3cb1	8.770635e-17
84	0x3890541b	6.882121e-05
85	0x35a9dd90	1.2655964e-06
86	0x389226ee	6.969074e-05
87	0x35981a30	1.1332504e-06
88	0x3896a22c	7.182764e-05
89	0x35aa2ddc	1.2679334e-06
90	0x35a6311b	1.2382255e-06
91	0x383af28a	4.4571738e-05
92	0x34210d0d	1.4999041e-07
93	0x383b50bf	4.4659475e-05
94	0x341ee4d9	1.4798151e-07
95	0x3855e025	5.099191e-05
96	0x342ba37d	1.5985093e-07
97	0x340c3b29	1.3060038e-07
98	0x3920ef18	0.00015347858
99	0x361e1f47	2.356204e-06
100	0x3922b38e	0.00015516413
101	0x362b3c87	2.5516217e-06
102	0x3925669b	0.0001577385
103	0x363aca9e	2.7834099e-06
104	0x35f72b9e	1.8415628e-06
105	0x37b0bdbe	2.106919e-05
106	0x34d7329a	4.0083688e-07
107	0x37b0a741	2.1058719e-05
108	0x34e26859	4.2171703e-07
109	0x37df9aee	2.6655816e-05
110	0x34dcc44c	4.1121018e-07
111	0x32a4a805	1.916852e-08
112	0x37d6e896	2.5619094e-05
113	0x346b5610	2.191739e-07
114	0x37d8ae81	2.5830466e-05
115	0x348c5c1d	2.6144053e-07
116	0x37eb6341	2.8060402e-05
117	0x3552a381	7.8469026e-07
118	0x33ad12b6	8.059344e-08
119	0x37c0ab65	2.2967995e-05
120	0x34ceda50	3.8529333e-07
121	0x37c2a96b	2.3205494e-05
122	0x34e3c1c0	4.2423017e-07
123	0x380fef2c	3.4316603e-05
124	0x368e385b	4.2384904e-06
125	0x32cd4593	2.389678e-08
126	0x331587eb	3.4815383e-08
127	0x35b92f29	1.37973e-06
128	0x330d6d5b	3.292858e-08
129	0x35bed783	1.4218825e-06
130	0x335610db	4.9841088e-08
131	0x35ba4b1e	1.3879942e-06
132	0x2d6fbffa	1.36282045e-11
133	0x3833a2e1	4.282862e-05
134	0x355416ee	7.900952e-07
135	0x3836643e	4.348554e-05
136	0x3574beae	9.117456e-07
137	0x388473bc	6.315808e-05
138	0x3710b842	8.62597e-06
139	0x334175ac	4.5043336e-08
140	0x36ef0a53	7.123957e-06
141	0x344bcf82	1.8981339e-07
142	0x36f187bd	7.1981617e-06
143	0x345d56f9	2.061387e-07
144	0x36f4d434	7.2964704e-06
145	0x345ae93e	2.0387685e-07
146	0x33971af3	7.0363875e-08
147	0x37a9274b	2.0164667e-05
148	0x33aca415	8.0392205e-08
149	0x37a9feee	2.026508e-05
150	0x33aa7045	7.9366636e-08
151	0x37b49125	2.152526e-05
152	0x347ad90b	2.3362024e-07
153	0x3399c60f	7.160644e-08
154	0x36cba555	6.0691186e-06
155	0x342a334d	1.5851147e-07
156	0x36d0fde5	6.2284403e-06
157	0x3408e9d6	1.2751056e-07
158	0x36d33c14	6.295284e-06
159	0x342d3464	1.613094e-07
160	0x33d384aa	9.8495846e-08
161	0x38cc34da	9.7373224e-05
162	0x35d466f7	1.5825198e-06
163	0x38cecc85	9.86094e-05
164	0x35d838f6	1.6109832e-06
165	0x38d40152	0.00010109194
166	0x35f88ff6	1.8519338e-06
167	0x35abfbc0	1.2813762e-06
168	0x3842a167	4.6403522e-05
169	0x34d0f613	3.8922062e-07
170	0x38440c52	4.6741516e-05
171	0x34fbea8f	4.6923057e-07
172	0x384ec481	4.9297236e-05
173	0x356a1c41	8.721291e-07
174	0x33b0dbd7	8.235627e-08
175	0x3905d213	0.00012762127
176	0x3603893d	1.9600404e-06
177	0x390911d0	0.00013071974
178	0x35f3531e	1.8129101e-06
179	0x390a7d85	0.00013207465
180	0x3618fca8	2.279683e-06
181	0x35c46c28	1.4634616e-06
182	0x39198c16	0.00014643403
183	0x3618840b	2.2726624e-06
184	0x391b4fe1	0.00014811709
185	0x361398e7	2.1993708e-06
186	0x391f3ac1	0.00015185309
187	0x361c4722	2.3287216e-06
188	0x3612733c	2.182277e-06
189	0x3788ae89	1.6293738e-05
190	0x3514853a	5.5328167e-07
191	0x3788af17	1.6293996e-05
192	0x3517bb0d	5.652408e-07
193	0x378b9b8e	1.6642527e-05
194	0x3535f25d	6.778044e-07
195	0x35143208	5.52071e-07
196	0x3830a4d4	4.2115178e-05
197	0x35d7a7d4	1.6067593e-06
198	0x3833af34	4.2840096e-05
199	0x35abeb2f	1.280894e-06
200	0x386f0b08	5.6992314e-05
201	0x365434d8	3.162122e-06
202	0x348b002a	2.5890887e-07
203	0x38388f91	4.4002725e-05
204	0x35b5e37f	1.3551761e-06
205	0x383973f2	4.421542e-05
206	0x35b1a10c	1.3234398e-06
207	0x38842d14	6.302647e-05
208	0x365cea3a	3.2918892e-06
209	0x344201b0	1.8068272e-07
210	0x3893f20c	7.054591e-05
211	0x3575f438	9.1625e-07
212	0x38947005	7.078055e-05
213	0x355f1997	8.311121e-07
214	0x3896961d	7.180518e-05
215	0x358795e1	1.0101904e-06
216	0x355c8696	8.2152235e-07
217	0x3768adb2	1.3868719e-05
218	0x34e22471	4.2122295e-07
219	0x376ba7c9	1.4046157e-05
220	0x34e5ddb8	4.2815896e-07
221	0x37716de9	1.439031e-05
222	0x35080c2b	5.0681655e-07
223	0x34f06c79	4.4782408e-07
224	0x3910a52c	0.00013794441
225	0x3614287e	2.2077288e-06
226	0x39166b98	0.00014345197
227	0x361ac859	2.3064406e-06
228	0x39158b08	0.0001426154
229	0x3626c2e3	2.4849367e-06
230	0x35da4fc7	1.6265484e-06
231	0x390d2503	0.00013460596
232	0x3609cdba	2.053434e-06
233	0x391047d3	0.00013759667
234	0x360151df	1.9270153e-06
235	0x3911901e	0.00013881965
236	0x360a0e9b	2.0572104e-06
237	0x36071289	2.0127356e-06
238	0x37ff3ac3	3.0425732e-05
239	0x3440802b	1.792802e-07
240	0x37ff028e	3.0399558e-05
241	0x346330b4	2.115874e-07
242	0x3839470b	4.41736e-05
243	0x36e0cb4e	6.699388e-06
244	0x32ac6ee4	2.0073863e-08
245	0x380f2c6b	3.4135224e-05
246	0x35fdcd89	1.8909788e-06
247	0x3810df90	3.4540484e-05
248	0x35b93eb4	1.3801823e-06
249	0x38156e77	3.5627247e-05
250	0x35d4b01e	1.5846488e-06
251	0x356af552	8.752878e-07
252	0x34118272	1.3551633e-07
253	0x35aa8e64	1.2707428e-06
254	0x340ff710	1.3407794e-07
255	0x35bad8f4	1.3921222e-06

exp_avg f4 [64]
0	0xbb15951e	-0.0022824476
1	0x00000000	0.0
2	0xbb5e38d2	-0.003390838
3	0x37fea2bd	3.035494e-05
4	0x37ee0fde	2.83792e-05
5	0xbc1ee78e	-0.009698762
6	0x3b3e1140	0.002900198
7	0xbbea932c	-0.0071586575
8	0xbcad5b92	-0.021161828
9	0x3cbf1d30	0.023329347
10	0xbc178d77	-0.009250036
11	0x00000004	6e-45
12	0xbc760c0c	-0.015017521
13	0xbbe1ef25	-0.0068949633
14	0x3cae43d2	0.021272574
15	0x3ac11ef2	0.0014733954
16	0xbb1d3df7	-0.0023993233
17	0x3b8813c5	0.0041527473
18	0x38343500	4.2964704e-05
19	0x3ba79ee4	0.005115377
20	0xbbd39390	-0.0064568
21	0xbbe6e0d2	-0.0070458436
22	0xbb25705e	-0.0025243978
23	0x3c1d1ffa	0.009590143
24	0xbb8923fb	-0.0041851974
25	0x3b8f0364	0.004364418
26	0xbc21ac1a	-0.009867692
27	0xbba1b95e	-0.0049354276
28	0x395e73c0	0.0002121469
29	0x3a90b342	0.0011039751
30	0xbbcf5399	-0.0063271043
31	0xbb2a1f58	-0.0025958624
32	0x3cba0281	0.022706272
33	0xbbd2b80f	-0.006430633
34	0x3ae723b3	0.001763454
35	0xbb230a30	-0.0024877898
36	0x382a5a26	4.0615116e-05
37	0x3a92ed2f	0.0011209602
38	0xbb8c20c6	-0.004276368
39	0xbbf1a94c	-0.007374918
40	0xbb89df22	-0.0042075077
41	0xbb155228	-0.0022784565
42	0x3bb535a7	0.0055300775
43	0xbb8b67a8	-0.0042543
44	0x3c53cbc7	0.012927002
45	0xbbe5cdf1	-0.0070130755
46	0x3c25d89f	0.010122447
47	0x3cbb90da	0.022896219
48	0x3d0e18dc	0.034691676
49	0x3cf8f114	0.030388393
50	0xbc912f76	-0.017722826
51	0x3bc6afe7	0.0060634497
52	0x3b4c5fa6	0.003118494
53	0x3b3f0700	0.002914846
54	0xbb9a473e	-0.0047081998
55	0xbb65cf75	-0.003506628
56	0xbb8782e3	-0.004135476
57	0xb8c04de0	-9.169779e-05
58	0x3b2a5450	0.0025990196
59	0x3908bfee	0.0001304147
60	0x3a0c2570	0.0005346155
61	0x3c1ed0b3	0.009693312
62	0xbbab4532	-0.0052267546
63	0x3b4a689e	0.003088511

exp_avg_sq f4 [64]
0	0x3985ec52	0.0002554381
1	0x00000000	0.0
2	0x3b150236	0.0022736914
3	0x33abdefa	8.003367e-08
4	0x32f1b0ef	2.8136553e-08
5	0x3a9c3b71	0.001191957
6	0x3a9d4117	0.0011997548
7	0x3a07148d	0.00051529036
8	0x3b55484c	0.0032544313
9	0x3b6b4afa	0.0035902844
10	0x3ae61b76	0.0017555791
11	0x2b7d2ec9	8.9948584e-13
12	0x3b197fe1	0.002342217
13	0x39ef1dec	0.00045607926
14	0x3b72b153	0.0037031963
15	0x3880150d	6.107437e-05
16	0x3980dde4	0.00024579384
17	0x38adcb06	8.287099e-05
18	0x33924ffc	6.813204e-08
19	0x3900f571	0.00012298465
20	0x395b78b1	0.00020930429
21	0x39780510	0.00023653009
22	0x395e27fc	0.00021186465
23	0x3b159b5c	0.0022828197
24	0x398e1d0a	0.00027105986
25	0x3b470324	0.0030366862
26	0x3b892ceb	0.004186263
27	0x3a883401	0.0010391475
28	0x3a373814	0.0006989252
29	0x3a038b60	0.0005018022
30	0x3ad4f201	0.0016246439
31	0x3a5642e4	0.00081734196
32	0x3b550f2b	0.0032510262
33	0x3b7aa512	0.0038245362
34	0x3897a28d	7.2305185e-05
35	0x3ad9a308	0.0016604373
36	0x33f6e12d	1.1496227e-07
37	0x38930507	7.010443e-05
38	0x3a9f07b3	0.0012133032
39	0x3b213bac	0.0024602218
40	0x3997b13e	0.0002893302
41	0x39446db5	0.00018732886
42	0x3b08e22f	0.002088677
43	0x39b5848a	0.0003462176
44	0x3b2d8235	0.0026475315
45	0x3b27687d	0.0025544458
46	0x3ae907e7	0.0017778844
47	0x3b907d67	0.0044094804
48	0x3b7616e7	0.0037550272
49	0x3b944d25	0.004525798
50	0x3b40a491	0.0029394964
51	0x3911856d	0.00013877983
52	0x39232b7e	0.00015561093
53	0x38f6c090	0.00011766062
54	0x3b211117	0.0024576837
55	0x39829b6f	0.0002491134
56	0x39a2391b	0.00030941595
57	0x3a3f853f	0.0007305927
58	0x3884fcf8	6.3413696e-05
59	0x3797a2b0	1.807636e-05
60	0x37d77f29	2.568921e-05
61	0x3b343636	0.0027498133
62	0x3b577b6b	0.003287996
63	0x3971f6e1	0.0002307552

exp_avg f4 [32, 64]
0	0x388c6441	6.694394e-05
1	0x00000000	0.0
2	0x00000004	6e-45
3	0xabe4337f	-1.6214667e-12
4	0x0c81a00d	1.9971924e-31
5	0x00000004	6e-45
6	0x00000004	6e-45
7	0x3a4cb934	0.000780958
8	0x00000004	6e-45
9	0x3b982382	0.0046429047
10	0x0000a030	5.7464e-41
11	0x00000000	0.0
12	0x00000004	6e-45
13	0x3a73eeca	0.00093052967
14	0x3b81fe28	0.0039670654
15	0x3ae76277	0.0017653246
16	0x39eb6547	0.0004489815
17	0x3b1fc3d2	0.0024378193
18	0x0c29368e	1.3035703e-31
19	0x3abe1909	0.0014503311
20	0x38fda3a4	0.000120944605
21	0x3a8ae8f0	0.0010597985
22	0x164a347f	1.6333995e-25
23	0x3b81826a	0.003952314
24	0x3a44347d	0.0007484628
25	0x3b5e2726	0.0033897846
26	0x00000004	6e-45
27	0x80000004	-6e-45
28	0x3b0d8696	0.0021595112
29	0x3a41c68f	0.0007391953
30	0x3b0b7d7c	0.0021284511
31	0x80000004	-6e-45
32	0x3b8218a6	0.0039702235
33	0x00000004	6e-45
34	0x3aa68137	0.0012703304
35	0x80000004	-6e-45
36	0x363e08fe	2.831744e-06
37	0x3aa2da74	0.0012424723
38	0x3b372b5b	0.0027949426
39	0x00000004	6e-45
40	0x3ac22be7	0.0014814109
41	0x3a7cb60b	0.00096401636
42	0x3b29cf68	0.0025910977
43	0x3a98955e	0.0011641195
44	0x3b5b27e4	0.0033440525
45	0x00000004	6e-45
46	0x3b224ccc	0.0024765013
47	0x3b828a7b	0.0039837933
48	0x3b52425d	0.0032083013
49	0x3b9c08ae	0.004761777
50	0x00000004	6e-45
51	0x37baef4b	2.2284357e-05
52	0x3a88a6de	0.0010425707
53	0x3a9fd11a	0.0012193054
54	0x00000004	6e-45
55	0x3a1d35b9	0.000599708
56	0x3a1cbec3	0.00059793534
57	0x00000004	6e-45
58	0x3ad97e72	0.001659347
59	0x3687b8e4	4.0448376e-06
60	0x3a0099b7	0.0004905718
61	0x3b121f87	0.0022296624
62	0x3b76d4d8	0.0037663486
63	0x386a1868	5.5812678e-05
64	0x3a18f681	0.0005835072
65	0x00000000	0.0
66	0xba15d7fc	-0.0005716083
67	0x80000004	-6e-45
68	0x80000004	-6e-45
69	0xba2b1fd4	-0.0006527875
70	0xba503b78	-0.0007943432
71	0xba211e24	-0.0006146154
72	0xb8141cc4	-3.531274e-05
73	0xb9ad323d	-0.00033034562
74	0xba1994bd	-0.00058586505
75	0x00000004	6e-45
76	0xb8f271c3	-0.00011560649
77	0xba40d31e	-0.00073556777
78	0xb8d5f5f8	-0.00010202447
79	0xb96ed5ab	-0.00022777046
80	0x37d45568	2.531214e-05
81	0xb8aece22	-8.335362e-05
82	0x8001c599	-1.6272e-40
83	0xb98050f9	-0.00024474392
84	0xb9d91690	-0.00041406276
85	0xbad04fa4	-0.0015892875
86	0xb9092f00	-0.00013082847
87	0xba77316a	-0.00094296655
88	0xb8bd5ca8	-9.029481e-05
89	0xba6a1616	-0.00089296827
90	0xb894eba2	-7.10108e-05
91	0xba097246	-0.00052431633
92	0xb9f1781a	-0.00046056585
93	0x3900902b	0.00012260738
94	0x38802e93	6.112191e-05
95	0xb9d73520	-0.00041047577
96	0xba402def	-0.00073310634
97	0xb9487c7a	-0.00019119857
98	0x37b5d3ca	2.1675503e-05
99	0xb7a24b90	-1.9347091e-05
100	0xa4520499	-4.5540386e-17
101	0xb92f320a	-0.00016707942
102	0xba06b931	-0.000513929
103	0xb964d515	-0.00021823154
104	0xba2c817f	-0.0006580576
105	0xb9f8c02c	-0.00047445425
106	0x3a0a571a	0.00052772614
107	0xb9bff543	-0.00036613093
108	0xba2a911a	-0.0006506607
109	0xb940ff56	-0.00018405667
110	0xba422413	-0.0007405888
111	0xba1921b9	-0.0005841512
112	0xba0c02b6	-0.000534098
113	0xba2098cf	-0.0006126286
114	0xba0fcc9d	-0.0005485507
115	0xb8aab28a	-8.139487e-05
116	0xb9222c64	-0.0001546606
117	0xb910b428	-0.00013800024
118	0xb9f99a7e	-0.00047608087
119	0xb7cbe2a0	-2.4305016e-05
120	0xba5ecaef	-0.00084988674
121	0x385d9720	5.2831252e-05
122	0xb94ce6d2	-0.00019540943
123	0x31a7b58f	4.8809805e-09
124	0xb87c09c8	-6.009059e-05
125	0x385c87bf	5.257851e-05
126	0xba3d6bd4	-0.00072258455
127	0x38a50088	7.867912e-05
128	0xbb83dd42	-0.0040241787
129	0x00000000	0.0
130	0xbac57cff	-0.0015067159
131	0x00000004	6e-45
132	0x80000004	-6e-45
133	0xbb6a7046	-0.0035772487
134	0xbb1b2aa8	-0.0023676548
135	0xba7cc394	-0.00096421805
136	0xba55a95b	-0.0008150541
137	0x39d04ee5	0.00039731633
138	0xbaefc2e7	-0.0018292338
139	0x00000004	6e-45
140	0xba033721	-0.0005005468
141	0xbacf7d5b	-0.0015830206
142	0xb9897d18	-0.00026223878
143	0x00000004	6e-45
144	0x3a5e134c	0.00084715034
145	0x00000004	6e-45
146	0x00055446	4.89409e-40
147	0x00000004	6e-45
148	0xbb95b927	-0.004569191
149	0xbb9e314f	-0.0048276554
150	0xbb1038f6	-0.0022006608
151	0xba3e53b9	-0.00072604005
152	0xbb3271e8	-0.0027228538
153	0x385c2013	5.248196e-05
154	0xba9ea9c3	-0.0012105036
155	0xba86b19a	-0.0010276318
156	0xb6bab1a0	-5.5639102e-06
157	0x3390e036	6.746306e-08
158	0x39ea0944	0.0004463886
159	0xbb472355	-0.003038605
160	0xba0d6b8a	-0.0005394748
161	0xb9798810	-0.00023797178
162	0x00000004	6e-45
163	0x39b9a222	0.00035406748
164	0x800007f5	-2.854e-42
165	0x00000004	6e-45
166	0x3a085660	0.0005200859
167	0xba0b6388	-0.00053172605
168	0xba56e40d	-0.00081974344
169	0xbb4b5f82	-0.003103227
170	0xb9d73027	-0.00041043872
171	0xbac74c54	-0.0015205243
172	0xb9a51061	-0.00031483456
173	0xbafe10b5	-0.0019383641
174	0xb887ab4c	-6.469208e-05
175	0xb9c39f17	-0.0003731183
176	0xb9ee5b2b	-0.00045462823
177	0x3986b81b	0.0002569564
178	0xba5eb033	-0.00084948837
179	0xb8935b59	-7.026521e-05
180	0x80000004	-6e-45
181	0x00000004	6e-45
182	0xbab7b907	-0.0014016934
183	0xbb42da4f	-0.0029732173
184	0x37c2b8c0	2.3212633e-05
185	0xbb457fa6	-0.00301359
186	0x00000004	6e-45
187	0xac28878c	-2.394948e-12
188	0x0000001d	4e-44
189	0xb842ffbc	-4.6491376e-05
190	0x392e49c8	0.00016621419
191	0x38eeeaba	0.000113924456
192	0xbbf03e6d	-0.0073316605
193	0x00000000	0.0
194	0xba9f7f97	-0.0012168762
195	0x00000004	6e-45
196	0x80000004	-6e-45
197	0xbbbb82fb	-0.005722401
198	0xbb70b10a	-0.0036726617
199	0xbb69c994	-0.0035673128
200	0xbabb9054	-0.0014309981
201	0xba3569a0	-0.00069203414
202	0xbab70eef	-0.0013966243
203	0x00000004	6e-45
204	0xbae4e000	-0.0017461777
205	0xbb96cf82	-0.0046023736
206	0xba4b28c8	-0.00077499123
207	0x00000004	6e-45
208	0xbafcb8e7	-0.0019281179
209	0x00000004	6e-45
210	0x0005aaaf	5.20407e-40
211	0x00000004	6e-45
212	0xbc12fcea	-0.008971432
213	0xbb99b6a7	-0.0046909633
214	0xbbf33ead	-0.007423243
215	0xba7c6629	-0.000962826
216	0xbbb18453	-0.0054173856
217	0x3882b4ec	6.2325824e-05
218	0xbab670c4	-0.0013919105
219	0xbb8ea0c4	-0.004352661
220	0x361e3fbd	2.3580935e-06
221	0x34092b75	1.2774929e-07
222	0xb8ce239c	-9.829478e-05
223	0xbb8c6503	-0.0042845025
224	0xba32dfbc	-0.00068235
225	0xba373875	-0.0006989309
226	0x00000004	6e-45
227	0xba844629	-0.001009171
228	0xa3f9d57f	-2.7087053e-17
229	0x80000004	-6e-45
230	0xb9a604b1	-0.00031665483
231	0xbaa4c478	-0.0012570759
232	0xbb5924b2	-0.0033133444
233	0xbbf41d30	-0.0074497685
234	0xba0df1b4	-0.000541474
235	0xbb21edcb	-0.0024708386
236	0xba268a05	-0.0006352964
237	0xbb373464	-0.0027954811
238	0xb8eb55d7	-0.00011221662
239	0xba9ac850	-0.0011808965
240	0xba0499b8	-0.0005058306
241	0xb8c0ed40	-9.199465e-05
242	0xba6b6cfd	-0.0008980779
243	0xb548c47c	-7.479173e-07
244	0x00000004	6e-45
245	0x00000004	6e-45
246	0xba1109c3	-0.00055327656
247	0xbbb2458e	-0.0054404205
248	0xbb8d8172	-0.0043184096
249	0xbbdc3c96	-0.0067210896
250	0x00000004	6e-45
251	0xac165d5d	-2.136811e-12
252	0x00000015	3e-44
253	0xb9f6668d	-0.00046997183
254	0xb9bdef03	-0.00036226967
255	0x388e84e7	6.795843e-05

exp_avg_sq f4 [32, 64]
0	0x333ef363	4.445918e-08
1	0x00000000	0.0
2	0x2d81873c	1.4725658e-11
3	0x34af941f	3.2704062e-07
4	0x34655172	2.1356917e-07
5	0x2ea271cb	7.387121e-11
6	0x2f211fb1	1.4654124e-10
7	0x36368a14	2.7200485e-06
8	0x2f43a18e	1.7792542e-10
9	0x38a01ae1	7.634401e-05
10	0x31e0a7cd	6.5383348e-09
11	0x00000000	0.0
12	0x2e8e0206	6.457772e-11
13	0x368b1214	4.1446274e-06
14	0x386664d8	5.493019e-05
15	0x37580db3	1.2877793e-05
16	0x35d15fb9	1.5599572e-06
17	0x3794a41a	1.771939e-05
18	0x339e2727	7.36457e-08
19	0x374e97cd	1.2313901e-05
20	0x341bff49	1.4528372e-07
21	0x369c7714	4.663025e-06
22	0x315a3cd2	3.1757748e-09
23	0x38663b10	5.489128e-05
24	0x3641d584	2.8883524e-06
25	0x3845aaa3	4.7127378e-05
26	0x295f2d4f	4.9555246e-14
27	0x2f47cd02	1.8171778e-10
28	0x37772852	1.4731735e-05
29	0x37c4275a	2.3383345e-05
30	0x37b57fb5	2.163635e-05
31	0x2f098c8b	1.2510008e-10
32	0x3880f7e3	6.149688e-05
33	0x2d82750e	1.4831272e-11
34	0x371196b7	8.6777645e-06
35	0x2fc7f12d	3.6369255e-10
36	0x352da8be	6.4693074e-07
37	0x36deaaa8	6.6359826e-06
38	0x37f67eb2	2.9384482e-05
39	0x2d080f68	7.734126e-12
40	0x3723b55a	9.757781e-06
41	0x369dca07	4.7024837e-06
42	0x380a8952	3.3029653e-05
43	0x36988c8f	4.546316e-06
44	0x381d13f8	3.7450314e-05
45	0x2e8f3f0e	6.514088e-11
46	0x380579d2	3.1823125e-05
47	0x3863440e	5.41844e-05
48	0x3862fe86	5.4119642e-05
49	0x38b5ac09	8.6627966e-05
50	0x2a95a9bf	2.6585502e-13
51	0x358e6cb7	1.0611465e-06
52	0x366fc610	3.5729063e-06
53	0x36ef47d8	7.1311188e-06
54	0x2f3089a0	1.6056001e-10
55	0x3662df7e	3.3806714e-06
56	0x36734d4b	3.6254812e-06
57	0x2f3a7e9f	1.6961586e-10
58	0x372fcd05	1.0478548e-05
59	0x34e294f1	4.220415e-07
60	0x3540df14	7.1850195e-07
61	0x381f0cd8	3.7920516e-05
62	0x385b45b3	5.227858e-05
63	0x34c1291d	3.5978965e-07
64	0x381420c1	3.5316454e-05
65	0x00000000	0.0
66	0x36a83572	5.013012e-06
67	0x311c23a6	2.2721252e-09
68	0x30128d8c	5.331564e-10
69	0x37a4e067	1.9654819e-05
70	0x37c605b8	2.3606102e-05
71	0x37855f05	1.5899082e-05
72	0x36623309	3.370633e-06
73	0x37d5d09f	2.5488725e-05
74	0x36e93450	6.950031e-06
75	0x255a8016	1.8951883e-16
76	0x369fc025	4.760938e-06
77	0x37694b67	1.3905438e-05
78	0x379081fe	1.722667e-05
79	0x35da0bd0	1.6245704e-06
80	0x3774fe54	1.4602749e-05
81	0x36427b48	2.8980012e-06
82	0x2e95cf4c	6.812559e-11
83	0x35b5ad4e	1.3535989e-06
84	0x3840e870	4.599284e-05
85	0x380d488a	3.3684577e-05
86	0x38819460	6.178836e-05
87	0x3799f47d	1.835287e-05
88	0x380cb15c	3.354378e-05
89	0x375b9e5f	1.3090291e-05
90	0x3647f18f	2.9793916e-06
91	0x379cf2c5	1.8709698e-05
92	0x360313ea	1.9532113e-06
93	0x367d0052	3.7700124e-06
94	0x36f35df7	7.2529033e-06
95	0x37929b39	1.7476837e-05
96	0x379d8705	1.8778732e-05
97	0x364df0af	3.0687477e-06
98	0x357868ca	9.253969e-07
99	0x37059418	7.9618985e-06
100	0x31a1f3a3	4.713415e-09
101	0x35133b94	5.4848465e-07
102	0x3737535d	1.09270595e-05
103	0x368a240b	4.1169164e-06
104	0x37ec83d4	2.819478e-05
105	0x384ecae6	4.930319e-05
106	0x3721b8df	9.6393915e-06
107	0x37586ce7	1.2899959e-05
108	0x374c11b7	1.2163472e-05
109	0x366da463	3.5411438e-06
110	0x36ee21fa	7.096908e-06
111	0x3792a7c4	1.7482678e-05
112	0x3790781f	1.7222073e-05
113	0x37de0f6e	2.6471647e-05
114	0x36785040	3.7001591e-06
115	0x335510f9	4.9608364e-08
116	0x3477eb8e	2.3089362e-07
117	0x3580e0b6	9.602143e-07
118	0x36c97ce6	6.004807e-06
119	0x3827ae6c	3.9978346e-05
120	0x381700cf	3.600196e-05
121	0x37df718e	2.663655e-05
122	0x35868be8	1.0024496e-06
123	0x3210566b	8.401552e-09
124	0x332e06c6	4.0518692e-08
125	0x3744784c	1.1710519e-05
126	0x3780e904	1.5367295e-05
127	0x33329b9c	4.158538e-08
128	0x3995bd02	0.00028560316
129	0x00000000	0.0
130	0x386588b0	5.4725155e-05
131	0x2e2a43d3	3.8713765e-11
132	0x2e094d1c	3.121868e-11
133	0x3946dc3e	0.00018964798
134	0x396e0f8f	0.00022703245
135	0x38c6344c	9.451117e-05
136	0x3815a004	3.5673394e-05
137	0x36d3ab41	6.3082266e-06
138	0x38959e7d	7.1343944e-05
139	0x262a052c	5.898761e-16
140	0x385bf5f2	5.2442723e-05
141	0x38ac8173	8.225711e-05
142	0x366380f2	3.3900692e-06
143	0x2e6c7a7c	5.3768975e-11
144	0x38cd6892	9.7946395e-05
145	0x2eac3de4	7.8326484e-11
146	0x2ea963ab	7.702935e-11
147	0x2decba5f	2.6912859e-11
148	0x39ba8741	0.00035577457
149	0x3965c045	0.00021910768
150	0x3a05f354	0.0005109806
151	0x36c8e009	5.9865456e-06
152	0x3974d609	0.00023349388
153	0x36512c6a	3.116928e-06
154	0x381429be	3.5324825e-05
155	0x393c3882	0.00017950128
156	0x32800f77	1.4908194e-08
157	0x310c5f32	2.0426794e-09
158	0x366a7fc9	3.4943098e-06
159	0x39229fa6	0.00015508998
160	0x3688f5e4	4.0817413e-06
161	0x38133d57	3.510466e-05
162	0x2ef1a2f4	1.09883574e-10
163	0x38a9c60f	8.095439e-05
164	0x2f39c5db	1.6895944e-10
165	0x2b7ffd33	9.0945583e-13
166	0x36b685c5	5.4395955e-06
167	0x383cf220	4.504819e-05
168	0x39227a47	0.00015495076
169	0x39a86730	0.00032120338
170	0x367c0157	3.7551706e-06
171	0x38931707	7.0137954e-05
172	0x3641d315	2.8882107e-06
173	0x382d1367	4.1264484e-05
174	0x35870983	1.0061052e-06
175	0x367f1cfe	3.8014837e-06
176	0x3636f139	2.7260523e-06
177	0x36a60460	4.947695e-06
178	0x3828463d	4.0119736e-05
179	0x34b50e39	3.3724226e-07
180	0x2d3a9752	1.0606476e-11
181	0x2e18f389	3.47771e-11
182	0x3891b7d9	6.948383e-05
183	0x398abda5	0.00026462707
184	0x3977b14a	0.00023621801
185	0x397b7c27	0.00023983476
186	0x2dceaacc	2.3495338e-11
187	0x31ebc79c	6.862093e-09
188	0x3093a3e4	1.0742238e-09
189	0x365beb7d	3.2770615e-06
190	0x36236c93	2.4352091e-06
191	0x332294e1	3.785397e-08
192	0x393f56d0	0.0001824752
193	0x00000000	0.0
194	0x3804a6df	3.1626663e-05
195	0x2ea4f57f	7.5014654e-11
196	0x2ea79e55	7.622406e-11
197	0x38f581d2	0.00011706691
198	0x391044c4	0.00013758527
199	0x38825af6	6.215826e-05
200	0x37b38092	2.1398333e-05
201	0x36b443ab	5.3722956e-06
202	0x3834a219	4.306631e-05
203	0x25952067	2.5869336e-16
204	0x380742cc	3.2248718e-05
205	0x386980b7	5.5671404e-05
206	0x363d7c41	2.823552e-06
207	0x2ebbd966	8.542393e-11
208	0x3883b015	6.2793646e-05
209	0x2ec0dea7	8.7707e-11
210	0x2edcb335	1.0036275e-10
211	0x2e5dc647	5.0425688e-11
212	0x396d398b	0.00022623518
213	0x391690ce	0.00014359059
214	0x39b07c08	0.00033661746
215	0x36b0d4c8	5.2699797e-06
216	0x391a16d3	0.00014695087
217	0x36355a03	2.7023495e-06
218	0x37abbb9c	2.0472151e-05
219	0x38eacb74	0.000111958856
220	0x324ff4ed	1.21046755e-08
221	0x311be3bc	2.268492e-09
222	0x363fdfaf	2.859142e-06
223	0x38caaab0	9.6639036e-05
224	0x3668ac41	3.467096e-06
225	0x37b0cb6d	2.1075562e-05
226	0x2f0286b1	1.1871283e-10
227	0x385243d4	5.013107e-05
228	0x2fc2ed75	3.5457118e-10
229	0x2cad0259	4.9172164e-12
230	0x3694ff95	4.4404974e-06
231	0x37da96f8	2.6057925e-05
232	0x38d50a5a	0.000101585596
233	0x395ab775	0.00020858443
234	0x365cec56	3.292012e-06
235	0x383ffb7c	4.577216e-05
236	0x361f0ed9	2.3701489e-06
237	0x37d3051a	2.5155536e-05
238	0x356b8a65	8.774571e-07
239	0x36807761	3.828595e-06
240	0x36271313	2.4896042e-06
241	0x369ce80c	4.676176e-06
242	0x37c36fb1	2.3297822e-05
243	0x3482b13d	2.4343345e-07
244	0x2d044408	7.518437e-12
245	0x2e8c3fcd	6.377796e-11
246	0x3827417e	3.9876897e-05
247	0x39332e04	0.00017087912
248	0x39244ec2	0.00015669598
249	0x391aad74	0.00014751201
250	0x2e4b5561	4.6232688e-11
251	0x31ae10c6	5.0659734e-09
252	0x3057bc97	7.8484547e-10
253	0x363c834e	2.8090612e-06
254	0x361d2418	2.3415832e-06
255	0x32c63d18	2.3078016e-08
