ablation_results_20250630_110347/baseline/best_model.pth (torch, 44194 bytes, 18 tensors)

layers.0.weight f4 [64, 7]
0.48547468 0.3505435 0.10779361 0.38402596 0.11809406 0.11325212 -0.1839444 0.22185919
0.3330529 -0.27714637 0.32838628 0.07070482 0.2791045 0.05115974 0.44021863 -0.16150838
0.54908407 -0.04359927 0.07991926 -0.012087824 -0.17407258 -0.046698928 -0.19462247 0.25001514
-0.34961423 -0.18052256 -0.1574519 -0.22714685 0.0437997 -0.36398914 0.34939802 -0.3137054
0.3000364 0.07082034 -0.12267038 0.5007366 -0.074739605 0.5722906 -0.0892028 0.14636451
-0.029976815 -0.10243979 0.41987205 0.2290181 0.47906503 -0.2734288 0.47723803 -0.040686417
0.19183084 -0.15053566 -0.32691422 -0.0652785 -0.23781523 0.43082905 0.16006361 0.15648851
-0.077570096 -0.060494237 0.095124625 -0.31922057 -0.18656936 -0.38300872 0.11648971 -0.39172336
0.08454958 -0.34079897 0.27325046 -0.4751533 -0.24976635 -0.22531809 0.5872791 0.21025088
0.6104394 -0.22522353 -0.12753406 -0.18470475 -0.25411355 0.1530213 0.13527045 0.3139209
-0.19507767 -0.25752383 0.2004269 -0.15270543 0.5030291 -0.055059657 0.4896264 -0.25050506
0.08156003 0.15233593 0.07986978 -0.08021917 0.41004342 0.27267864 -0.08908299 -0.14220853
0.53078806 -0.12746799 -0.34429803 -0.3982778 -0.42858028 0.056268346 -0.2791218 -0.37472835
0.00886146 -0.2873393 -0.3376781 -0.2393962 -0.34969684 -0.30388275 0.3595444 0.07135329
-0.048956767 -0.4176043 -0.41596243 -0.19546314 -0.12248038 -0.40270516 -0.1627852 -0.3259216
0.019176552 -0.24255988 0.0024613803 -0.4161632 -0.35604966 -0.22039238 -0.18559803 -0.348715
0.26072654 -0.13673353 0.27005064 0.060309477 -0.31992018 0.106749974 -0.07510924 -0.29894212
-0.27624297 -0.568136 0.10795217 -0.08252928 0.3911469 -0.2765998 0.5239003 -0.24177827
0.17408353 0.112847425 0.19501206 0.34155956 0.3595015 -0.26350132 0.11047406 -0.0920087
0.029176852 -0.28276366 0.5042644 -0.20428738 0.36129734 0.20477618 0.28540698 -0.101008
0.34341237 -0.13832031 -0.0012773275 -0.5573426 0.10175696 -0.26922658 -0.23479237 0.32451227
0.15910424 -0.14953545 -0.11748489 0.040584087 0.3279585 0.005163912 -0.21554425 -0.30365708
-0.25613746 -0.04066518 0.33127472 -0.535942 0.043342665 0.19514057 0.06850132 -0.13453296
0.19716284 0.19851252 0.14126173 -0.06638169 -0.10002908 0.31199217 -0.19771078 0.15887523
0.100160696 0.59437317 -0.06633309 -0.084590316 0.014551622 -0.05316587 0.09727983 0.08326922
-0.41071677 -0.29270634 0.31815603 0.048167318 -0.01772125 -0.329723 -0.2314679 -0.49445763
-0.18161707 0.12757066 0.18319063 0.24864632 -0.39272034 -0.15294608 -0.15420164 0.439681
0.054647207 0.21041223 0.2194231 0.16404888 -0.17415455 0.58299464 -0.09272857 -0.075734556
-0.57905245 0.2897625 0.07980326 0.17219761 -0.4762876 -0.3959425 -0.3068358 0.50536114
0.09587124 0.54139525 0.112410344 0.31776226 -0.08920233 -0.28730527 -0.3438576 -0.3800876
0.12874609 -0.21204524 -0.18224488 -0.34201092 -0.06883928 0.027654473 -0.16443683 0.41983932
-0.024493117 0.5234328 -0.0669608 -0.27712336 -0.07656924 -0.1648375 -0.12537147 -0.33774757
00000000: 2390 f83e 707a b33e e5c2 dc3d 0d9f c43e
00000010: 4cdb f13d baf0 e73d ec5b 3cbe 0e2f 633e
00000020: e985 aa3e 21e6 8dbe 3f22 a83e b0cd 903d
00000030: c9e6 8e3e e08c 513d 5664 e13e 7462 25be
00000040: c690 0c3f 2695 32bd b6ac a33d 020c 46bc
00000050: 1540 32be 6047 3fbd 1d4b 47be fc01 803e
00000060: a300 b3be e8da 38be 123b 21be 2f99 68be
00000070: 5067 333d c95c babe 4ce4 b23e ff9d a0be
00000080: 5f9e 993e 410a 913d 9c3a fbbd 4630 003f
00000090: 1411 99bd a381 123f f5af b6bd 94e0 153e
000000a0: f091 f5bc f4cb d1bd 78f9 d63e b983 6a3e
000000b0: 0348 f53e dcfe 8bbe 8b58 f43e cda6 26bd
000000c0: 4e6f 443e 0526 1abe 4d61 a7be bcb0 85bd
000000d0: d685 73be a095 dc3e b7e7 233e 863e 203e
000000e0: 12dd 9ebd cec8 77bd b3d0 c23d e170 a3be
000000f0: 0a0c 3fbe b819 c4be 2892 ee3d f78f c8be
00000100: 5528 ad3d 347d aebe 7ce7 8b3e 4b47 f3be
00000110: c0c2 7fbe c9b9 66be ec57 163f 024c 573e
00000120: c245 1c3f ffa0 66be 4a98 02be 3e23 3dbe
00000130: 2c1b 82be 9eb1 1c3e 5684 0a3e 3dba a03e
00000140: 71c2 47be 2ada 83be b63c 4d3e d05e 1cbe
00000150: 84c6 003f 3c86 61bd 50b0 fa3e 3342 80be
00000160: f208 a73d f3fd 1b3e c492 a33d f349 a4bd
00000170: 36f1 d13e 899c 8b3e 2571 b6bd 1d9f 11be
00000180: bae1 073f f886 02be d547 b0be 11eb cbbe
00000190: e06e dbbe a379 663d 0de9 8ebe 65dc bfbe
000001a0: a82f 113c 231e 93be 25e4 acbe 4724 75be
000001b0: 770b b3be 8596 9bbe 3416 b83e ac21 923d
000001c0: e486 48bd 3bd0 d5be 07f9 d4be 7d27 48be
000001d0: fed6 fabd 5f2f cebe 2ab1 26be 32df a6be
000001e0: 2518 9d3c 9e61 78be 1c4f 213b 5813 d5be
000001f0: 244c b6be 8aae 61be 690d 3ebe c68a b2be
00000200: f37d 853e e003 0cbe 1444 8a3e 1207 773d
00000210: 94cc a3be bb9f da3d e0d2 99bd f10e 99be
00000220: b86f 8dbe 5c71 11bf 0716 dd3d 1c05 a9bd
00000230: 6844 c83e 7d9e 8dbe 541e 063f b994 77be
00000240: f442 323e 8d1c e73d 3eb1 473e e5e0 ae3e
00000250: 9510 b83e a5e9 86be 3940 e23d 0f6f bcbd
00000260: 4b04 ef3c 66c6 90be 7917 013f b630 51be
00000270: f7fb b83e d9b0 513e dd20 923e 48dd cebd
00000280: bfd3 af3e d7a3 0dbe 006c a7ba 01ae 0ebf
00000290: f465 d03d 11d8 89be 696d 70be 7926 a63e
000002a0: 39ec 223e d21f 19be eb9b f0bd 803b 263d
000002b0: 2dea a73e 0936 a93b a2b7 5cbe f178 9bbe
000002c0: 7324 83be 8890 26bd d79c a93e 7f33 09bf
000002d0: 1488 313d eed2 473e 6c4a 8c3d 02c3 09be
000002e0: 0ee5 493e de46 4b3e eaa6 103e 20f3 87bd
000002f0: 0cdc ccbd 70bd 9f3e b274 4abe 30b0 223e
00000300: 0d21 cd3d d728 183f a5d9 87bd b03d adbd
00000310: ed69 6e3c 75c4 59bd a63a c73d 0e89 aa3d
00000320: 7849 d2be 9bdd 95be 59e5 a23e 184b 453d
00000330: 282c 91bc 74d1 a8be ec05 6dbe 8d29 fdbe
00000340: d3f9 39be e2a1 023e 5396 3b3e 249d 7e3e
00000350: a412 c9be e69d 1cbe 09e7 1dbe de1d e13e
00000360: c0d5 5f3d 4e76 573e 73b0 603e 6efc 273e
00000370: 9255 32be 233f 153f 7ae8 bdbd b81a 9bbd
00000380: c83c 14bf c05b 943e e46f a33d 9254 303e
00000390: f8db f3be fab8 cabe 9519 9dbe 595f 013f
000003a0: 2458 c43d e198 0a3f 6537 e63d bcb1 a23e
000003b0: b6af b6bd ad19 93be 1a0e b0be d89a c2be
000003c0: 04d6 033e 6322 59be 679e 3abe 0e1c afbe
000003d0: 9cfb 8cbd a28b e23c 2162 28be 2ef5 d63e
000003e0: caa5 c8bc b1ff 053f be22 89bd 1de3 8dbe
000003f0: 55d0 9cbd 29cb 28be 6161 00be 40ed acbe

layers.0.bias f4 [64]
0.33302355 -0.28845474 -0.16740291 -0.32870615 -0.3171175 -0.07002076 -0.007772989 0.25481704
0.039650206 0.27973735 -0.08780847 -0.22291832 -0.13826248 0.27562243 0.24985754 -0.17168058
0.12554117 -0.11696163 -0.25591424 -0.07647019 0.29156533 0.33832183 0.47013646 0.22033288
0.36630473 0.2024116 -0.20785381 -0.023467597 -0.13173434 -0.15395615 -0.046383828 0.0458563
0.22680555 -0.23222794 -0.15616012 -0.106865905 -0.21248713 -0.3462445 0.2539905 -0.07013867
0.3829057 0.46718937 0.16449258 0.2583528 0.16978954 -0.15290038 0.18121472 0.20714962
0.21556316 0.32439706 -0.35896042 0.016582422 -0.065482 -0.33207235 -0.1564823 0.42595872
0.42596367 0.02855475 -0.26189238 -0.16131784 -0.08300835 0.19225903 0.24284425 -0.23591208
00000000: 1082 aa3e 57b0 93be ab6b 2bbe 2c4c a8be
00000010: 3a5d a2be 0b67 8fbd 8fb4 febb 6177 823e
00000020: 4168 223d bc39 8f3e edd4 b3bd b344 64be
00000030: ae94 0dbe 621e 8d3e a8da 7f3e 09cd 2fbe
00000040: dd8d 003e 9489 efbd 3107 83be 679c 9cbd
00000050: 0d48 953e 8538 ad3e bab5 f03e f19e 613e
00000060: 4b8c bb3e fd44 4f3e a1d7 54be 1e3f c0bc
00000070: 5ee5 06be aea6 1dbe f8fc 3dbd d1d3 3b3d
00000080: b73f 683e 29cd 6dbe 70e8 1fbe 83dc dabd
00000090: 3a96 59be f646 b1be 0b0b 823e dda4 8fbd
000000a0: 370c c43e 7233 ef3e be70 283e d146 843e
000000b0: 4fdd 2d3e eb91 1cbe 5a90 393e 081f 543e
000000c0: 97bc 5c3e 5f17 a63e a9c9 b7be dcd7 873c
000000d0: 6d1b 86bd 6305 aabe e53c 20be 4317 da3e
000000e0: e917 da3e a7eb e93c c216 86be 8130 25be
000000f0: 4800 aabd 8ddf 443e 2aac 783e f092 71be

layers.3.weight f4 [32, 64]
-0.001457998 -0.09530263 -0.14568183 -0.13718486 0.09935062 -0.13897297 0.068269745 -0.15091884
-0.0501637 0.12161022 -0.010273012 0.078359514 0.09016983 -0.21889009 0.12655853 0.042338837
-0.026176086 0.02199101 0.0023683745 -0.031497754 -0.013712358 0.047825377 0.09460776 0.0040843925
-0.20315975 0.08012054 -0.08508694 0.06760338 0.008190226 0.022644237 -0.032135505 -0.009461747
0.13442478 0.009119547 0.105242595 0.08240292 0.08550196 -0.007087588 -0.08772913 0.065508634
-0.07073578 -0.018356597 0.045513753 -0.1964706 0.100883625 0.030107094 0.1107282 0.19662493
0.13312228 0.17111824 0.13486151 -0.10563333 -0.045443457 0.039251406 -0.122085705 -0.16193545
-0.15256764 -0.16133898 -0.081144236 -0.13555948 -0.07669181 0.1170062 0.15498365 -0.063171946
0.2146081 0.066709414 0.111891836 -0.10326332 0.037259243 0.15011129 0.27872172 0.30044377
-0.049491633 0.12651025 0.13652606 -0.00172369 0.19608073 0.3128106 -0.013270572 0.01779235
-0.09562437 -0.1378337 -0.1104143 -0.26017788 0.20986332 0.12175782 0.30798072 0.13047686
0.17995459 -0.018422443 -0.11824711 0.22052407 -0.20052011 -0.2219508 -0.1475472 0.28474697
0.1424584 0.29122695 0.0060999626 0.06223824 -0.13314946 -0.0036501 0.21944687 0.011978637
0.19250476 0.15066972 -0.1332476 0.33763906 -0.05748052 0.17770796 -0.1858934 -0.14727658
-0.028791502 -0.0654707 -0.12656285 -0.020457713 -0.26234245 -0.06383796 0.105660364 0.17198998
0.27957097 0.3925171 -0.12954552 -0.13299528 -0.112973094 -0.10220051 -0.13516267 -0.11758905
0.013183443 -0.11705308 0.22994432 0.06266497 -0.137894 -0.016793363 0.01961719 0.004009846
-0.06603051 -0.2759395 0.120128095 -0.06984003 0.20291124 0.029260516 -0.4774486 0.049673863
-0.107956074 -0.12148283 -0.0353324 0.070395224 -0.083070084 -0.024098335 -0.10508262 -0.09097429
0.03297185 -0.7263366 0.05362095 0.0042820293 0.051883597 -0.14244229 -0.07657918 0.014502309
-0.13791099 0.26928222 -0.116397426 0.17282695 -0.043614082 -0.03562786 -0.10689663 -0.009358801
0.056470085 -0.010804747 -0.61439574 0.006823693 -0.6298455 0.14748502 -0.69924456 -0.61221784
-0.62276095 -0.4647119 0.039388582 0.112052076 0.0013352041 0.10675689 0.074368015 0.048804447
0.060378607 0.10545973 -0.10238381 0.10570603 0.07568593 -0.7679749 -0.62949544 -0.10478689
-0.20144254 -0.10126227 -0.0074165943 0.06152283 -0.083642095 -0.022691727 -0.09250369 0.019802991
0.11325946 -0.0063481065 0.13022089 0.104773864 0.055114184 -0.23111513 0.07378092 0.035520993
-0.0005583301 0.1569442 0.072884835 0.21919127 -0.050951574 -0.002596241 0.018021178 -0.015360349
-0.17903535 0.06389053 0.08553371 -0.19560532 0.044335738 0.1726995 0.12296066 0.07110192
0.0030647174 -0.13376297 0.1342683 0.12881657 0.10429114 0.114761874 0.056848034 0.118584454
-0.0730463 -0.08114161 0.1870579 -0.13281727 0.067261465 0.06891842 0.15722334 0.16504046
0.06954695 0.11509818 0.3342695 -0.005301181 0.08502258 0.14883114 -0.07910493 0.04519271
-0.19527191 -0.053383242 0.030466935 -0.056877065 -0.12260169 0.16885288 0.13066347 -0.08444124
00000000: 4b1a bfba 062e c3bd 9e2d 15be 307a 0cbe
00000010: 5678 cb3d ee4e 0ebe 02d1 8b3d 788a 1abe
00000020: 7478 4dbd c70e f93d 2350 28bc f47a a03d
00000030: f6aa b83d b924 60be 8f98 013e 7d6b 2d3d
00000040: 3b6f d6bc 7e26 b43c bb36 1b3b ca03 01bd
00000050: cca9 60bc 8be4 433d b7c1 c13d 5ed6 853b
00000060: 1c09 50be 3d16 a43d 1042 aebd a473 8a3d
00000070: 4c30 063c 6880 b93c 85a0 03bd 7105 1bbc
00000080: a6a6 093e 276a 153c 6e89 d73d ddc2 a83d
00000090: a71b af3d ff3e e8bb 55ab b3bd 6429 863d
000000a0: ecdd 90bd 9360 96bc a16c 3a3d 972f 49be
000000b0: 139c ce3d 27a3 f63c 77c5 e23d 0c58 493e
000000c0: 3551 083e 9f39 2f3e 2319 0a3e 4a56 d8bd
000000d0: eb22 3abd 15c6 203d 1208 fabd 68d2 25be
000000e0: b13a 1cbe 0c36 25be f32e a6bd 1bd0 0abe
000000f0: 9810 9dbd f2a0 ef3d 09b4 1e3e 4b60 81bd
00000100: 3ac2 5b3e f29e 883d 8c27 e53d b87b d3bd
00000110: 269d 183d c6b6 193e 9db4 8e3e c4d3 993e
00000120: bdb7 4abd e78b 013e 7dcd 0b3e 70ed e1ba
00000130: 63c9 483e b628 a03e d06c 59bc 43c1 913c
00000140: b6d6 c3bd 4724 0dbe e420 e2bd 0936 85be
00000150: 69e6 563e 2a5c f93d a6af 9d3e ba9b 053e
00000160: 0446 383e aaea 96bc 8a2b f2bd 10d1 613e
00000170: 2555 4dbe 1247 63be 9d16 17be 5bca 913e
00000180: 9de0 113e b31b 953e 32e2 c73b 86ed 7e3d
00000190: 5558 08be 8436 6fbb aeb6 603e 0c42 443c
000001a0: f81f 453e 2a49 1a3e 0f72 08be 07df ac3e
000001b0: b270 6bbd 13f9 353e d75a 3ebe accf 16be
000001c0: 28dc ebbc 8115 86bd b199 01be ef96 a7bc
000001d0: c051 86be 7abd 82bd 7664 d83d 241e 303e
000001e0: ed23 8f3e 00f8 c83e 95a7 04be ea2f 08be
000001f0: 705e e7bd 804e d1bd 1568 0abe 87d2 f0bd
00000200: 5eff 573c 86b9 efbd 8676 6b3e 7e56 803d
00000210: 1634 0dbe 3c92 89bc 3bb4 a03c 0765 833b
00000220: 013b 87bd f147 8dbe b805 f63d 4a08 8fbd
00000230: f7c7 4f3e c0b3 ef3c 2574 f4be d276 4b3d
00000240: 1318 ddbd fdcb f8bd b5b8 10bd 5f2b 903d
00000250: a620 aabd df69 c5bc 8f35 d7bd bb50 babd
00000260: 7e0d 073d 32f1 39bf a4a1 5b3d 4450 8c3b
00000270: e583 543d 64dc 11be 8cd5 9cbd 189b 6d3c
00000280: 8a38 0dbe 5cdf 893e c661 eebd 8cf9 303e
00000290: aea4 32bd 85ee 11bd 9fec dabd a855 19bc
000002a0: 2d4d 673d 6506 31bc 0a49 1dbf 4999 df3b
000002b0: 8e3d 21bf 5006 173e b101 33bf 4fba 1cbf
000002c0: 436d 1fbf b8ee edbe ec55 213d 8f7b e53d
000002d0: 0402 af3a 5ba3 da3d 424e 983d 2ce7 473d
000002e0: 8f4f 773d 45fb d73d 9aae d1bd 677c d83d
000002f0: 3a01 9b3d 019a 44bf 9d26 21bf 829a d6bd
00000300: f446 4ebe 9862 cfbd e706 f3bb 5dff 7b3d
00000310: 8c4c abbd 00e4 b9bc 9372 bdbd e239 a23c
00000320: 93f4 e73d c703 d0bb a058 053e ae93 d63d
00000330: 69bf 613d 72a9 6cbe 731a 973d 767e 113d
00000340: e65c 12ba fbb5 203e a544 953d ad73 603e
00000350: 99b2 50bd b225 2abb 26a1 933c f9a9 7bbc
00000360: 0b55 37be 0ad9 823d 4c2c af3d c34c 48be
00000370: 6499 353d 23d8 303e ccd2 fb3d e29d 913d
00000380: 6dd9 483b 29f9 08be a17d 093e 7ee8 033e
00000390: 9896 d53d 4608 eb3d 7cd9 683d 68dc f23d
000003a0: 4c99 95bd 932d a6bd 1b8c 3f3e 4001 08be
000003b0: 61c0 893d 1a25 8d3d 28ff 203e 5e00 293e
000003c0: a26e 8e3d 98b8 eb3d 5f25 ab3e 88b5 adbb
000003d0: 5220 ae3d 3167 183e c401 a2bd fe1b 393d
000003e0: 5cf5 47be 63a8 5abd cb95 f93c edf7 68bd
000003f0: 9816 fbbd c5e7 2c3e a5cc 053e 87ef acbd

layers.3.bias f4 [32]
-0.19615458 0.43155226 0.18940681 -0.1261993 -0.13615373 -0.09223562 0.15613471 0.16696534
0.07512805 0.05982267 0.30300888 0.16841078 0.05707067 0.2279371 0.07967071 -0.1274396
0.37157258 -0.0065515772 -0.2942745 0.35749218 0.14962462 0.061981894 0.16448577 -0.080703884
-0.23988782 0.17904663 0.15477553 0.075933196 0.46084073 -0.07761614 -0.09311329 -0.12840968
00000000: bfdc 48be 6bf4 dc3e dcf3 413e 643a 01be
00000010: e26b 0bbe 07e6 bcbd c7e1 1f3e f6f8 2a3e
00000020: bcdc 993d 9e08 753d fb23 9b3e e073 2c3e
00000030: efc2 693d 5868 693e 662a a33d 877f 02be
00000040: c33e be3e 9dae d6bb 26ab 96be 3709 b73e
00000050: 3237 193e bae0 7d3d f56e 283e 1448 a5bd
00000060: 27a5 75be 0058 373e 7a7d 1e3e dd82 9b3d
00000070: 51f3 eb3e 36f5 9ebd 2eb2 bebd d47d 03be

mean_head.weight f4 [1, 32]
0.13419005 0.015241498 0.34388375 0.068983406 0.23614585 0.06915292 0.37554026 -0.23474213
-0.28069535 -0.20730114 0.020333735 0.47166738 -0.20118824 0.27811143 -0.1863229 -0.021046061
0.013102123 -0.23193862 0.2588313 0.015515943 0.37377805 -0.22447771 -0.22527818 0.007815002
0.3254332 0.036004785 0.46117935 -0.30370343 0.015545197 -0.104799114 -0.14463678 0.06510697
00000000: 1e69 093e 7ab7 793c 8811 b03e 2c47 8d3d
00000010: 38d0 713e 0ca0 8d3d d046 c03e 3e60 70be
00000020: 4db7 8fbe c046 54be ef92 a63c 637e f13e
00000030: 4a04 4ebe 9f64 8e3e 6ecb 3ebe ca68 acbc
00000040: 49aa 563c 5181 6dbe 8985 843e 9536 7e3c
00000050: d65f bf3e 7cdd 65be 53af 66be 7f0a 003c
00000060: 2e9f a63e c179 133d b31f ec3e 047f 9bbe
00000070: 48b1 7e3c eba0 d6bd aa1b 14be ce56 853d

var_head.0.weight f4 [1, 32]
0.23302451 -0.49495023 -0.064838104 0.25540474 -0.09488557 0.2633532 0.2432228 0.051192656
0.09314909 -0.2208756 -0.458743 0.21578616 -0.08066996 -0.19432198 0.09927836 -0.058237106
-0.40202507 0.024927069 0.19124725 -0.47080824 0.031297315 -0.24305917 -0.39662954 0.08285832
0.007866974 -0.44520593 0.34064978 -0.09475624 -0.44208768 -0.10924472 -0.16560186 0.110245146
00000000: fa9d 6e3e 1e6a fdbe d7c9 84bd 69c4 823e
00000010: 5e53 c2bd 3bd6 863e 660f 793e 64af 513d
00000020: f3c4 be3d 372d 62be 5de0 eabe 0cf7 5c3e
00000030: 4b36 a5bd 57fc 46be 7452 cb3d 088a 6ebd
00000040: 3bd6 cdbe da33 cc3c 52d6 433e c70d f1be
00000050: 9d31 003d 81e4 78be 0713 cbbe 9fb1 a93d
00000060: 7be4 003c 08f2 e3be a669 ae3e 8f0f c2bd
00000070: 5159 e2be b2bb dfbd 8993 29be 35c8 e13d

exp_avg f4 [64, 7]
-0.000639432 -1.005062e-05 -0.0006415999 -9.069887e-06 -0.0006438852 -1.3221359e-05 0.0 0.0
0.0 0.0 0.0 0.0 0.0 0.0 -0.0014435607 -7.888136e-05
-0.0014483503 -5.8472702e-05 -0.0014560567 -7.5875745e-05 0.0 -2.3253645e-07 9.766061e-06 -1.8959176e-07
6.480341e-06 -7.627958e-08 -5.590222e-08 0.0 1.0592518e-06 8.02023e-06 1.0335907e-06 5.3176254e-06
1.318598e-06 6.3254747e-06 0.0 7.299241e-08 -3.0035317e-06 -3.754394e-09 -2.710447e-06 -6.1214087e-07
-3.9510787e-06 0.0 0.00030631438 1.0379268e-05 0.00030749541 9.366467e-06 0.00030971743 1.3653692e-05
0.0 -0.00024040001 2.7737337e-06 -0.00024126918 7.203057e-07 -0.00024206891 -3.2711068e-07 0.0
-0.00048382126 -2.1980155e-05 -0.00047706638 -2.2657992e-05 -0.00047267188 -4.871462e-05 0.0 0.0065313466
0.00015126797 0.006556522 0.00013258237 0.0065889703 0.00017374188 0.0 -0.00025746832 -2.406774e-06
-0.00025830168 -2.1418564e-06 -0.00025890372 -3.1777072e-06 0.0 0.0 0.0 0.0
0.0 0.0 0.0 0.0 5.1478506e-05 7.710591e-06 5.1829848e-05 6.9582e-06
5.3412048e-05 1.0143109e-05 0.0 -0.0005220823 -1.3509383e-05 -0.0005189266 -1.2191145e-05 -0.0005162911
-1.7771286e-05 0.0 0.010290563 0.00018654749 0.010331703 0.00016679082 0.010379228 0.00023135082
0.0 0.00020250295 -1.2397676e-05 0.00020072664 -8.612062e-06 0.00019726221 -1.06214275e-05 0.0
-9.19892e-05 -3.5939938e-06 -8.646229e-05 -8.311285e-06 -8.3493935e-05 -3.607658e-05 0.0 -0.00015179867
-1.839869e-05 -0.00015049336 -1.1331639e-05 -0.00014746112 4.271471e-06 0.0 1.4785569e-06 1.1217343e-05
1.4428795e-06 7.403662e-06 1.8414687e-06 8.825409e-06 0.0 -7.8033234e-05 -1.550278e-05 -8.028665e-05
-8.48418e-06 -8.123879e-05 1.1565682e-05 0.0 -0.00075768586 -5.5833248e-06 -0.00076019537 -5.857738e-06
-0.00076220895 -9.182001e-06 0.0 -0.00025979418 -7.355689e-06 -0.00025855014 -6.6379257e-06 -0.0002578617
-1.3026477e-05 0.0 -0.00062360946 -9.6905915e-06 -0.00062567723 -8.4031835e-06 -0.00062764774 -1.2150522e-05
0.0 -0.0011406203 -3.281904e-05 -0.0011408802 -3.1702722e-05 -0.0011446205 -5.7830886e-05 0.0
-0.0011799382 -2.3136246e-05 -0.0011840182 -2.0872407e-05 -0.0011892837 -3.4264624e-05 0.0 0.011960226
0.00025489228 0.012006069 0.00022671017 0.012064558 0.0003131202 0.0 0.0 0.0
0.0 0.0 0.0 0.0 0.0 -0.00030737548 -1.2941004e-05 -0.00030827997
-8.870361e-06 -0.000309046 -1.0810686e-05 0.0 -0.00014301715 -9.977373e-06 -0.00014311727 -6.4949554e-06
-0.00014219145 -1.1459406e-06 0.0 -0.00013864976 1.1809931e-08 -0.00014080325 -1.9869972e-08 -0.00014251027
2.7348932e-08 0.0 -0.00019185308 7.40438e-06 -0.00019288817 6.6818648e-06 -0.00019227254 9.7402935e-06
0.0 -0.0010270514 -1.2791599e-05 -0.0010304478 -1.1543401e-05 -0.0010334393 -1.6827056e-05 0.0
0.0021996333 5.6802757e-05 0.0022142394 4.787389e-05 0.0022323644 5.1851635e-05 0.0 0.0007002375
2.6198772e-05 0.0007030009 2.3642304e-05 0.0007085806 3.4463876e-05 0.0 -0.00022255426 -1.4354526e-05
-0.00022036882 -9.443634e-06 -0.00021656454 -3.19773e-06 0.0 -0.0006692502 -5.9710706e-05 -0.00067149766
-4.335782e-05 -0.00067652 -5.541307e-05 0.0 -1.8991024e-07 -1.4245632e-06 -1.8522462e-07 -9.647172e-07
00000000: 8e9f 27ba 169f 28b7 0a31 28ba de2a 18b7
00000010: 68ca 28ba 4ed1 5db7 0000 0000 0000 0000
00000020: 0000 0000 0000 0000 0000 0000 0000 0000
00000030: 0000 0000 0000 0000 dc35 bdba 1c6d a5b8
00000040: 92d6 bdba 9640 75b8 28d9 beba 7b1f 9fb8
00000050: 0000 0000 22af 79b4 ead8 2337 9692 4bb4
00000060: b571 d936 25cf a3b3 2419 70b3 0000 0000
00000070: 9d2b 8e35 a08e 0637 e8b9 8a35 0e6e b236
00000080: affa b035 6a3f d436 0000 0000 00c0 9c33
00000090: 4890 49b6 0000 81b1 20e5 35b6 0052 24b5
000000a0: 8293 84b6 0000 0000 d298 a039 9e22 2e37
000000b0: 5637 a139 ab24 1d37 9261 a239 2912 6537
000000c0: 0000 0000 e313 7cb9 6224 3a36 34fd 7cb9
000000d0: 085b 4135 e1d3 7db9 c09d afb4 0000 0000
000000e0: 64a9 fdb9 0662 b8b7 c41e fab9 ab11 beb7
000000f0: f2d0 f7b9 ed52 4cb8 0000 0000 e804 d63b
00000100: b09d 1e39 18d8 d63b cf05 0b39 4ae8 d73b
00000110: 7b2e 3639 0000 0000 d0fc 86b9 1084 21b6
00000120: aa6c 87b9 d0bc 0fb6 78bd 87b9 9840 55b6
00000130: 0000 0000 0000 0000 0000 0000 0000 0000
00000140: 0000 0000 0000 0000 0000 0000 0000 0000
00000150: a0ea 5738 bc5c 0137 e063 5938 7c7a e936
00000160: c006 6038 522c 2a37 0000 0000 5adc 08ba
00000170: 5ca6 62b7 9308 08ba 9288 4cb7 b657 07ba
00000180: 8c13 95b7 0000 0000 c099 283c f69b 4339
00000190: 4e46 293c 92e4 2e39 a30d 2a3c c396 7239
000001a0: 0000 0000 f956 5439 9dff 4fb7 267a 5239
000001b0: 867c 10b7 2cd8 4e39 af32 32b7 0000 0000
000001c0: 53ea c0b8 5830 71b6 1753 b5b8 b270 0bb7
000001d0: 7719 afb8 ef50 17b8 0000 0000 252c 1fb9
000001e0: e356 9ab7 c1cd 1db9 051d 3eb7 cb9f 1ab9
000001f0: a853 8f36 0000 0000 d472 c635 1f32 3c37
00000200: f6a8 c135 f96c f836 6228 f735 d810 1437
00000210: 0000 0000 c6a5 a3b8 f70b 82b7 915f a8b8
00000220: 4757 0eb7 be5e aab8 3a0a 4237 0000 0000
00000230: 709f 46ba 6558 bbb6 d947 47ba 968d c4b6
00000240: face 47ba 650c 1ab7 0000 0000 fc34 88b9
00000250: e3d0 f6b6 038e 87b9 59bb deb6 9d31 87b9
00000260: 4b8c 5ab7 0000 0000 b979 23ba c694 22b7
00000270: 7d04 24ba 66fb 0cb7 ba88 24ba 18da 4bb7
00000280: 0000 0000 de80 95ba 2da7 09b8 9689 95ba
00000290: 8af8 04b8 1707 96ba 718f 72b8 0000 0000
000002a0: 28a8 9aba b614 c2b7 0f31 9bba 2717 afb7
000002b0: bde1 9bba 5cb7 0fb8 0000 0000 d3f4 433c
000002c0: 10a3 8539 1ab5 443c 0cb9 6d39 6daa 453c
000002d0: 482a a439 0000 0000 0000 0000 0000 0000
000002e0: 0000 0000 0000 0000 0000 0000 0000 0000
000002f0: 0000 0000 3d27 a1b9 301d 59b7 a3a0 a1b9
00000300: e9d1 14b7 7407 a2b9 8b5f 35b7 0000 0000
00000310: e0f6 15b9 7e64 27b7 c011 16b9 3eef d9b6
00000320: 3a19 15b9 38ce 99b5 0000 0000 8362 11b9
00000330: a0e4 4a32 96a4 13b9 88ae aab2 cf6e 15b9
00000340: f0ec ea32 0000 0000 2b2c 49b9 2473 f836
00000350: 0642 4ab9 c834 e036 c49c 49b9 3e6a 2337
00000360: 0000 0000 209e 86ba 809b 56b7 1710 87ba
00000370: 88aa 41b7 7874 87ba d427 8db7 0000 0000
00000380: b927 103b 7f3f 6e38 c61c 113b 33cc 4838
00000390: dc4c 123b 457b 5938 0000 0000 2590 373a
000003a0: 6fc5 db37 9749 383a 7653 c637 0ac0 393a
000003b0: 4e8d 1038 0000 0000 745d 69b9 38d4 70b7
000003c0: ce12 67b9 1970 1eb7 9a15 63b9 9598 56b6
000003d0: 0000 0000 9f70 2fba e271 7ab8 7207 30ba
000003e0: 1bdb 35b8 7d58 31ba 556b 68b8 0000 0000
000003f0: 21ea 4bb4 9e33 bfb5 28e2 46b4 6e7b 81b5

exp_avg_sq f4 [64, 7]
4.6082855e-06 3.017899e-09 4.631875e-06 2.457669e-09 4.760695e-06 5.222412e-09 0.0 0.0
0.0 0.0 0.0 0.0 0.0 0.0 0.00017242793 2.1497276e-06
0.00017368072 1.1767297e-06 0.00017560598 1.5835158e-06 0.0 4.5148703e-08 9.224625e-08 4.1332566e-08
5.671261e-08 5.47385e-08 1.0821506e-06 0.0 1.7743543e-09 9.072775e-08 1.6790257e-09 5.321749e-08
2.667497e-09 6.514427e-08 0.0 2.7028695e-05 1.5131617e-07 2.7231079e-05 7.695031e-08 2.7574404e-05
1.226801e-07 0.0 1.2504441e-05 1.09068266e-08 1.2596483e-05 8.882111e-09 1.2742838e-05 1.8874044e-08
0.0 5.0362473e-06 1.2759442e-07 5.046404e-06 8.736879e-08 5.8260243e-06 1.0160299e-07 0.0
1.19352635e-05 2.4631856e-07 1.2051497e-05 1.375959e-07 1.2369544e-05 2.7179078e-06 0.0 0.000172365
3.8847432e-07 0.00017360745 2.4652002e-07 0.00017543284 3.4552456e-06 0.0 4.2239208e-05 4.350766e-07
4.2549982e-05 4.3767412e-07 4.307182e-05 9.2071184e-07 0.0 0.0 0.0 0.0
0.0 0.0 0.0 0.0 0.00010054716 2.1354262e-07 0.000101288955 2.1334027e-07
0.00010248241 2.770264e-07 0.0 1.1011223e-05 3.7147572e-09 1.1048307e-05 3.025162e-09 1.25890965e-05
6.428331e-09 0.0 0.0011881726 1.048576e-06 0.0011967294 8.504029e-07 0.0012092046 3.7404266e-06
0.0 1.257125e-06 1.26186e-07 1.2680889e-06 8.549975e-08 1.3867912e-06 9.8159646e-08 0.0
2.9859388e-05 4.4504628e-07 3.009083e-05 2.483494e-07 3.0513464e-05 5.3120953e-06 0.0 3.2745745e-06
2.0657936e-07 3.2685293e-06 1.2599189e-07 3.942365e-06 2.9702794e-06 0.0 4.927678e-09 2.534802e-07
4.664373e-09 1.4661615e-07 7.419417e-09 1.8065786e-07 0.0 4.90221e-06 2.6261117e-07 4.9159034e-06
1.570164e-07 5.305504e-06 4.307709e-06 0.0 2.9376065e-06 2.663478e-07 2.9579228e-06 2.5015186e-07
2.9902315e-06 2.540199e-07 0.0 3.61477e-06 1.7750299e-09 3.623458e-06 1.4455197e-09 4.017152e-06
2.3264938e-07 0.0 3.7604875e-06 2.214519e-07 3.7841373e-06 1.8822267e-07 3.8257012e-06 7.3034164e-07
0.0 1.5426003e-05 2.0551258e-07 1.555344e-05 1.2600319e-07 1.5865791e-05 1.6090222e-06 0.0
5.427424e-06 2.1233807e-07 5.4605166e-06 1.8551151e-07 5.9184154e-06 7.5555806e-07 0.0 0.0014403851
1.021622e-06 0.0014505764 7.49308e-07 0.0014650101 4.3848295e-06 0.0 0.0 0.0
0.0 0.0 0.0 0.0 0.0 1.3615971e-05 1.4085343e-07 1.3716177e-05
6.743747e-08 1.3880734e-05 1.1967262e-07 0.0 2.1951034e-06 8.2025856e-08 2.152005e-06 5.0575927e-08
3.034569e-06 7.3417345e-07 0.0 3.4213792e-06 3.5069314e-07 3.4309812e-06 2.234186e-07 4.201336e-06
9.02971e-07 0.0 2.9163582e-06 3.7925849e-10 2.940028e-06 3.0885408e-10 3.177556e-06 6.562994e-10
0.0 1.07135265e-05 1.4665048e-07 1.07900705e-05 2.2861059e-07 1.0906224e-05 2.7793197e-07 0.0
0.00012679804 3.6712757e-07 0.00012773802 2.3273537e-07 0.00012916654 3.2879875e-06 0.0 0.00032635112
1.8790048e-07 0.00032870268 1.5301907e-07 0.00033212258 3.2515817e-07 0.0 2.0706223e-06 1.9113997e-07
2.062562e-06 1.4520985e-07 2.8776537e-06 1.0931608e-06 0.0 8.3487204e-05 2.2790286e-06 8.410696e-05
1.4282342e-06 8.513099e-05 1.888311e-06 0.0 5.63176e-09 1.5135333e-08 5.1080837e-09 9.951984e-09
00000000: dfa0 9a36 7163 4f31 816b 9b36 c5e3 2831
00000010: 0fbe 9f36 d270 b331 0000 0000 0000 0000
00000020: 0000 0000 0000 0000 0000 0000 0000 0000
00000030: 0000 0000 0000 0000 c5cd 3439 0a44 1036
00000040: 101e 3639 20f0 9d35 df22 3839 3089 d435
00000050: 0000 0000 86e9 4133 ea18 c633 a385 3133
00000060: 2d94 7333 9e19 6b33 693e 9135 0000 0000
00000070: 8bdd f330 1cd6 c233 77c3 e630 4091 6433
00000080: 1a4f 3731 71e5 8b33 0000 0000 aebb e237
00000090: 7979 2234 4c6e e437 e13f a533 954f e737
000000a0: 0dba 0334 0000 0000 2aca 5137 bb60 3b32
000000b0: 7c55 5337 f097 1832 13ca 5537 7620 a232
000000c0: 0000 0000 09fd a836 e300 0934 4854 a936
000000d0: 809f bb33 2b7d c336 d630 da33 0000 0000
000000e0: 913d 4837 c43d 8434 c930 4a37 13be 1334
000000f0: c986 4f37 4d65 3636 0000 0000 e1bc 3439
00000100: 818f d034 650a 3639 7459 8434 65f4 3739
00000110: abe0 6736 0000 0000 012a 3138 7994 e934
00000120: b277 3238 79f9 ea34 04a8 3438 d626 7735
00000130: 0000 0000 0000 0000 0000 0000 0000 0000
00000140: 0000 0000 0000 0000 0000 0000 0000 0000
00000150: d8dc d238 264a 6534 186b d438 8712 6534
00000160: d3eb d638 38ba 9434 0000 0000 d8bc 3837
00000170: b346 7f31 1e5c 3937 36e3 4f31 c235 5337
00000180: 33e0 dc31 0000 0000 75bc 9b3a ccbc 8c35
00000190: 93db 9c3a 3e47 6435 2c7e 9e3a 0a04 7b36
000001a0: 0000 0000 7cba a835 be7d 0734 3433 aa35
000001b0: fc9b b733 c821 ba35 d6cb d233 0000 0000
000001c0: 8c7a fa37 b2ee ee34 916b fc37 e254 8534
000001d0: 2af7 ff37 8d3e b236 0000 0000 c3c0 5b36
000001e0: 1ad0 5d34 e858 5b36 6348 0734 a848 8436
000001f0: 0355 4736 0000 0000 5050 a931 0e16 8834
00000200: 4244 a031 8a6d 1d34 e2ed fe31 dbfa 4134
00000210: 0000 0000 aa7d a436 01fd 8c34 4af3 a436
00000220: 5798 2834 ef05 b236 f08a 9036 0000 0000
00000230: b223 4536 90fe 8e34 ba80 4636 9c4c 8634
00000240: c9ab 4836 3b60 8834 0000 0000 4795 7236
00000250: 50f5 f330 892a 7336 b4ab c630 13cb 8636
00000260: 2dce 7934 0000 0000 af5c 7c36 3cc8 6d34
00000270: fcf2 7d36 411a 4a34 865e 8036 b20c 4435
00000280: 0000 0000 1767 8137 deaa 5c34 c278 8237
00000290: 7e4b 0734 8717 8537 95f5 d735 0000 0000
000002a0: 381d b636 0bff 6334 7b39 b736 0431 4734
000002b0: cd96 c636 8ed1 4a35 0000 0000 4ecb bc3a
000002c0: aa1e 8935 4421 be3a 0e24 4935 9505 c03a
000002d0: 6621 9336 0000 0000 0000 0000 0000 0000
000002e0: 0000 0000 0000 0000 0000 0000 0000 0000
000002f0: 0000 0000 2670 6437 7f3d 1734 881e 6637
00000300: 24d2 9033 4ce1 6837 5c7f 0034 0000 0000
00000310: 974f 1336 3126 b033 2a6b 1036 d238 5933
00000320: 80a5 4b36 0414 4535 0000 0000 d99a 6536
00000330: e646 bc34 cf3f 6636 d6e4 6f34 34f9 8c36
00000340: b263 7235 0000 0000 a7b6 4336 e37f d02f
00000350: 4c4d 4536 59cb a92f ff3d 5536 f766 3430
00000360: 0000 0000 3fbe 3337 fa76 1d34 0007 3537
00000370: 0078 7534 e0f9 3637 ae36 9534 0000 0000
00000380: 17f5 0439 a119 c534 6af1 0539 d0e5 7934
00000390: e170 0739 32a7 5c36 0000 0000 1b1a ab39
000003a0: b1c1 4934 ba55 ac39 904d 2434 bd20 ae39
000003b0: 6691 ae34 0000 0000 05f5 0a36 283c 4d34
000003c0: 8c6a 0a36 fbea 1b34 b71d 4136 b8b8 9235
000003d0: 0000 0000 da15 af38 6af1 1836 9562 b038
000003e0: c1b1 bf35 5a88 b238 df71 fd35 0000 0000
000003f0: 7c81 c131 f302 8232 2e83 af31 4af9 2a32

exp_avg f4 [64]
-0.0020409408 0.0 -0.005270664 4.7815814e-07 -1.3428053e-06 -0.0006099163 0.002107679 -0.0009790196
-0.00683406 0.027364658 -0.00050555356 0.0 0.00156576 -0.0027432987 0.036625206 -0.00032029935
-0.005033442 0.00082555186 -1.8730345e-06 0.0015853476 -0.0018480683 -0.0014936919 -0.0016753911 -0.008393966
-0.00470166 0.048967633 0.0 -0.00022553455 0.00017487886 1.9469408e-05 0.0015035792 -0.002597541
0.008678321 0.0053200815 0.00015439095 -0.0032042554 2.415386e-07 -7.384482e-06 -0.003819124 6e-45
-0.0011718639 0.0026884384 -0.04721982 -0.003097446 0.021567421 -0.008430984 0.007423939 -0.018844211
0.031644326 0.0038061133 0.00012903985 -0.0054757996 -0.00054154324 -1.7411221e-05 0.0007460341 -0.00069685804
-0.0025922959 0.0025782716 -0.0003453279 -2.7618623e-06 0.0 0.07150967 0.05924508 5.3501635e-06
00000000: 4ec1 05bb 0000 0000 89b5 acbb c75a 0035
00000010: 703a b4b5 cae2 1fba fc20 0a3b 7252 80ba
00000020: 40f0 dfbb d92b e03c 2087 04ba 0000 0000
00000030: 303a cd3a eac8 33bb 5004 163d daed a7b9
00000040: 92ef a4bb d969 583a fa64 fbb5 70cb cf3a
00000050: e23a f2ba fcc7 c3ba cc98 dbba d886 09bc
00000060: 6210 9abb 4992 483d 0000 0000 787d 6cb9
00000070: b05f 3739 3c52 a337 bf13 c53a 823b 2abb
00000080: 842f 0e3c 1454 ae3b 01e4 2139 7cfe 51bb
00000090: d0ac 8134 38c8 f7b6 454a 7abb 0400 0000
000000a0: 3a99 99ba 8330 303b 9269 41bd 85fe 4abb
000000b0: 29ae b03c 1c22 0abc 8444 f33b 2d5f 9abc
000000c0: 7b9d 013d fc6f 793b df4e 0739 566e b3bb
000000d0: 5af6 0dba 500e 92b7 8091 433a 5aad 36ba
000000e0: 82e3 29bb 38f8 283b 200d b5b9 6f58 39b6
000000f0: 0000 0000 a973 923d f8aa 723d 8e85 b336

exp_avg_sq f4 [64]
0.00012444546 0.0 0.004616872 7.855338e-08 2.9845983e-09 0.001057097 0.0004497526 0.00011370794
0.00041304246 0.0035854378 0.0014656611 0.0 0.0031674693 0.00015318126 0.024173709 3.8259245e-06
0.0009400669 1.1993076e-05 8.270316e-09 2.673221e-05 8.532104e-05 7.319498e-05 0.00010714951 0.00046611927
0.00012831307 0.029574754 0.0 0.0004945811 3.2473174e-06 6.218188e-06 1.5639034e-05 0.0003353874
0.002729221 0.007748233 2.6878565e-06 0.002864916 1.0787803e-08 4.3084624e-06 0.0001412469 1.53499e-10
8.427259e-05 9.2050475e-05 0.023956008 0.00014573085 0.029350378 0.0029232998 0.031714305 0.025847996
0.023030069 0.012003093 5.729145e-06 5.078913e-05 3.0478126e-05 3.163166e-06 0.0019356227 9.8113545e-05
0.00015380337 0.00035964174 2.8379177e-06 7.703362e-08 0.0 0.028251775 0.024074478 3.7369242e-07
00000000: 937d 0239 0000 0000 2149 973b 2db1 a833
00000010: 9c19 4d31 4a8e 8a3a c6cc eb39 7c76 ee38
00000020: 9f8d d839 aaf9 6a3b 6d1b c03a 0000 0000
00000030: 5195 4f3b 489f 2039 f107 c63c 7160 8036
00000040: d26e 763a df35 4937 3c15 0e32 fc3e e037
00000050: 62ee b238 4180 9938 75b5 e038 7861 f439
00000060: c78b 0639 c146 f23c 0000 0000 c7a6 013a
00000070: 7dec 5936 d4a5 d036 9230 8337 efd6 af39
00000080: bbdc 323b e4e4 fd3b 0661 3436 51c1 3b3b
00000090: 4255 3932 6991 9036 ad1b 1439 21c6 282f
000000a0: 81bb b038 390b c138 643f c43c 54cf 1839
000000b0: 3470 f03c d594 3f3b dce6 013d 2dbf d33c
000000c0: 8ea9 bc3c 9fa8 443c fb3c c036 6a06 5538
000000d0: 47ab ff37 c746 5436 b8b4 fd3a 4fc2 cd38
000000e0: 4746 2139 4c8e bc39 0e73 3e36 ae6d a533
000000f0: 0000 0000 4470 e73c d737 c53c e59f c834

exp_avg f4 [32, 64]
2.7477106e-05 0.0 8.7305176e-07 9.852809e-06 7.025062e-06 3.2e-44 2.7860465e-18 -1.7280647e-05
2.1556547e-05 -5.7631503e-05 7.2450947e-09 0.0 6e-45 5.398297e-06 8.559045e-05 5.130521e-05
1.1617304e-05 8.529137e-05 5.7053608e-06 1.35340615e-05 2.602176e-05 -6.910054e-05 6.470629e-05 5.1237525e-06
3.8375624e-06 -3.1116295e-05 0.0 6.96571e-07 1.6847367e-05 7.68702e-05 7.5004216e-05 -7.161075e-15
0.00011646978 6e-45 5.4122116e-05 1.6409078e-06 1.130183e-05 9.729946e-05 -6.631255e-05 -6e-45
-2.9597844e-05 -8.4259394e-05 2.3712071e-05 -2.5251852e-06 0.0001238495 4.2764734e-09 9.089143e-06 0.0002874413
4.6556102e-05 0.00023649615 4.77197e-05 1.4906581e-05 6.510496e-05 6.358647e-05 5.750233e-09 0.00012207824
9.116118e-06 -4.1317556e-15 -3.375555e-05 1.6843845e-06 0.0 4.8375303e-05 1.190128e-05 1.035915e-11
-0.0006397322 0.0 -1.8209937e-05 -1.4070494e-21 -6e-45 -0.00014254524 -0.00023229649 -3.0284937e-05
1.1863006e-05 -0.0002667384 -0.00012714183 0.0 -2.6188773e-05 -0.00011151181 8.301233e-05 -8.1105456e-05
8.857813e-06 -0.0001277143 -6e-45 -0.000100572 -0.0008000296 -0.0002725363 -0.0008334983 6.609783e-05
-0.00035684544 -0.00016881757 0.0 -0.00025455808 -9.183941e-06 -7.734117e-05 -2.803589e-05 -0.00041140523
-0.00028645378 -4.7898033e-05 -1.6339905e-05 -8.151099e-05 -3.9291867e-21 -2.1548822e-05 -1.7358274e-05 -6e-45
-5.3410957e-05 -0.00027289314 1.79411e-05 -2.8860231e-05 -1.4065023e-05 -8.752095e-05 5.0778253e-05 1.4933459e-05
-0.00015583722 7.652613e-05 -1.4086534e-06 8.610375e-07 -6.0823513e-05 -5.41776e-06 -4.4058484e-05 -0.00037965196
-0.00045899337 -0.0003717168 -6.51903e-05 -4.338436e-21 0.0 2.1032392e-05 -0.00018833397 -6.280726e-21
-0.011308808 0.0 -0.00087143015 6e-45 6e-45 -0.00023754773 -0.00015605998 -0.0030508293
4.6478517e-06 -4.6893187e-05 -0.0016617558 0.0 -0.0010773856 -0.0013374564 0.00016796967 6e-45
1.1110961e-05 6e-45 6e-45 6e-45 -0.009773449 -0.0038237243 -0.014225219 0.00014525303
-0.004657466 0.00014763324 0.0 -0.00049566 6e-45 6e-45 -6e-45 -0.0018601145
-4.0337392e-05 -0.00066165975 6e-45 -0.00013903045 6e-45 6e-45 -0.0028596101 -6e-45
0.002082896 -0.0059091244 0.00014839001 -0.0016927134 0.00013882338 -0.0020327775 0.00015312246 0.00010702184
6.0418788e-05 0.00017352318 0.0 -1.42965055e-05 6e-45 6e-45 -0.0017324598 -0.0042896355
-0.0033085276 -0.0026670638 6e-45 6e-45 0.0 0.0001173981 5.478578e-05 0.0
-3.1046566e-05 0.0 7.737411e-07 7.7551695e-06 6.24904e-06 -3.155935e-38 6e-45 -1.9496207e-05
2.4352295e-05 6.256596e-05 1.1566597e-08 0.0 -6e-45 -1.9823727e-05 0.00011764137 0.00010633334
1.8293069e-05 0.00011994276 5.071392e-06 8.888022e-05 -1.2007207e-05 -3.3231274e-05 1.3689422e-05 6.510368e-05
-4.983346e-05 4.7981077e-05 0.0 6.168432e-07 1.2818705e-05 0.00014842197 6.853996e-05 2.4288365e-36
0.00013799829 6e-45 6.120131e-05 1.4573976e-06 1.0062063e-05 9.899487e-05 -2.0539255e-05 0.0
-2.2439539e-05 5.3312497e-06 7.165262e-05 -2.3089331e-05 0.00015063895 6.8252093e-09 6.518039e-05 0.00021978139
9.451694e-05 0.00029841752 4.1566178e-05 1.2411594e-05 8.290241e-05 6.55614e-05 5.0917373e-09 1.20626755e-05
-4.060447e-05 -6e-45 -9.3112985e-06 1.5099503e-06 0.0 8.761407e-05 8.7034416e-05 -3.9512756e-06
00000000: a37e e637 0000 0000 a95b 6a35 7e4d 2537
00000010: d3b8 eb36 1700 0000 ee92 4d22 e8f5 90b7
00000020: 55d4 b437 5bb9 71b8 87f0 f831 0000 0000
00000030: 0400 0000 0523 b536 067f b338 8d30 5738
00000040: f1e7 4237 75de b238 ad70 bf36 5a10 6337
00000050: 4e49 da37 12ea 90b8 edb2 8738 b3ec ab36
00000060: 69c4 8036 de82 02b8 0000 0000 fffb 3a35
00000070: 7253 8d37 6035 a138 954b 9d38 a100 01a8
00000080: 3d41 f438 0400 0000 2e01 6338 2a3d dc35
00000090: fe9c 3d37 400d cc38 4711 8bb8 0400 0080
000000a0: e348 f8b7 6bb4 b0b8 49e9 c637 5a76 29b6
000000b0: 99dd 0139 42f0 9231 927d 1837 b8b3 9639
000000c0: 3c45 4338 f4fb 7739 a326 4838 4717 7a37
000000d0: f688 8838 ba59 8538 9693 c531 2102 0039
000000e0: 6ef1 1837 b8dc 94a7 bf94 0db8 0313 e235
000000f0: 0000 0000 96e6 4a38 9cab 4737 773d 362d
00000100: b4b3 27ba 0000 0000 8bc1 98b7 96a0 d49c
00000110: 0400 0080 3278 15b9 9d94 73b9 680c feb7
00000120: 3907 4737 06d9 8bb9 6051 05b9 0000 0000
00000130: f6af dbb7 72db e9b8 e816 ae38 2917 aab8
00000140: 049c 1437 0ceb 05b9 0400 0080 2eea d2b8
00000150: 14b9 51ba 34e3 8eb9 207f 5aba 019e 8a38
00000160: fc16 bbb9 9f04 31b9 0000 0000 3576 85b9
00000170: ba14 1ab7 3932 a2b8 9e2e ebb7 e0b1 d7b9
00000180: 2d2f 96b9 1fe6 48b8 ae11 89b7 e1f0 aab8
00000190: c370 949d bec3 b4b7 9c9c 91b7 0400 0080
000001a0: 9405 60b8 1913 8fb9 3880 9637 e018 f2b7
000001b0: d0f8 6bb7 748b b7b8 bcfa 5438 b88a 7a37
000001c0: 3c68 23b9 a77c a038 f610 bdb5 0c22 6735
000001d0: c01c 7fb8 34ca b5b6 70cb 38b8 060c c7b9
000001e0: 0ca5 f0b9 fce2 c2b9 c7b6 88b8 c7e6 a39d
000001f0: 0000 0000 b86e b037 847b 45b9 7447 ed9d
00000200: 9448 39bc 0000 0000 b070 64ba 0400 0000
00000210: 0400 0000 3c16 79b9 08a4 23b9 6cf0 47bb
00000220: bef4 9b36 2daf 44b8 46cf d9ba 0000 0000
00000230: 1037 8dba 974d afba 0421 3039 0400 0000
00000240: 3769 3a37 0400 0000 0400 0000 0400 0000
00000250: d120 20bc 7397 7abb e510 69bc 104f 1839
00000260: a89d 98bb ffcd 1a39 0000 0000 2eef 01ba
00000270: 0400 0000 0400 0000 0400 0080 16cf f3ba
00000280: f22f 29b8 3c73 2dba 0400 0000 b4c8 11b9
00000290: 0400 0000 0400 0000 4c68 3bbb 0400 0080
000002a0: 3281 083b 54a1 c1bb 2499 1b39 09de ddba
000002b0: 1e91 1139 5938 05bb 7f8f 2039 ea70 e038
000002c0: 2e6a 7d38 c6f3 3539 0000 0000 06db 6fb7
000002d0: 0400 0000 0400 0000 b413 e3ba 1290 8cbb
000002e0: e2d3 58bb e8c9 2ebb 0400 0000 0400 0000
000002f0: 0000 0000 a033 f638 c9c9 6538 0000 0000
00000300: ff37 02b8 0000 0000 15b3 4f35 331c 0237
00000310: d8ae d136 50d3 2b81 0400 0000 c98b a3b7
00000320: 2848 cc37 d835 8338 6eb6 4632 0000 0000
00000330: 0400 0080 214b a6b7 3bb6 f638 47ff de38
00000340: 1174 9937 c789 fb38 ed2a aa36 3465 ba38
00000350: 9072 49b7 cf61 0bb8 9fab 6537 4688 8838
00000360: 4504 51b8 4a3f 4938 0000 0000 2495 2535
00000370: eb0f 5737 b8a1 1b39 1cbd 8f38 609f 4e04
00000380: a2b3 1039 0400 0000 3459 8038 cd9b c335
00000390: 3bd0 2837 779b cf38 b74b acb7 0000 0000
000003a0: 8b3c bcb7 16e3 b236 3544 9638 f6af c1b7
000003b0: d6f4 1d39 2d83 ea31 75b1 8838 1e75 6639
000003c0: 6537 c638 ec74 9c39 5857 2e38 643b 5037
000003d0: e4db ad38 027e 8938 65f3 ae31 cc60 4a37
000003e0: b84e 2ab8 0400 0080 b937 1cb7 7fa9 ca35
000003f0: 0000 0000 72bd b738 3f86 b638 3395 84b6

exp_avg_sq f4 [32, 64]
7.0065437e-07 0.0 2.0686555e-10 6.082871e-08 2.7327559e-08 2.2736983e-10 6.3157657e-10 7.123359e-07
2.4936656e-07 7.698817e-06 1.0910135e-08 0.0 5.262111e-12 1.0594148e-06 6.2284935e-06 1.3985082e-06
1.7078535e-06 2.2463885e-06 1.5981989e-08 1.130083e-06 2.857804e-07 1.9953081e-06 1.1871184e-06 4.7862513e-06
1.2284657e-06 3.4023176e-06 0.0 4.445378e-09 2.5331164e-07 1.2776663e-06 1.9387699e-07 1.5350979e-09
4.963306e-06 5.1161844e-14 5.109335e-07 5.948561e-09 1.02883824e-07 4.2863027e-07 2.110077e-06 1.3264099e-16
2.4564993e-06 3.243489e-06 2.4298488e-06 9.2430827e-07 2.3771966e-06 3.574051e-09 3.280704e-06 4.3343966e-06
4.431988e-06 1.1202979e-05 2.8704056e-07 2.3368496e-07 3.9874735e-07 3.993446e-07 1.7528483e-10 2.3106063e-06
2.304216e-06 3.5754866e-09 1.2713464e-06 4.4162242e-08 0.0 3.5501912e-06 5.674342e-06 7.435657e-08
1.3375659e-05 0.0 3.4578824e-07 1.1924435e-07 1.09321e-07 1.8865902e-06 4.4763756e-06 5.394208e-06
1.4552897e-07 7.3263773e-06 1.1608911e-06 0.0 5.2422314e-07 6.0915963e-06 4.6072137e-06 9.0781487e-07
1.4251066e-06 1.6815218e-06 2.1056406e-08 8.941157e-07 1.4817829e-05 8.8707e-06 2.783746e-05 4.57449e-06
1.2308806e-05 3.0460665e-06 0.0 2.4403375e-06 1.4300969e-07 9.081176e-07 1.74066e-07 3.0812982e-06
4.7797457e-06 3.3596237e-07 5.3317063e-07 6.524533e-07 3.1173704e-07 3.1154738e-07 4.7225544e-06 2.7052684e-15
1.1094891e-05 1.7038677e-05 2.3569364e-06 5.1441966e-06 2.3353034e-06 6.934417e-07 2.6030214e-06 4.1860544e-06
3.798846e-06 8.977487e-06 1.7679315e-07 3.063721e-07 3.5818553e-07 2.6452153e-07 1.155213e-06 1.4347167e-05
1.410844e-05 3.6829715e-06 6.5987126e-07 1.2155861e-08 0.0 2.6910773e-06 4.405412e-06 1.7883314e-08
0.0006376004 0.0 1.4479526e-05 8.433281e-09 6.389726e-09 0.00010509366 0.00024737357 0.00022077555
1.6580016e-08 2.5022794e-06 5.912348e-05 0.0 2.7224047e-05 0.000222581 1.0022012e-06 7.005318e-09
4.4612668e-07 7.28044e-09 3.3710154e-10 1.6388396e-09 0.0007267018 0.00030495797 0.001365421 4.577795e-06
0.0005099278 6.540311e-07 0.0 0.00012438669 1.8399149e-11 6.4026806e-09 1.8729528e-10 0.0001673351
1.7467503e-06 1.3752138e-05 1.9243187e-08 3.5064593e-05 2.2469678e-08 3.75968e-11 9.198397e-05 7.2765483e-14
0.00038494606 0.0006152162 3.725e-07 0.00018720777 4.350592e-07 3.1517637e-05 5.010152e-07 6.4859483e-07
7.292928e-07 2.1367418e-06 0.0 4.184971e-08 2.830649e-09 6.533608e-09 5.6841494e-05 0.0005450291
0.00053091906 0.00020817279 4.2753374e-09 5.879302e-10 0.0 5.6071053e-07 9.2316037e-07 0.0
2.1603148e-07 0.0 2.6729746e-10 8.307382e-08 4.974184e-08 5.2389687e-10 8.776594e-10 2.8938715e-07
3.8536055e-07 4.297556e-06 1.3435714e-08 0.0 1.870214e-09 3.711182e-07 3.5801322e-06 8.3641396e-07
1.3492289e-06 1.6554291e-06 1.5823824e-08 7.812435e-07 1.5971558e-07 6.89778e-07 4.0164085e-07 2.7579802e-06
3.7525905e-07 2.0895477e-06 0.0 5.0365273e-10 2.6723276e-07 8.7858933e-07 1.7481909e-07 3.422779e-09
3.1895956e-06 1.75013e-10 5.7775094e-07 3.424433e-08 1.4525503e-07 4.0800717e-07 1.3018482e-06 0.0
9.779377e-07 1.1792054e-06 1.5740638e-06 3.785353e-07 1.4583791e-06 5.167584e-10 2.305573e-06 2.4595859e-06
2.6201621e-06 6.2744216e-06 1.9327287e-07 4.3516843e-07 3.039367e-07 3.058285e-07 3.7799985e-09 8.4140885e-07
7.692658e-07 4.7811963e-09 7.3496045e-07 2.0986416e-08 0.0 2.0914079e-06 3.0707558e-06 1.6748275e-07
00000000: 9a14 3c35 0000 0000 7a73 632f f0a0 8233
00000010: f0bd ea32 ebfe 792f 409b 2d30 5a37 3f35
00000020: aee0 8534 2b2a 0137 486f 3b32 0000 0000
00000030: e224 b92c 3731 8e35 5afe d036 60b4 bb35
00000040: 6639 e535 a9c0 1636 c448 8932 5bad 9735
00000050: 5c6d 9934 22e7 0536 1455 9f35 9699 a036
00000060: c3e1 a435 5f53 6436 0000 0000 f5bd 9831
00000070: e3fe 8734 487c ab35 802c 5034 75fb d230
00000080: 798a a636 9769 6629 1527 0935 1964 cc31
00000090: fbf0 dc33 7f1e e634 d99a 0d36 b6ec 1825
000000a0: 56da 2436 b7aa 5936 7c10 2336 fb1d 7835
000000b0: ed87 1f36 5f9b 7531 112a 5c36 2f70 9136
000000c0: 7db6 9436 6ef4 3b37 8e1a 9a34 d5ea 7a34
000000d0: 6b13 d634 8165 d634 4bba 402f ea0f 1b36
000000e0: 21a2 1a36 a0b4 7531 21a3 aa35 e6ac 3d33
000000f0: 0000 0000 d23f 6e36 3a66 be36 f5ad 9f33
00000100: 0568 6037 0000 0000 c6a4 b934 a309 0034
00000110: dbc3 ea33 bf36 fd35 c633 9636 e5ff b436
00000120: b342 1c34 1ad5 f536 eacf 9b35 0000 0000
00000130: 57b8 0c35 6a66 cc36 aa97 9a36 90b0 7335
00000140: 4a46 bf35 a6b0 e135 87df b432 2a03 7035
00000150: 179a 7837 5ed3 1437 7d84 e937 927e 9936
00000160: eb81 4e37 066b 4c36 0000 0000 aec4 2336
00000170: 348e 1934 5ec5 7335 e6e6 3a34 4dc8 4e36
00000180: b461 a036 515e b434 351f 0f35 4024 2f35
00000190: d05c a734 bf42 a734 6f76 9e36 65ef 4227
000001a0: 3224 3a37 48ee 8e37 dc2b 1e36 509c ac36
000001b0: 35b8 1c36 f324 3a35 91af 2e36 ef75 8c36
000001c0: adef 7e36 039e 1637 88d4 3d34 767b a434
000001d0: a54c c034 9003 8e34 d10c 9b35 9db4 7037
000001e0: 4ab3 6c37 f828 7736 0222 3135 0bd6 5032
000001f0: 0000 0000 5b98 3436 33d2 9336 d39d 9932
00000200: a324 273a 0000 0000 17ed 7237 f6e1 1032
00000210: a08c db31 bb65 dc38 ebb1 8139 fc7f 6739
00000220: d76b 8e32 d5ec 2736 5afb 7738 0000 0000
00000230: 325f e437 a264 6939 5f83 8635 6eb3 f031
00000240: 2f83 ef34 6d27 fa31 d352 b92f 8b3d e130
00000250: 2280 3e3a c4e2 9f39 edf7 b23a f69a 9936
00000260: adac 053a ad90 2f35 0000 0000 cc6d 0239
00000270: 33d7 a12d 93fe db31 efee 4d2f ad76 2f39
00000280: e271 ea35 fcb8 6637 374c a532 5212 1338
00000290: 5803 c132 3c5a 252e 85e7 c038 72da a329
000002a0: 96d2 c939 7646 213a 03fc c734 344d 4439
000002b0: 1592 e934 ce31 0438 817d 0635 191b 2e35
000002c0: 9fc4 4335 f264 0f36 0000 0000 3ebe 3333
000002d0: 4e85 4231 397e e031 1769 6e38 49e0 0e3a
000002e0: 602d 0b3a f548 5a39 44e6 9231 e99b 2130
000002f0: 0000 0000 bc83 1635 19cf 7735 0000 0000
00000300: 48f6 6734 0000 0000 c6f2 922f 5166 b233
00000310: bba3 5533 f701 1030 ca3f 7130 115d 9b34
00000320: 8de3 ce34 ba33 9036 e5d2 6632 0000 0000
00000330: 2785 0031 193e c734 3442 7036 ee85 6035
00000340: 2717 b535 1c30 de35 f5ec 8732 a5b6 5135
00000350: 497e 2b34 2f29 3935 19a1 d734 bd15 3936
00000360: 3677 c934 283a 0c36 0000 0000 6971 0a30
00000370: 3178 8f34 33d8 6b35 e8b5 3b34 2a36 6b31
00000380: d60c 5636 c86d 402f be16 1b35 0a14 1333
00000390: 66f7 1b34 140c db34 2abb ae35 0000 0000
000003a0: af41 8335 3045 9e35 6c44 d335 7f39 cb34
000003b0: 86bd c335 a40b 0e30 71b9 1a36 5d0f 2536
000003c0: 0bd6 2f36 df88 d236 7186 4f34 18a1 e934
000003d0: be2c a334 c030 a434 38e1 8131 2ddd 6135
000003e0: 8b7f 4e35 d947 a431 194a 4535 9e45 b432
000003f0: 0000 0000 1d5a 0c36 2f13 4e36 4fd5 3334

exp_avg f4 [32]
1.2526156e-05 -0.0009155731 -0.010032011 -4.8859063e-05 -0.00014176095 0.0009885344 0.005725986 -0.0046083834
-0.0054313615 -0.0057745436 -0.0013161763 0.0029672189 -0.0010513396 -0.004416273 -0.0051165884 1.989817e-39
-0.00088772527 -0.006705297 2.2639972e-05 -0.0014331068 -0.013483086 -0.007624256 -0.00916819 6e-45
-0.00015422466 -0.00036393869 -0.024491947 -0.0077974885 -0.00040991948 6e-45 6e-45 0.00041073895
00000000: 6e27 5237 1203 70ba 4e5d 24bc 05ee 4cb8
00000010: aaa5 14b9 b691 813a 0da1 bb3b ec01 97bb
00000020: 90f9 b1bb 6238 bdbb 8c83 acba ac75 423b
00000030: 1acd 89ba 62b6 90bb 0ea9 a7bb cdaa 1500
00000040: 3cb6 68ba 1cb8 dbbb f8ea bd37 16d7 bbba
00000050: 29e8 5cbc e5d4 f9bb 2d36 16bc 0400 0000
00000060: 5eb7 21b9 06cf beb9 56a3 c8bc 1382 ffbb
00000070: 76ea d6b9 0400 0000 0400 0000 7358 d739

exp_avg_sq f4 [32]
1.2522559e-05 6.4171894e-05 0.0021333874 4.170233e-06 1.5476512e-06 6.814109e-06 0.0025657204 0.0006934912
0.00100758 0.0006791688 5.608573e-05 0.0038437336 0.00063241884 0.0013589974 0.00047932385 4.3482885e-08
3.8989387e-05 0.000698227 1.8104818e-06 5.8840422e-05 0.0025408326 0.00076304 0.00076665985 7.9006614e-11
1.2121059e-06 7.292292e-05 0.0034021928 0.0009914589 5.1665054e-05 8.298735e-09 5.579556e-09 3.3364054e-06
00000000: fb17 5237 0694 8638 4dd0 0b3b 07ee 8b36
00000010: e4b8 cf35 c0a4 e436 a525 283b 68cb 353a
00000020: c610 843a 3f0a 323a 983d 6b38 26e7 7b3b
00000030: e9c8 253a 6320 b23a c24d fb39 f0c1 3a33
00000040: 8988 2338 3909 373a aeff f235 6ccb 7638
00000050: 1984 263b bf06 483a acf9 483a c5bc ad2e
00000060: a4af a235 32ee 9838 53f7 5e3b d7f3 813a
00000070: eeb2 5838 3992 0e32 4bb6 bf31 02e7 5f36

exp_avg f4 [1, 32]
-0.0018840625 -0.029011648 -0.005944048 -0.0023331752 -0.00021852444 -0.0018445586 0.0012689105 0.009538543
0.008878294 0.010533747 -0.06346519 -0.0050513307 -0.00062012166 -0.0047166273 0.0041348664 -7.537125e-39
-0.019049365 0.004606712 -4.404985e-05 0.06489518 -0.0080641415 0.0090955775 0.011513434 6e-45
-0.00019283542 -0.0070084576 -0.012240408 0.008161105 -0.016293492 -6e-45 -6e-45 -0.0032131774
00000000: a6f2 f6ba d6a9 edbc 4ac6 c2bb 2fe8 18bb
00000010: b523 65b9 1ec5 f1ba 9251 a63a 8d47 1c3c
00000020: 4476 113c bd95 2c3c 0afa 81bd a285 a5bb
00000030: a98f 22ba f08d 9abb c67d 873b 7012 5280
00000040: 6a0d 9cbc e7f3 963b 2bc2 38b8 c4e7 843d
00000050: 761f 04bc 9e05 153c d8a2 3c3c 0400 0000
00000060: dd33 4ab9 34a7 e5bb fe8b 48bc 28b6 053c
00000070: ee79 85bc 0400 0080 0400 0080 2c94 52bb

exp_avg_sq f4 [1, 32]
0.00016610365 0.08933954 0.0010713357 0.00020315075 2.0099665e-06 0.00026822035 0.0006007644 0.0012434993
0.00085873244 0.0022670599 0.0734313 0.00048340237 0.0020715417 0.0009968444 0.0015525256 1.3375944e-06
0.10204036 0.0010637202 5.307706e-05 0.10857842 0.00071831746 0.0020584953 0.0023427429 6.3335916e-12
8.047292e-06 0.022576937 0.0004893402 0.0008505673 0.11689616 5.3132587e-10 5.6733614e-11 0.0001666642
00000000: 1c2c 2e39 a6f7 b63d 106c 8c3a dd04 5539
00000010: f6e2 0636 ed9f 8c39 9e7c 1d3a eafc a23a
00000020: 8f1c 613a f492 143b 2663 963d 2b71 fd39
00000030: b4c2 073b 8ca8 823a 1d7e cb3a 6587 b335
00000040: 89fa d03d 876c 8b3a 0f9f 5e38 5d5e de3d
00000050: 784d 3c3a d2e7 063b b488 193b ecd7 de2c
00000060: db02 0737 45f3 b83c 1147 003a 9bf8 5e3a
00000070: 4167 ef3d bc0c 1230 5f84 792e 95c2 2e39

exp_avg f4 [1, 32]
0.0017383981 0.0028098377 -7.3893425e-05 0.0018821035 0.00014141963 0.002126532 4.3558204e-05 0.0013815198
0.001048531 0.0018440878 0.0033771023 -0.00025565346 0.0032622789 0.00013100973 0.0028791865 -7.29436e-40
0.0043617133 0.0011499069 0.0008567964 0.009030066 -0.00025993682 0.0014925351 0.0011828414 6e-45
0.00015226414 0.0030049863 -0.00025454038 0.00090134045 0.002005911 6e-45 6e-45 0.0018330208
00000000: f6da e33a 4125 383b 3bf7 9ab8 eab0 f63a
00000010: 0b4a 1439 495d 0b3b 44b2 3638 1d14 b53a
00000020: dd6e 893a 52b5 f13a 6052 5d3b 3a09 86b9
00000030: f5cb 553b a85f 0939 bcb0 3c3b 5ff1 0780
00000040: b4ec 8e3b 79b8 963a a29a 603a d8f2 133c
00000050: 2148 88b9 2ba1 c33a 9209 9b3a 0400 0000
00000060: 18a9 1f39 4eef 443b d573 85b9 ef47 6c3a
00000070: 9a75 033b 0400 0000 0400 0000 f941 f03a

exp_avg_sq f4 [1, 32]
6.24917e-05 0.0007933043 2.4484321e-05 8.2701794e-05 1.6886852e-06 0.00010374439 3.1227567e-06 0.00010466118
6.715788e-05 0.00012971487 0.0006159211 4.4723283e-06 0.00016275795 1.9124838e-05 0.00014918602 1.5875777e-06
0.00084016396 6.099014e-05 2.9777288e-05 0.0009497313 8.650829e-06 0.0001243618 8.3544335e-05 3.2197347e-15
4.732332e-06 0.00018591937 2.3142954e-06 4.704309e-05 0.0010356209 4.5302886e-10 1.9907037e-10 6.039099e-05
00000000: fa0d 8338 c0f5 4f3a ae63 cd37 3070 ad38
00000010: c8a6 e235 5891 d938 8d90 5136 8b7d db38
00000020: 1dd7 8c38 1204 0839 c475 213a 0211 9636
00000030: 01aa 2a39 476e a037 d16e 1c39 c114 d535
00000040: 733e 5c3a aacf 7f38 3dca f937 63f7 783a
00000050: 0723 1137 1e67 0239 8634 af38 9f01 6827
00000060: 6cca 9e36 5af3 4239 4b4f 1b36 2250 4538
00000070: acbd 873a 250e f92f 54e1 5a2f 554c 7d38
