noisy_ablation_results_20250630_152010/baseline_low_noise/best_model.pth (torch, 45218 bytes, 18 tensors)

layers.0.weight f4 [64, 7]
00000000: 576b f23e d254 b53e 8693 c83d eafd e33e
00000010: aa76 ec3d 45af 133d eaf0 20be 0e3a 633e
00000020: 9185 aa3e c9e5 8dbe e721 a83e 58cd 903d
00000030: 71e6 8e3e e097 513d cd67 e43e e090 18be
00000040: 0f7a 0e3f 400d db3d 39f3 b73d 7a47 f4bd
00000050: 4c9c 0dbe b46e 31bd 9b97 08be 564f 823e
00000060: bc02 96be 16ef 33be 3260 2abe 4f64 85be
00000070: 34ad c73c 6622 c1be 041b a93e ee27 adbe
00000080: 4e69 903e 0d97 4e3d cb73 1ebe 5aaa fa3e
00000090: ca9f 23bd 1bae 0f3f 6edf aa3d bad6 0e3e
000000a0: baca 8bbd 51c3 bdbd fa34 c73e b33d 893e
000000b0: ee0a e63e e07a 0bbe fffb e53e 9012 e3bd
000000c0: 66c8 6a3e 6719 49be 3f00 adbe 978c e1bd
000000d0: f620 89be 41b9 c63e ea18 063e 37a0 0f3e
000000e0: c9aa bf3e 153c be3d 7053 0d3f 3474 0bbe
000000f0: 8ef6 8f3e 7bf5 34be 6678 243e 9818 d3be
00000100: 55db 883d 9eca babe cf61 583e 8e59 00bf
00000110: c546 80be 81bc 5fbe 7264 163f 8a49 533e
00000120: bdae 1c3f 6f00 5ebe 1b43 fabd 8d72 43be
00000130: d6c3 50be 46b1 1c3e fe83 0a3e e5b9 a03e
00000140: 71cd 47be d2d9 83be b647 4d3e 785e 1cbe
00000150: 56f5 013f 62e2 8ebd 8702 fe3e 9544 75be
00000160: fbba b63d 2ba9 b03d e909 283e d900 aabd
00000170: 0dd3 cf3e be59 8b3e ede1 dfbd b771 18be
00000180: f7f2 013f b957 0bbe 519e b0be 6227 cebe
00000190: 68c2 dcbe e7bd 683c d9ee 92be 6edd b3be
000001a0: dd12 09bd 668f a1be 25a7 b7be 872a 88be
000001b0: 3598 b6be 5aae a6be 5ae5 b63e 6cdb 873d
000001c0: 0c4d ab3d 3f6e b8be e394 90be 8191 12be
000001d0: f382 703c 5595 bdbe 35c7 c9bd bd8c 9abe
000001e0: ca37 dcbc 2ee6 63be 265c 57bd eeff cdbe
000001f0: 3c34 c4be 5e30 55be f4e8 28be c985 a6be
00000200: 233d 903e f007 f1bd 7340 953e 8f90 a53d
00000210: 79a9 aebe 14c2 453e 43ab 07be 331e 5fbe
00000220: 2a7d b5be a0ca 03bf c82f 433c 8394 21bd
00000230: c0d6 a73e 12df 82be 8a78 ec3e 6e01 68be
00000240: 71bf e73d f329 013e 637c 603e 8154 bc3e
00000250: a89a d73e 1ad4 6fbe 23bb fe3d 53e3 8abd
00000260: 6960 013d 9137 90be 21be da3e fcae 59be
00000270: 62d5 913e 1c3e 563e cd59 573e ff66 2dbd
00000280: d3aa c73e f72d 6dbd 311e 4a3c 5ac0 f2be
00000290: 6c21 c03d 7e0b 42be ae0d 72be 88ee 9f3e
000002a0: c057 2d3e 28f9 1cbe 5f3f d5bd de03 f93c
000002b0: 9217 aa3e 4b74 913c 05a4 67be c6c2 a0be
000002c0: 2d0e 96be 42e8 5bbd e41b 4a3e e548 0dbf
000002d0: 19bc 6d3c 4688 dd3d 144a 8c3d aac2 09be
000002e0: 0ef0 493e de51 4b3e 92a6 103e c8f2 87bd
000002f0: 0ce7 ccbd 191b a03e 75a0 3abe c425 233e
00000300: 0185 733e 6f2b 193f 4545 41be a0c8 53bd
00000310: a99e 7cbb 96e1 92bd 3a96 943d 836e 763d
00000320: 769b e5be 08b7 a4be 7618 ca3e 9c9f 883d
00000330: 11b4 81bd 70c0 a1be f66b 8cbe 43ad 00bf
00000340: b778 85be 0e19 433e 4e6d 0a3e a2a0 863e
00000350: 483d e2be 2c27 2ebe 9462 55be b773 bb3e
00000360: acd9 ac3c db71 103e c6c0 5b3e a73f c43d
00000370: 1d46 33be e08f 043f 8164 b4bd cc15 ddbc
00000380: 3aa2 19bf 57b6 7a3e d7a5 653d e54f 883d
00000390: ddc9 00bf af5f e3be 8071 89be 8c00 033f
000003a0: 0683 cf3d e330 0d3f 808a 653e 9e32 a83e
000003b0: e2e7 43be b5fc 83be 689b bebe febb b9be
000003c0: 4cb0 c43d 61ed 44be ef07 5cbe 7da9 a6be
000003d0: fd6c 06bd a355 063d 9ef3 29be 6e25 d93e
000003e0: c4fc cbbc 3d5a 083f 81aa a6bd f810 72be
000003f0: d740 a1bd 2a55 17be da00 01be 4670 abbe
0.4734752 0.35416275 0.09793763 0.4452966 0.11546071 0.036055822 -0.15716901 0.22190115
0.33305028 -0.27714375 0.32838365 0.07070416 0.27910188 0.05117023 0.44610444 -0.14899015
0.55654997 0.106958866 0.08981938 -0.119276956 -0.13829154 -0.043318465 -0.13339083 0.25451154
-0.2929896 -0.17571673 -0.16638258 -0.26053092 0.024374582 -0.37721556 0.33028424 -0.33819526
0.2820534 0.050437022 -0.15473859 0.48958093 -0.03994731 0.5612504 0.08343397 0.13949099
-0.068257764 -0.09265769 0.38907605 0.26804885 0.44930214 -0.13621092 0.4491882 -0.11087525
0.22928008 -0.19638596 -0.3378925 -0.110131435 -0.2678296 0.38813213 0.13095441 0.14025961
0.37434986 0.092888035 0.5520544 -0.13618547 0.28117794 -0.17671768 0.16061553 -0.412297
0.06682459 -0.3648271 0.21131061 -0.5013665 -0.25053993 -0.21849252 0.5874702 0.20633522
0.6120413 -0.21679853 -0.122198306 -0.19086666 -0.20387205 0.15302 0.13526914 0.31391826
-0.19511963 -0.2575212 0.20046887 -0.15270412 0.5076498 -0.06976773 0.49611303 -0.23951943
0.089223824 0.08626016 0.1641003 -0.08300943 0.40590706 0.27216905 -0.10931764 -0.14887129
0.5076136 -0.13607682 -0.34495786 -0.40264422 -0.4311707 0.0142054325 -0.2869785 -0.35129875
-0.033465255 -0.31554717 -0.3586971 -0.26594946 -0.35663 -0.32554895 0.35721856 0.06633648
0.08364305 -0.3602161 -0.28238592 -0.14313318 0.014679658 -0.37027994 -0.09852449 -0.301855
-0.026882071 -0.22255775 -0.052578114 -0.4023432 -0.38321102 -0.20819232 -0.16495115 -0.32523945
0.28171644 -0.11769092 0.29150733 0.08084213 -0.34113672 0.19312316 -0.13248925 -0.21788864
-0.35447055 -0.51481056 0.011913247 -0.039448272 0.3278103 -0.25560814 0.46185714 -0.22656795
0.113158114 0.12613659 0.2192245 0.3678322 0.4211018 -0.23420754 0.12438037 -0.0678164
0.031586085 -0.28167394 0.42723182 -0.21258157 0.2848311 0.2092213 0.2103035 -0.042334553
0.38997516 -0.057905164 0.0123363 -0.47412378 0.09381375 -0.18949696 -0.23638031 0.31236672
0.16928005 -0.1532942 -0.10412478 0.030397352 0.33221108 0.017755648 -0.22621162 -0.313986
-0.2930769 -0.053688295 0.19737202 -0.55189353 0.014510178 0.10817008 0.06850067 -0.13453165
0.1972048 0.19855449 0.14126042 -0.06638104 -0.10005006 0.31270674 -0.18225272 0.15932375
0.23781206 0.598319 -0.1887408 -0.051705003 -0.0038546717 -0.07171933 0.07255216 0.060163986
-0.4484517 -0.32170892 0.39471787 0.06671068 -0.06333173 -0.3159213 -0.27426118 -0.50264376
-0.2606866 0.19052526 0.13518259 0.26294428 -0.4418738 -0.1700713 -0.20838386 0.3661172
0.021099888 0.14105932 0.21460256 0.09582453 -0.17507215 0.51782036 -0.08808232 -0.026987933
-0.60013163 0.2448362 0.05606636 0.06655864 -0.5030802 -0.44408938 -0.26844406 0.5117271
0.101324126 0.5515272 0.22416115 0.32851118 -0.19131425 -0.25778738 -0.3722794 -0.3627624
0.096039385 -0.19231178 -0.21487401 -0.32551184 -0.032818783 0.032796513 -0.16596839 0.4241137
-0.024900801 0.5326269 -0.0813799 -0.23639286 -0.07873695 -0.14778581 -0.12597981 -0.33484095

layers.0.bias f4 [64]
00000000: b60a a73e ffaf 93be 45d2 2cbe 885b a0be
00000010: 689f 97be 0dbb 3abd 379e 03bd 27b9 873e
00000020: 1653 5bbe a7dc 983e 40bd 9cbd b34f 64be
00000030: 9b44 22be fe9e 863e ef09 7e3e 8772 29be
00000040: 09ed e13d aebb 9ebd a16a 8dbe 1e9c 2bbe
00000050: 1427 ad3e 6dc7 b83e 8314 f13e 4448 8e3e
00000060: 03a3 b53e 7fed 553e a1e2 54be ce71 62bc
00000070: 4753 4ebd b8ec 43be c4c6 44bd 3868 113e
00000080: ccb0 7c3e 1f19 88be 7e1f 0ebe 26c6 acbd
00000090: 1f40 39be 4a2e bfbe d812 373e 338f 25be
000000a0: 2fb6 c23e e7a0 dd3e caba 2c3e 5602 933e
000000b0: c6b6 363e 8553 21be 1480 3e3e bb90 683e
000000c0: 4483 653e 9a0c a83e 3506 bcbe 11d4 923d
000000d0: 1a77 cabd 385c 46be 725c 18be 5d68 de3e
000000e0: 7cb5 d53e 2e60 a23c 0fc2 7ebe 3582 01be
000000f0: f0ff a9bd d4d2 4e3e 5d96 7b3e 61ee 1dbe
0.3262536 -0.28845212 -0.16877086 -0.31319833 -0.29613805 -0.04558854 -0.032133307 0.26508448
-0.21418414 0.29855844 -0.07653284 -0.22296028 -0.15846483 0.26293176 0.24808477 -0.16547595
0.11031539 -0.07750641 -0.27620414 -0.16758773 0.33818877 0.3608965 0.47085962 0.2778951
0.3547593 0.20891379 -0.20789577 -0.013821078 -0.05037239 -0.1913327 -0.04804112 0.14199913
0.24676818 -0.26581666 -0.13879201 -0.08436231 -0.18090867 -0.37340003 0.17878282 -0.16167907
0.3802962 0.4328682 0.1686813 0.2871272 0.1784316 -0.15754516 0.18603545 0.2271146
0.22413355 0.32822114 -0.36723486 0.07169355 -0.09885998 -0.19371116 -0.14879015 0.43438998
0.41740024 0.019821253 -0.24878715 -0.12647326 -0.08300769 0.20197612 0.24569078 -0.15422966

layers.4.weight f4 [32, 64]
00000000: f8d8 95bc 0639 c3bd db6f 7cbd 07b1 89bd
00000010: 4c8c 0c3e 4ced efbd be9b c23d e7da afbd
00000020: 3d3d 503c 292d d33d 0240 3e3c 9c7a a03d
00000030: a28d 013e 1ae6 5cbe 76bb db3d 59fd 0b3d
00000040: 8cc3 c83c ad88 ea3c cb31 863d 0e28 90bc
00000050: ec27 96bc 45f7 233d c98a 4f3d 16aa e7bb
00000060: f828 28be bd9e 8a3d b841 aebd cf20 903d
00000070: 9700 563c 5bc9 693d 1b05 d4bc b76b e8bb
00000080: 80ac 0b3e 67c4 2e3d bf7d cf3d eac7 ec3d
00000090: e632 073e ce18 0dbc 7376 16bd ff3b 953d
000000a0: 9e64 8cbd 72d6 e0bb 5742 f83c fe0b 07be
000000b0: cc7a f33d f405 223d 1c89 1a3e cfbb 3d3e
000000c0: ca1b 163e 292a 3a3e 25f6 223e 0ee8 93bd
000000d0: cce5 81bd c7c4 b1bd d9cf adbd 6e31 0dbe
000000e0: ace9 30be b821 10be 7202 85bd 1b65 c8bd
000000f0: 4010 9dbd 3e8d f43d 9b17 1b3e cfff 01bd
00000100: c76b 373e 9a9e 883d ab41 9d3c a95d cdbd
00000110: 5dcb 2f3d 61dd de3d 0e58 573e e8c0 933e
00000120: 34a1 b03c 7dd2 033e 7c25 8d3d 70f8 e1ba
00000130: 7f91 ae3d df6d 973e 62b0 f63b 9624 233c
00000140: 5b8d babc 535e 01be 2269 ccbd 18f4 6dbe
00000150: 4807 303e d2f6 cf3d 086f 853e c03a 303e
00000160: 3825 093e a7c5 db3b 8a36 f2bd cf4b 343e
00000170: ba4d 8abe 72fc 81be 5b0b 57be cb78 693e
00000180: 73eb 2a3e 46f6 4c3e fad7 2abd 03b1 583c
00000190: 6945 0fbe 2968 65bd 0e34 173e 77c8 d53d
000001a0: d665 313e 9cdc f53d f77e b6bd 9864 ae3e
000001b0: 0191 06bd 160f b13d 1b23 38be d688 f7bd
000001c0: 1071 12bd 665e e5bc 5fd2 46be 8c41 7cbd
000001d0: 28e2 9ebe e09c a0bd 7863 0c3d 31c9 173e
000001e0: c275 813e 60b6 a53e bc9e 1ebe 514e 34be
000001f0: 7069 e7bd 1991 b9bd c3dc 27be f2f9 f9bd
00000200: c782 ca3c 86c4 efbd 78a7 8c3e 7564 743d
00000210: 9448 0cbe 22bc 40bd 2330 1abb 3e9f dfbb
00000220: 8836 833e ff78 a8be 24f6 ff3d f207 8fbd
00000230: edb7 703e ef04 123b 0fda 06bf 4667 5d3d
00000240: b2b6 50bd 4015 f2bd 98f3 0dbd 3127 8c3d
00000250: c739 8cbd e932 c7bc 3603 d2bd ff6c 1ebd
00000260: 9aa5 9b3c d589 29bf a4ac 5b3d 9bf5 fdbc
00000270: d5cd 433d e822 0fbe 17f4 8ebd 3478 343c
00000280: a84e 62be fc5e d33e 713e efbd 3e5e 383e
00000290: 1e21 3fbd 4300 33bd 5598 37be 7d9d f93d
000002a0: dba6 173d 9ebf 68bc ff36 14bf 3ff0 5f3c
000002b0: c1aa 15bf 6dd3 4a3e 813c 35bf 5318 27bf
000002c0: 868c 2bbf acda 0cbf 9455 213d 2dcd 563d
000002d0: ba0a 953b 9a80 dc3d 41ed 833d 7e72 dc3c
000002e0: 69e6 223d 95e0 b13d 1351 cdbd 3c43 cf3d
000002f0: e200 9b3d 09f2 34bf 6774 28bf 83e9 dfbd
00000300: 5b1c acbc 986d cfbd 4651 513d e79f a33d
00000310: 4992 9ebd 1b2b d33b 862a 29bd d075 10bd
00000320: d123 b73d 9645 1abb d6f3 043e ae9e d63d
00000330: 9eaf 963d 4a08 5dbe c9d1 723d 752f be3c
00000340: e8bf e2bb bdbf 1e3e 2452 923d 060b 483e
00000350: 33c5 1bbd 5522 04bc 04de 423c d936 06bd
00000360: 53f0 3abe 6f4a 683d f42b af3d 5021 0cbe
00000370: 013c 6c3d f3c6 393e 0b04 dc3d a2cf a53d
00000380: 2de0 253c d01a fcbd 3aff 093e ccaa 023e
00000390: 73bf f43d 9b38 f93d 0438 773d cee6 d53d
000003a0: 5c16 bbbd 35d0 97bd 5cbc 3a3e e58f 01be
000003b0: 5309 b13d efa7 9e3d 512f 3b3e a1f3 203e
000003c0: 1db6 ad3d d05a 0d3e aa9c 8c3e c6cb 6bbc
000003d0: 4fb7 953d 7a9b b63d 504f a4bd 0faf 3c3d
000003e0: 869f 11be 04ad 13bd 9349 ac3c 4e68 96bb
000003f0: 9821 fbbd 016e 3b3e 0835 0b3e 99f8 28bd
-0.018291935 -0.09532361 -0.06163011 -0.067232184 0.13725394 -0.11715183 0.09502362 -0.08586674
0.012709913 0.10311348 0.01161194 0.07835886 0.12651685 -0.21572152 0.10729115 0.034177158
0.024507307 0.028629625 0.06552466 -0.017597225 -0.018329583 0.040030736 0.050669465 -0.0070698364
-0.16421878 0.06768558 -0.085086286 0.07037508 0.013061664 0.057076793 -0.02588134 -0.0070929187
0.13640022 0.042667773 0.10131406 0.11561568 0.1320301 -0.008611871 -0.036734056 0.07286834
-0.06855129 -0.0068615014 0.03030507 -0.13188168 0.11888656 0.03955646 0.15091366 0.18528675
0.14659038 0.18180145 0.15914209 -0.07221995 -0.063426584 -0.086801104 -0.084869094 -0.13788387
-0.17276639 -0.14075363 -0.06494607 -0.09784909 -0.07669115 0.11941002 0.15145724 -0.0317381
0.17912208 0.06670876 0.019196352 -0.1002763 0.04291855 0.108820684 0.21029684 0.28858113
0.021561243 0.12873264 0.06891915 -0.0017240178 0.08523845 0.29576012 0.0075283507 0.009957453
-0.022772482 -0.12633638 -0.0998099 -0.23237646 0.17190278 0.10154499 0.26061273 0.17209911
0.13393104 0.0067069116 -0.11826809 0.17607044 -0.27012426 -0.25387913 -0.21000426 0.22799985
0.16691379 0.20015821 -0.041709878 0.013225797 -0.13991322 -0.056007538 0.14765951 0.10438626
0.17324004 0.120049685 -0.08910935 0.34061122 -0.03285313 0.086454555 -0.17982142 -0.12086646
-0.035752356 -0.027999114 -0.19416188 -0.061585948 -0.3103192 -0.078424215 0.03427455 0.14822842
0.25285155 0.32365704 -0.1549024 -0.17608 -0.112994075 -0.09060878 -0.16392808 -0.122058764
0.024720563 -0.11707406 0.2747152 0.059666116 -0.13699561 -0.047054417 -0.0023527227 -0.006824403
0.25627542 -0.32904813 0.124981195 -0.06983937 0.23507662 0.0022280773 -0.5267648 0.054053567
-0.05095548 -0.11820459 -0.034656137 0.06843413 -0.06846958 -0.024316268 -0.10254519 -0.038678166
0.018999863 -0.6622594 0.05363144 -0.031000903 0.04780372 -0.1397816 -0.0698015 0.011014987
-0.22100317 0.41283405 -0.11681832 0.180047 -0.046662442 -0.04370142 -0.17929204 0.12188242
0.03702436 -0.014205841 -0.5789642 0.013668119 -0.58463675 0.19807215 -0.70795447 -0.6527149
-0.67011297 -0.55021167 0.039388254 0.052441765 0.004548398 0.10766716 0.06441737 0.026910063
0.039770517 0.08685414 -0.10025229 0.10120246 0.07568528 -0.70681816 -0.65802616 -0.10933211
-0.021009615 -0.10128325 0.0511029 0.07989483 -0.077427454 0.0064443476 -0.04130032 -0.035268605
0.08942378 -0.0023540012 0.12983641 0.104794845 0.07357715 -0.21585193 0.059282098 0.023215989
-0.0069198497 0.1550283 0.07144573 0.19535455 -0.03802986 -0.008064826 0.011893753 -0.03276715
-0.18255739 0.05671161 0.08553305 -0.13684583 0.05767441 0.181423 0.10742959 0.080962434
0.010124248 -0.123098016 0.13476267 0.12760466 0.119505785 0.12169 0.060356155 0.10444413
-0.09135124 -0.07412759 0.18235916 -0.12652548 0.086443566 0.077468745 0.18279769 0.15717937
0.08482001 0.13804173 0.27463275 -0.014391845 0.07310354 0.089163736 -0.0802294 0.046065386
-0.1422101 -0.036053672 0.021031177 -0.004590071 -0.12262267 0.18303682 0.13594449 -0.041252706

layers.4.bias f4 [32]
00000000: f59c 4ebe 3029 cd3e cd5e 0e3e 47ee f7bd
00000010: bca3 6bbe 6eb7 ca3d 35d0 ea3d 540c 303e
00000020: c99d 9e3d dd1b 8c3d f94a 8b3e 5746 073e
00000030: 799e 8a3d fe64 4d3e 259a dc3d a403 fbbd
00000040: 2980 bc3e 6ca5 12bd 04a7 bcbe f493 ad3e
00000050: eb38 ca3d 2876 7f3d 48d7 2e3e 3284 a6bd
00000060: 6219 23be 41d3 3e3e b919 703e 520f 943d
00000070: b9d3 e53e 5585 8b3d 83ae c3bd e57c 19be
-0.20177062 0.40070486 0.13903351 -0.12105995 -0.23011678 0.09898268 0.114654936 0.17192203
0.07744939 0.06841252 0.27205637 0.13210426 0.067685075 0.20058057 0.10771588 -0.12256554
0.36816528 -0.03580229 -0.36846173 0.33901942 0.098741375 0.062368542 0.17074311 -0.08130683
-0.15927652 0.18635274 0.23447312 0.072294846 0.44888094 0.068125404 -0.0955477 -0.1498905

mean_head.weight f4 [1, 32]
00000000: cb24 e83d 8d1a 973c 58ed bc3e 9b6a 9b3d
00000010: d1a6 b83e 1733 773e 3343 ad3e 35c6 69be
00000020: 61f2 88be 4459 31be e2c8 963c 0e52 de3e
00000030: e618 3fbe 9e6c af3e 343f 34be 9ac1 80bc
00000040: d92f 6a3c caae 44be d31e 9d3e cebe 933c
00000050: 2de9 d83e 5ac4 4bbe 2789 43be 96b1 96bc
00000060: ee68 5b3e ea24 013d a236 0f3d e218 a3be
00000070: f8db 743c f2c4 86be 044c 05be b612 3d3d
0.11335143 0.018445278 0.3689983 0.07588693 0.3606477 0.24140583 0.3384033 -0.22829516
-0.2674742 -0.17319208 0.018406335 0.43421978 -0.18661842 0.34262556 -0.17602235 -0.015717316
0.014293634 -0.19207302 0.3068758 0.018035319 0.423654 -0.19899121 -0.19095288 -0.018395226
0.21426746 0.031529345 0.03496421 -0.31854922 0.014945023 -0.26322132 -0.13017279 0.046160422

var_head.0.weight f4 [1, 32]
00000000: ad88 853e c03a edbe c892 f83c cbbf 863e
00000010: 7f88 f1bd 16bb 9d3e 8a32 b33e 1a4f c13c
00000020: a674 9d3d ed61 81be c522 d6be e03e a83e
00000030: 768b c1bc 3e33 4abd dd48 0e3e 9cd4 73bd
00000040: 51ba bfbe 1d65 253d 0dfd 173e 513d d5be
00000050: b274 3c3e 319f 90be 71e4 d4be 83de c33d
00000060: 06de 23bd eaff d0be 6831 c2be 42cd 90bd
00000070: 7af7 d0be 7a3b edbe ec23 30be 438d 253e
0.26080838 -0.46333885 0.030343428 0.263182 -0.11793613 0.30806798 0.34999496 0.023597289
0.076882645 -0.25270024 -0.41823402 0.3286047 -0.02362607 -0.049365275 0.13894983 -0.059528932
-0.37446836 0.040379632 0.14842625 -0.41648343 0.1840389 -0.28246453 -0.41580537 0.09563925
-0.04000666 -0.40820247 -0.3792832 -0.070704 -0.4081381 -0.4633444 -0.17201203 0.16167168

exp_avg f4 [64, 7]
00000000: ac91 abba 0a13 3db8 89bc abba 2695 c1b7
00000010: 4226 b0ba feb0 c2b7 44cc 66b7 0000 0000
00000020: 0000 0000 0000 0000 0000 0000 0000 0000
00000030: 0000 0000 0000 0000 f849 deb9 80cf d1b7
00000040: 60e9 e0b9 1a97 4db8 b0f6 28ba e48c f138
00000050: 38e3 58b8 cd51 02b5 cd34 9035 32e5 fbb4
00000060: 7405 5e35 877f 0eb5 6a5e 1eb6 be5b db30
00000070: 887a 4f34 04a9 c535 8efc 4b34 f858 8335
00000080: 0de6 8134 12fb 9b35 34c5 aa30 da6c 063a
00000090: 186a dd37 e8b5 223a 76b4 7bb7 4faf 003a
000000a0: 4a75 c138 681f 40b7 1bc5 b53a 8d02 aa38
000000b0: d806 c03a bdbd db37 2660 b73a 519e de38
000000c0: 60db 7436 5d1b b0b9 93fc 46b7 ea68 b6b9
000000d0: 7b59 20b7 11f0 c6b9 5f62 b9b7 20ab 2bb7
000000e0: 83ff 5fbb 9efa c5b8 8442 6cbb ca34 3137
000000f0: 5e08 7abb 80fe 3fb8 160b a238 2681 d73a
00000100: 154b 8638 05e2 e23a 1e47 74b8 d448 f73a
00000110: 50c2 9c36 de60 c737 a8b1 623a 0024 fe37
00000120: 4d44 713a ff74 a7b7 b7b2 593a 95bc 0739
00000130: 0608 7bb8 0000 0000 0000 0000 0000 0000
00000140: 0000 0000 0000 0000 0000 0000 0000 0000
00000150: 2acf 583b dc13 e838 4a5b 5d3b 8c47 2838
00000160: 6481 513b 1edf 5639 8d13 76b8 cd28 d5b9
00000170: 1caa 0836 df64 d7b9 9d62 a235 7376 f4b9
00000180: 1b5a a4b7 5ce4 82b7 9e04 29bb c572 0239
00000190: f89c 1cbb e5d4 49b9 a822 04bb 000a 18b8
000001a0: 0ce6 b537 2ce1 92b8 a4b1 cab4 a28d 8fb8
000001b0: 8d77 05b7 1405 8db8 c51d 00b5 bda9 0bb6
000001c0: 9e8f 0039 60e8 b0b6 ac17 8a38 92f0 b637
000001d0: 7c4f 9438 7a92 a4b7 1524 2837 a4a3 d4b9
000001e0: 0f68 8836 fc2c d5b9 4e74 73b6 e078 ccb9
000001f0: c841 b236 88f3 6fb6 58e5 a233 812a de34
00000200: 52aa 9e33 0473 0c35 ccbe bd33 cb6a 0235
00000210: 3511 0830 2bed 00ba e3d6 9f36 30fe 00ba
00000220: 8611 2335 3618 f9b9 5e80 3136 1086 19b4
00000230: 049f ffb9 89ee 0ab7 317d feb9 b271 83b7
00000240: a2fd 06ba 2923 e8b5 f68b 90b6 9944 90b9
00000250: 100d ff34 e708 93b9 1376 c636 52bf 92b9
00000260: 287c 06b7 dc10 98b5 bceb d2b9 f81f 29b7
00000270: feff cfb9 3808 27b7 34f4 d9b9 2f67 16b6
00000280: ae7f 06b7 feef 0aba 7567 b3b7 85fb 11ba
00000290: 50b9 ad36 16ca 0eba 385c 47b8 d20f 36b5
000002a0: cca7 0cba ef00 9cb7 6795 0bba ef89 7cb7
000002b0: 78f9 15ba 7f95 54b7 6b88 0cb7 e0a6 f738
000002c0: 2837 3a37 c066 51b8 5049 26b7 a08c 5239
000002d0: aa54 8db8 d07d d5b6 0000 0000 0000 0000
000002e0: 0000 0000 0000 0000 0000 0000 0000 0000
000002f0: 0000 0000 111f d73a 8e06 bc38 13be dd3a
00000300: f2d6 6437 120f d53a 7b11 c038 0ec5 e4b7
00000310: 3d64 cbb9 92fb fa35 2031 c9b9 a37d 4bb5
00000320: 8c4a bfb9 5ae0 92b5 3e2d 2f36 8890 4bba
00000330: c91c 9b36 4771 4bba c6da 14b6 522d 46ba
00000340: 207a fb35 3032 0eb6 f423 b0b9 c5ff de36
00000350: 32c4 b1b9 d27b 4cb6 775a aab9 23b3 0337
00000360: d235 ceb6 598b aeb9 2862 3d36 7878 a1b9
00000370: 1655 bbb6 c6a9 b8b9 c525 6b37 2c6a 4ab7
00000380: 5a89 033a 9ec9 b038 0039 013a 1870 1b38
00000390: c570 333a 8b5c 8ab8 0659 0ab8 c0b8 c039
000003a0: 977f 9638 1c49 af39 60c3 5e39 88db 5239
000003b0: 48b3 f538 185f a038 3d98 b5b9 6e28 6e36
000003c0: e7d4 b4b9 0785 0eb6 65f8 abb9 a447 c934
000003d0: 74a4 17b6 7ed0 f23a aefe 8838 86a1 fe3a
000003e0: 002c 1835 3ffa e93a 9eee 2a39 5990 97b8
000003f0: a601 be33 4ef2 3035 37ac ba33 7071 f734
-0.0013089678 -4.5078843e-05 -0.0013102453 -2.3076846e-05 -0.0013439136 -2.320902e-05 -1.3756628e-05 0.0
0.0 0.0 0.0 0.0 0.0 0.0 -0.0004239825 -2.5011366e-05
-0.00042898487 -4.9016533e-05 -0.00064454507 0.000115180184 -5.1710027e-05 -4.854781e-07 1.0744203e-06 -4.6919155e-07
8.270938e-07 -5.30847e-07 -2.359879e-06 1.5960422e-09 1.9322954e-07 1.4726834e-06 1.8997727e-07 9.786154e-07
2.4195506e-07 1.1621471e-06 1.2425176e-09 0.00051279145 2.6394657e-05 0.0006206916 -1.5002783e-05 0.00049089355
9.224804e-05 -1.1451404e-05 0.0013867946 8.106707e-05 0.0014650477 2.6195188e-05 0.0013990446 0.00010615274
3.6486526e-06 -0.00033589723 -1.1860527e-05 -0.00034791912 -9.557577e-06 -0.00037944366 -2.2099526e-05 -1.0232237e-05
-0.0034179396 -9.440373e-05 -0.0036050389 1.0562313e-05 -0.003815196 -4.577497e-05 7.726827e-05 0.0016441687
6.403603e-05 0.0017309791 -5.8240366e-05 0.0018866309 4.6717832e-06 2.3767756e-05 0.00086476887 3.0295923e-05
0.0009203598 -1.9962432e-05 0.00083045237 0.00012944856 -5.9850536e-05 0.0 0.0 0.0
0.0 0.0 0.0 0.0 0.0033082464 0.00011066321 0.0033776336 4.0120955e-05
0.0031967992 0.00020491748 -5.866918e-05 -0.00040656925 2.0364596e-06 -0.0004108315 1.2098641e-06 -0.00046627558
-1.9592282e-05 -1.5603546e-05 -0.0025790106 0.00012440521 -0.0023897272 -0.00019248163 -0.0020162258 -3.6248937e-05
2.1684005e-05 -7.003764e-05 -3.7754683e-07 -6.8451525e-05 -7.955253e-06 -6.72435e-05 -4.7727036e-07 -2.0811415e-06
0.00012260533 -5.2722608e-06 6.584762e-05 2.1808115e-05 7.071995e-05 -1.9618532e-05 1.0021981e-05 -0.00040557713
4.06523e-06 -0.00040660042 -3.627752e-06 -0.0003899997 5.3124713e-06 -3.575553e-06 7.58543e-08 4.1381648e-07
7.3884294e-08 5.2321434e-07 8.835704e-08 4.858418e-07 4.9500964e-10 -0.0004918153 4.7635854e-06 -0.00049206894
6.074773e-07 -0.0004751102 2.6449775e-06 -1.4298007e-07 -0.00048755866 -8.280979e-06 -0.0004853993 -1.566936e-05
-0.00051494886 -1.729558e-06 -4.307828e-06 -0.0002751693 4.7506956e-07 -0.00028044658 5.9146055e-06 -0.00027989835
-8.01593e-06 -1.1329789e-06 -0.00040229957 -1.0080628e-05 -0.00039672846 -9.955889e-06 -0.0004157141 -2.2411803e-06
-8.01675e-06 -0.0005300044 -2.1386639e-05 -0.00055687904 5.177375e-06 -0.0005446983 -4.7531183e-05 -6.7823305e-07
-0.000536558 -1.8597084e-05 -0.0005324692 -1.5052486e-05 -0.00057210727 -1.2670992e-05 -8.376413e-06 0.00011808961
1.1099306e-05 -4.9925176e-05 -9.91144e-06 0.00020079548 -6.739174e-05 -6.362541e-06 0.0 0.0
0.0 0.0 0.0 0.0 0.0 0.0016412457 8.9657595e-05 0.0016917608
1.3639905e-05 0.0016255102 9.1585294e-05 -2.7271479e-05 -0.0003879386 1.8699668e-06 -0.00038374308 -7.580622e-07
-0.000364859 -1.0943143e-06 2.6103367e-06 -0.0007765372 4.622711e-06 -0.0007760715 -2.2181061e-06 -0.0007559854
1.87365e-06 -2.1188862e-06 -0.00033596123 6.645891e-06 -0.00033906248 -3.0470442e-06 -0.00032492328 7.849917e-06
-6.145544e-06 -0.00033291688 2.822033e-06 -0.0003079807 -5.5829396e-06 -0.00035221706 1.4015885e-05 -1.2064858e-05
0.00050177204 8.429888e-05 0.0004929453 3.7059275e-05 0.0006845112 -6.59759e-05 -3.2984673e-05 0.00036758743
7.176323e-05 0.00033433072 0.00021244353 0.00020108942 0.00011715904 7.647107e-05 -0.00034636437 3.5488297e-06
-0.000344909 -2.123708e-06 -0.0003280073 3.7491293e-07 -2.2596478e-06 0.001852527 6.532423e-05 0.00194268
5.668844e-07 0.0017851068 0.00016301355 -7.227128e-05 8.847864e-08 6.591771e-07 8.6926256e-08 4.6089872e-07

exp_avg_sq f4 [64, 7]
00000000: 234c f236 a739 0732 384e f336 e5dd 0c32
00000010: f303 f736 4812 5632 99da 7531 0000 0000
00000020: 0000 0000 0000 0000 0000 0000 0000 0000
00000030: 0000 0000 0000 0000 63f0 8539 5885 d134
00000040: 16c8 8639 30e7 b834 fe89 8839 db14 0235
00000050: 6605 6b34 fbc9 b332 bbb2 6834 95d5 a632
00000060: a6df 0634 279e e032 dac2 0a35 e9d6 c72a
00000070: 27a0 d031 f270 b734 f5e4 c831 2d23 2f34
00000080: ddff 2132 4518 6d34 5d32 852a 0bb1 fd37
00000090: 20d6 8b33 45a9 fd37 5d85 9433 80fa 0038
000000a0: 2b0b c833 a9f6 1e33 d044 8e37 a7d2 2a33
000000b0: fca2 8e37 4166 3633 c84b 9137 24ed 7433
000000c0: 5d34 c332 b182 3b37 7d80 bd33 6e15 3737
000000d0: 8331 8733 2363 5c37 97e8 a433 27ef 7031
000000e0: aeaa 043a f4ee ca35 138a 053a 6b9f f235
000000f0: 82ed 063a 2292 0c36 ce20 cb34 8131 ad39
00000100: c75c 7035 9d50 ad39 8694 3235 c474 af39
00000110: 7d67 5536 b04b 6a34 aaad 8038 d4e0 0935
00000120: 560b 8138 f265 3335 b21c 8338 470d 4e35
00000130: 118b 9f33 0000 0000 0000 0000 0000 0000
00000140: 0000 0000 0000 0000 0000 0000 0000 0000
00000150: 06cb 2e39 6a4e 7835 c25c 2f39 c534 a535
00000160: bba4 3139 dc36 aa35 6012 2b34 991b 8f37
00000170: de51 1932 4d40 8d37 7e69 1832 038f a437
00000180: 6de3 6a32 4597 9431 7799 513a c9e3 1936
00000190: cb2f 523a 355f d435 6706 553a 772a 5736
000001a0: 60d6 0435 ae13 8836 5857 b734 848d 8836
000001b0: d310 5a34 0caf 9036 d7f4 8434 f3d5 bd2f
000001c0: ce70 5637 edb1 6234 9866 5837 91b3 0134
000001d0: 5e2e 5c37 3651 8235 ac99 0032 3990 7b36
000001e0: 7b48 3434 7d3b 7836 22d6 d333 ebba 9836
000001f0: bada 8235 d3e6 eb2f 89f5 d131 e880 9834
00000200: 5c82 c731 d47e 5e34 fbe0 1a32 5188 7734
00000210: 4640 6e2a 3a97 9536 519a ad33 3d3f 9136
00000220: 5635 5b33 e7d7 bd36 e69d 2636 1d1e 082f
00000230: 5d0d 9936 1beb 1034 42b9 9936 1a09 dd33
00000240: e436 9b36 d44b f833 ae72 2b31 993d ae36
00000250: 2bbf 9a31 43ed ad36 a3a5 9b31 ae7f bb36
00000260: 1adf eb34 b334 1531 a6d8 aa36 4061 7e33
00000270: 9b7f ab36 aa87 4133 ac54 ad36 1e06 2035
00000280: cdf1 2a31 5d66 0637 eee6 1535 20e9 0637
00000290: c54c a334 a55e 0d37 c811 cd35 4bda b531
000002a0: 9110 ec36 ff0e 0834 6a93 ed36 e304 b433
000002b0: e8c1 f236 89fd 9a35 54f2 6a31 e00d 6f3a
000002c0: ea77 0036 e0f2 6f3a 2401 cc35 7814 723a
000002d0: f437 7a36 028b 1a35 0000 0000 0000 0000
000002e0: 0000 0000 0000 0000 0000 0000 0000 0000
000002f0: 0000 0000 825b b037 e171 7a35 dc3b b137
00000300: 4619 eb34 c52f b437 8bf4 2535 f942 df32
00000310: 2ae0 c136 67aa c534 c3e8 ba36 7e15 5f34
00000320: 35e9 0a37 8fbc 9735 e459 ab2f e58d be36
00000330: 844c 9f34 eaf0 bc36 9f1d 3534 3bf4 fb36
00000340: 657d ab35 e891 2c2f bc03 1737 dc13 5331
00000350: 8bcc 1637 1ead 3131 f871 2637 bc8d 9231
00000360: 2453 cf30 3a4a 1537 eeb7 1a33 e3a5 1537
00000370: ef40 3133 22b9 1737 f727 da33 4069 d831
00000380: 7729 8a39 1d5a e435 a720 8b39 434d 8835
00000390: 385a 8c39 b6f6 4436 9a6b 3934 6433 573a
000003a0: 7b95 8835 fd70 583a c905 7835 9d9b 5a3a
000003b0: be0f bb35 bc7e 1935 175c 8f36 243b 8434
000003c0: 3e1d 8d36 6506 1234 3c17 c736 d369 7935
000003d0: 1806 012f 261b a838 396e 0337 7b65 a838
000003e0: c2a6 8c36 806c ab38 83dc b536 8426 ca33
000003f0: b6b2 4c32 b7e2 a833 c535 3e32 0711 2c33
7.2210255e-06 7.871143e-09 7.25107e-06 8.1995255e-09 7.3616334e-06 1.2460596e-08 3.577645e-09 0.0
0.0 0.0 0.0 0.0 0.0 0.0 0.0002554684 3.9026304e-07
0.00025707547 3.4440882e-07 0.00026042754 4.845912e-07 2.1888044e-07 2.0930193e-08 2.1671705e-07 1.942207e-08
1.2561085e-07 2.6148951e-08 5.169255e-07 3.5498625e-13 6.071804e-09 3.4168585e-07 5.8467955e-09 1.6310942e-07
9.42961e-09 2.2081174e-07 2.3660493e-13 3.0242392e-05 6.511641e-08 3.0238773e-05 6.916046e-08 3.0750874e-05
9.315257e-08 3.7011578e-08 1.6959762e-05 3.9772797e-08 1.7003615e-05 4.2468177e-08 1.7320635e-05 5.7026355e-08
2.27248e-08 1.11764975e-05 8.82437e-08 1.09126395e-05 6.2954335e-08 1.3136104e-05 7.679153e-08 3.506054e-09
0.00050608336 1.5119717e-06 0.0005094122 1.8076802e-06 0.0005147086 2.0946686e-06 3.7835565e-07 0.00033034015
8.9541976e-07 0.00033057193 6.65263e-07 0.00033465598 3.1799711e-06 2.1820483e-07 6.135863e-05 5.1363645e-07
6.153311e-05 6.6831046e-07 6.251912e-05 7.67603e-07 7.4293105e-08 0.0 0.0 0.0
0.0 0.0 0.0 0.0 0.00016669565 9.2501307e-07 0.00016723856 1.2308816e-06
0.00016941402 1.2681953e-06 1.5932301e-07 1.705978e-05 8.924387e-09 1.6838452e-05 8.871551e-09 1.9616919e-05
1.3672303e-08 4.3245643e-09 0.00079955853 2.2931365e-06 0.0008017986 1.582294e-06 0.0008126259 3.2062214e-06
4.948579e-07 4.055407e-06 3.4149957e-07 4.0695904e-06 2.0308953e-07 4.3119126e-06 2.476506e-07 3.453092e-10
1.2781658e-05 2.1112619e-07 1.289849e-05 1.2079387e-07 1.3123818e-05 9.70939e-07 7.4855215e-09 3.7485863e-06
1.6790175e-07 3.6989506e-06 9.864404e-08 4.551713e-06 9.749413e-07 4.2910261e-10 6.1106147e-09 2.8405998e-07
5.8064824e-09 2.0721501e-07 9.015134e-09 2.3053259e-07 2.1160946e-13 4.458151e-06 8.08401e-08 4.3286987e-06
5.103842e-08 5.6577733e-06 2.4827837e-06 1.2379826e-10 4.561311e-06 1.3496576e-07 4.581322e-06 1.029277e-07
4.62575e-06 1.1562193e-07 2.4948963e-09 5.192775e-06 4.503723e-09 5.1834227e-06 4.5299244e-09 5.587898e-06
4.393449e-07 2.171231e-09 5.091616e-06 5.9227432e-08 5.1110524e-06 4.50597e-08 5.165659e-06 5.9613546e-07
2.4875704e-09 8.010856e-06 5.584287e-07 8.041301e-06 3.0416973e-07 8.426291e-06 1.5278865e-06 5.2926103e-09
7.0352767e-06 1.2671443e-07 7.0803117e-06 8.382792e-08 7.2347357e-06 1.1547683e-06 3.418923e-09 0.0009119194
1.9143285e-06 0.00091533177 1.5199516e-06 0.00092346175 3.7285472e-06 5.7571754e-07 0.0 0.0
0.0 0.0 0.0 0.0 0.0 2.1023447e-05 9.3297973e-07 2.1127918e-05
4.379055e-07 2.1479917e-05 6.1823147e-07 2.5991072e-08 5.7779444e-06 3.6818093e-07 5.570329e-06 2.0776312e-07
8.279739e-06 1.1305254e-06 3.116859e-10 5.67896e-06 2.967173e-07 5.6308827e-06 1.6867715e-07 7.508815e-06
1.2776987e-06 1.5695145e-10 9.001171e-06 3.071583e-09 8.988321e-06 2.5855296e-09 9.920906e-06 4.2652726e-09
1.5084862e-09 8.898374e-06 3.6023202e-08 8.919716e-06 4.127008e-08 9.043406e-06 1.01586856e-07 6.298393e-09
0.00026352305 1.701355e-06 0.00026536474 1.0155276e-06 0.000267701 2.934988e-06 1.7268613e-07 0.0008209257
1.0176294e-06 0.00082565827 9.239562e-07 0.0008339228 1.3937167e-06 5.7181364e-07 4.2724528e-06 2.4629946e-07
4.2055317e-06 1.3599636e-07 5.933367e-06 9.2913723e-07 1.1734647e-10 8.015921e-05 7.833872e-06 8.0297665e-05
4.1917383e-06 8.174125e-05 5.4198913e-06 9.413364e-08 1.1914997e-08 7.864349e-08 1.1071681e-08 4.0062357e-08

exp_avg f4 [64]
00000000: 1a5d a6bb 0000 0000 c0c6 493a 3d4e 3a35
00000010: 9f99 84b4 48db 2e3c ba2f 5f3c 2303 64bb
00000020: d2ea 83bc d26f 633b 29d9 1a3c 0000 0000
00000030: 7cf2 993c f18a 27bb c68b 3abc c0fa 6938
00000040: 7bef b1ba eacb 123a ead4 e4b3 c44a 2f3a
00000050: 1ab6 84ba 40d3 82ba 0bcc 7fba 2ffe 89bb
00000060: 0599 3dbb 8054 6dba 0000 0000 990f 4c3c
00000070: b6dc ea38 2231 393a e597 023a bc51 e739
00000080: 2aa1 94b9 b082 573a 6686 d839 7aab 773c
00000090: b5c4 f4b3 aa98 6c39 599f 0d3b f2bb 8d3c
000000a0: 449e 98bb 790f 7fbb d737 083c 707b 94bb
000000b0: e149 4c3c bcd6 1b3c d48e e0bc 96f0 0b3c
000000c0: 38a2 023b e3d3 cabc d09b 083a 1565 31bc
000000d0: 0cea 163a 0450 bc39 a690 373c 75fd 22bb
000000e0: 0fd0 20bb 5892 183c 1e58 1039 c1e6 ffb4
000000f0: 0000 0000 047a 32bc d006 a3bc 1900 3636
-0.0050770165 0.0 0.00076971576 6.940425e-07 -2.469869e-07 0.010672398 0.013622219 -0.0034791909
-0.016103182 0.0034704101 0.009451189 0.0 0.018792383 -0.0025564993 -0.011385864 5.5785058e-05
-0.0013575399 0.00055998436 -1.0655806e-07 0.0006686861 -0.0010125071 -0.000998117 -0.0009757883 -0.0042112092
-0.0028930318 -0.0009053424 0.0 0.012454891 0.000111991 0.00070645113 0.00049817405 0.0004412065
-0.00028348836 0.0008221073 0.00041298865 0.015116567 -1.1397916e-07 0.00022563586 0.0021609871 0.017301533
-0.0046575386 -0.0038919135 0.0083140945 -0.0045313165 0.012468786 0.009511646 -0.027411856 0.008541247
0.0019933116 -0.024759239 0.0005211206 -0.0108273225 0.00057569216 0.0003591777 0.0112039205 -0.002487031
-0.0024538075 0.009312235 0.00013765736 -4.7665347e-07 0.0 -0.010893349 -0.01990071 2.712017e-06

exp_avg_sq f4 [64]
00000000: 9bb5 5439 0000 0000 62c1 d43b ad38 1233
00000010: 530a 2c32 b5ad b33a 630e 4b3a 21b2 6239
00000020: 12b2 363c 1dcc d93b 87c1 153b 0000 0000
00000030: 1227 973b 3d9c 7339 fdda 893c 4ace 9337
00000040: 456b a739 c8d5 b737 6ca7 3732 9095 fa36
00000050: 4238 0f39 3a09 f238 1e28 1a39 ed9a 5d39
00000060: c708 3939 55ee 9b3c 0000 0000 1333 543a
00000070: 15fe a137 bb21 3937 db63 8c38 120f 8d39
00000080: ca28 b33b fee6 8e3c a3fa ef36 da29 4d3b
00000090: 5e5f 8f32 f07a 0637 3c91 473a 7bc5 b53b
000000a0: d90e 0239 62e6 f038 5240 483c bd76 5539
000000b0: 7964 953c c432 8c3b d383 893c 363c c43c
000000c0: 9558 923c c6fd 463c 9bd5 3637 643b 853a
000000d0: d7ba 4938 f0ff 8e37 8689 213b 7ac8 1d39
000000e0: 74c9 6f39 60e8 223a a397 2637 6205 5c34
000000f0: 0000 0000 0ca1 8b3c 58d8 893c 913a 3934
0.00020285549 0.0 0.0064927796 3.404482e-08 1.0014065e-08 0.0013708385 0.0007745979 0.00021619398
0.011150854 0.0066466467 0.0022850947 0.0 0.004612812 0.00023232489 0.016828055 1.7619826e-05
0.00031932644 2.191485e-05 1.0690069e-08 7.467992e-06 0.000136585 0.00011541178 0.0001470153 0.00021133917
0.00017646245 0.019034544 0.0 0.0008094769 1.9311012e-05 1.1034713e-05 6.69432e-05 0.00026904844
0.005467509 0.01744413 7.151933e-06 0.0031305463 1.6690759e-08 8.015646e-06 0.0007612889 0.005547223
0.00012403297 0.00011487004 0.012222366 0.00020357496 0.018236386 0.0042785127 0.016786491 0.023954492
0.017864505 0.012145465 1.0897779e-05 0.0010164795 4.8096143e-05 1.70469e-05 0.002464862 0.0001504737
0.00022867863 0.0006214436 9.929677e-06 2.0491055e-07 0.0 0.017044567 0.016826794 1.7250774e-07

exp_avg f4 [32, 64]
00000000: 3b3d 8c37 0000 0000 6a85 c610 2046 02b4
00000010: 54c6 b5b3 0400 0000 0400 0000 22ea 9737
00000020: f309 5730 2a90 f639 f7b2 f831 0000 0000
00000030: 06cb 6331 7b85 8638 0942 8239 dd54 cd39
00000040: af0e eb38 5c1c e739 1a51 9b32 22c0 5139
00000050: bfa6 8c38 94d7 cab8 aa2b 1938 bc0b 1a3a
00000060: 8cbb 9e38 06c9 da39 0000 0000 a6a3 6fb1
00000070: 10b8 2e39 ee3c e639 c272 6539 7b96 8936
00000080: 697e f539 0400 0000 0009 3139 318c 46b2
00000090: 641c 4fb3 fedd 6a39 10fe d239 0400 0000
000000a0: b64c a038 2829 2039 1618 f139 4411 78b6
000000b0: 368b a239 f5eb 3d10 0ba4 df39 ce3c 123a
000000c0: 7a09 523a 0af4 3d3a a2d4 5a39 7aaa 5839
000000d0: ca97 8a39 d84f 7b39 0400 0000 7012 2e39
000000e0: 6ea5 cc38 d321 092f ee19 f039 1811 3f32
000000f0: 0000 0000 803d 1e3a a800 5d39 38bf 03b5
00000100: bca2 4fba 0000 0000 c8cc e9b8 0013 caa0
00000110: 9044 cea0 0081 f2b9 f28a 87b9 3a6c 1fba
00000120: 9a0b bab8 4a42 8bb9 3a20 89b9 0000 0000
00000130: ea1a f4b8 ba79 96b9 2d5c f6b9 dded 5fb9
00000140: 5c10 4ab9 c588 6ab9 0eb2 64a0 ef53 e3b8
00000150: b01f 05ba 2d33 4bba 3d7c 86ba af50 bcb9
00000160: 08d2 1bba e642 a2b9 0000 0000 1e30 8eb9
00000170: 6a42 c1b8 f357 31b9 50f7 07b9 6108 4eb9
00000180: a139 03ba 7669 15b8 d2b3 d2b8 da95 92b9
00000190: 6f87 0fa1 b2ed aeb8 6ed8 56b9 16c7 c9b8
000001a0: 3a90 a3ba 36bb a7ba 3de0 37b9 bb1f c6b9
000001b0: 4aef 77b9 6412 a1b8 f361 87b9 d47b 8fb9
000001c0: fc30 86b9 0cc5 a7b9 ba48 05b8 3627 b9b8
000001d0: b35f f1b8 b09f 21b9 5eb4 a7b9 95f3 1eba
000001e0: d03f b1b9 f45e c5b9 328d 6ab9 a6b2 8404
000001f0: 0000 0000 5d91 87b9 2dd9 c238 0400 0080
00000200: cee3 bbba 0000 0000 a980 c2b9 0400 0000
00000210: 0400 0000 8f84 f2ba 4889 07b9 6ac6 0eba
00000220: cb37 beb8 0a09 16b9 2a46 aeba 0000 0000
00000230: 864d 103a 47fc 2bbb 3747 9db9 0400 0000
00000240: bae3 0fba 0400 0000 0400 0000 0400 0000
00000250: 283e 1e39 4900 cbba a0bf 3e39 2ff5 bf39
00000260: de82 02bb bb7c a5b9 0000 0000 5878 18b9
00000270: 0400 0000 0400 0000 0400 0000 00b9 78b6
00000280: cd12 1db9 e936 48b9 0400 0000 b754 9eb9
00000290: 0400 0000 0400 0000 94d8 2eb9 5da6 34b8
000002a0: 74b4 50bb 4055 c33a c8ec 7db8 fc5f 06bb
000002b0: 94f1 25b9 be9f 5fb9 860f 55b8 f742 a2b9
000002c0: 5e4b 9bb9 2405 e1b7 0000 0000 c461 6c36
000002d0: 0400 0000 0400 0000 acc2 99b9 04b0 73ba
000002e0: ee35 45bb 878e 3c3a 0400 0000 0400 0000
000002f0: 0000 0000 9883 2f37 b401 8bb8 0400 0000
00000300: 2b7b ac38 0000 0000 36cd cf10 819a 3d33
00000310: 15fc 1530 0400 0000 0400 0000 4a75 0039
00000320: a188 e62c 96aa 133a 7495 d02e 0000 0000
00000330: aca7 132e 1292 0139 a00d e339 6889 ae39
00000340: 85dc 1d39 209e cd39 979e 742f 8809 1a39
00000350: 81b8 a538 42c9 7438 c3e4 df38 0a2c 223a
00000360: 210b 2839 4524 043a 0000 0000 ffed 1727
00000370: 59e7 1d39 d68c b539 6cc0 5039 7df5 2637
00000380: 8abe 163a 0400 0000 e01c 0d39 ca9a c42e
00000390: 52a8 2cad 2a10 3239 7481 e739 0400 0000
000003a0: 068f 5839 686d 7239 4bef d339 ddbe 0739
000003b0: a2d7 bc39 f8f1 1410 756f ef39 3acd 033a
000003c0: c3da 4e3a e471 4f3a ea1d 3139 ee08 4b39
000003d0: a34a 6139 92b4 3139 0400 0000 4d0c 9339
000003e0: add2 2539 1355 38b4 d125 b639 6a18 892f
000003f0: 0000 0000 2023 2a3a ef36 063a 6ad7 8134
1.6717813e-05 0.0 7.8302787e-29 -1.2132705e-07 -8.464545e-08 6e-45 6e-45 1.810963e-05
7.8230683e-10 0.00047028187 7.238096e-09 0.0 3.3148253e-09 6.4144806e-05 0.00024844732 0.00039163875
0.00011208408 0.00044080883 1.8081256e-08 0.00020003368 6.706779e-05 -9.672265e-05 3.6518708e-05 0.00058763823
7.5689604e-05 0.00041729974 0.0 -3.48721e-09 0.00016662502 0.00043914415 0.00021881892 4.1004364e-06
0.00046824224 6e-45 0.00016883388 -1.1556993e-08 -4.8221764e-08 0.00022398678 0.00040243613 6e-45
7.643683e-05 0.00015274121 0.00045985047 -3.696493e-06 0.00031002768 3.7455452e-29 0.00042656096 0.00055785186
0.00080122764 0.00072461425 0.00020869312 0.00020662873 0.00026434503 0.0002396697 6e-45 0.00016600802
9.758292e-05 1.2472094e-10 0.00045795686 1.112155e-08 0.0 0.0006036386 0.00021076447 -4.907956e-07
-0.00079206727 0.0 -0.00011148449 -3.4232704e-19 -3.4943128e-19 -0.0004625395 -0.0002585273 -0.00060814957
-8.871332e-05 -0.00026561535 -0.00026154687 0.0 -0.0001163984 -0.00028700923 -0.00046989453 -0.00021355548
-0.00019270316 -0.0002236693 -1.9371265e-19 -0.00010839837 -0.0005078269 -0.0007751461 -0.0010260415 -0.00035918268
-0.0005944078 -0.0003094889 0.0 -0.000271202 -9.215328e-05 -0.00016912799 -0.00012966734 -0.00019648812
-0.0005005841 -3.5622586e-05 -0.000100470745 -0.00027958938 -4.862953e-19 -8.341241e-05 -0.00020489257 -9.6215095e-05
-0.0012478896 -0.0012796882 -0.00017535775 -0.00037789144 -0.00023644898 -7.680504e-05 -0.00025822184 -0.00027367345
-0.00025594968 -0.00031999534 -3.1777403e-05 -8.828791e-05 -0.00011509601 -0.00015413645 -0.00031987106 -0.0006063518
-0.00033807615 -0.00037645514 -0.00022368578 3.1197114e-36 0.0 -0.0002585751 9.291093e-05 -6e-45
-0.0014334859 0.0 -0.00037098423 6e-45 6e-45 -0.001850264 -0.00012925745 -0.0005446436
-9.070298e-05 -0.00014308482 -0.0013296057 0.0 0.0005504716 -0.0026242898 -0.00029998433 6e-45
-0.0005488951 6e-45 6e-45 6e-45 0.00015091209 -0.0015487756 0.00018191198 0.00036613035
-0.0019914429 -0.00031564184 0.0 -0.00014540681 6e-45 6e-45 6e-45 -3.7062564e-06
-0.0001497969 -0.00019093942 6e-45 -0.00030199226 6e-45 6e-45 -0.00016674615 -4.3070282e-05
-0.003184584 0.0014902726 -6.054042e-05 -0.0020503988 -0.00015825621 -0.00021326446 -5.0797615e-05 -0.0003094894
-0.00029620057 -2.6824484e-05 0.0 3.5223648e-06 6e-45 6e-45 -0.00029327476 -0.0009295943
-0.003009196 0.0007192869 6e-45 6e-45 0.0 1.0461452e-05 -6.628354e-05 6e-45
8.224541e-05 0.0 8.196328e-29 4.4145512e-08 5.4564114e-10 6e-45 6e-45 0.00012250725
6.552162e-12 0.0005633024 9.485293e-11 0.0 3.3572853e-11 0.00012356814 0.00043306965 0.00033290242
0.00015054837 0.0003921846 2.2248013e-10 0.00014690135 7.90218e-05 5.836157e-05 0.00010676079 0.0006186372
0.00016025874 0.0005040805 0.0 2.1084478e-15 0.0001505887 0.0003462794 0.00019908109 9.951528e-06
0.00057504384 6e-45 0.00013457565 8.940544e-11 -9.814443e-12 0.00016981424 0.00044156204 6e-45
0.00020652646 0.00023119675 0.00040423343 0.00012945705 0.00036018813 2.937426e-29 0.00045668674 0.00050278346
0.00078908744 0.00079133944 0.00016891179 0.00019362915 0.00021485476 0.00016947303 6e-45 0.0002804719
0.00015814109 -1.7167285e-07 0.0003474192 2.4937502e-10 0.0 0.00064902194 0.000511988 2.4184857e-07

exp_avg_sq f4 [32, 64]
00000000: 95e4 7135 0000 0000 9747 942e 52ad b933
00000010: 0de9 9d33 7bcd ff2f 2ef9 8e30 5e28 ac35
00000020: c297 9831 09a7 6837 9fcb 0b32 0000 0000
00000030: 44b1 ce30 be0c c735 baaf 1c37 4538 1036
00000040: 3325 9435 06ad 2836 3a75 cd32 d1b9 3f35
00000050: 9ea4 3b35 92c2 3936 794b 0036 5a07 d136
00000060: 556a d035 6e2e e436 0000 0000 00e9 0631
00000070: 3933 2835 dac2 be35 0515 6835 7b63 5a33
00000080: b52a 1f37 b31e 3c2e 1e21 5535 0c0e 5c32
00000090: 9950 7a34 7d08 5a35 1978 aa36 ffe3 932d
000000a0: 0450 6736 6ed3 7d36 0fd3 9f36 7f51 db35
000000b0: 3b1b aa36 ffb5 6930 63cf c836 167a 0437
000000c0: 55e8 ee36 7bc0 8e37 fa80 ae34 caac b535
000000d0: 841e 6835 e785 a435 4694 2131 b638 6e36
000000e0: c2ea 7036 df5f 6731 573c fe35 b5da fb33
000000f0: 0000 0000 4b0a d636 ab65 1e37 e454 2234
00000100: 2459 9b37 0000 0000 49a7 ae34 9741 cd32
00000110: 94cd b532 b00f 4b36 2ef0 8b36 ea40 0137
00000120: e5a8 2b34 aa48 5e37 52ef c935 0000 0000
00000130: 5243 de34 8da7 0637 2fae 0737 fe54 d535
00000140: 61b4 b135 e951 1036 75f6 7431 9d37 0635
00000150: 1707 b737 4ac7 7437 762c 1a38 3889 0c37
00000160: 1a0e 9037 abfb e736 0000 0000 2d41 5836
00000170: 5b4b 1635 79a7 7435 dcec 2735 4620 e636
00000180: b1e8 0437 cefa 0734 19eb ef34 771b 8835
00000190: c5f2 af33 64df a434 217d 9936 1c98 b234
000001a0: 40ea 8037 071f ae37 8525 9236 8a9b 1137
000001b0: 5a0a a136 0920 2835 2ea0 a936 da8a dc36
000001c0: 050e ca36 c7ef 8537 4816 3834 ce5d 9035
000001d0: 4a0b 2335 0692 6a35 0a47 a635 448a b037
000001e0: ea9b a437 2e65 9536 54ee 9535 2a45 6b33
000001f0: 0000 0000 f266 af36 846c 1737 0460 4c33
00000200: aba1 503a 0000 0000 f5f8 af37 6894 b530
00000210: 0865 8f30 a009 2f39 4bc9 7439 34ef 8c39
00000220: 5c48 3437 9741 2a36 4834 bb38 0000 0000
00000230: 62eb e237 bb43 8c39 60aa 9335 b755 c230
00000240: 6e7d 9837 1e7f 0931 38a1 9e2e 9ae8 7430
00000250: 69ca 7c3a 46ba 043a 025e cd3a 1136 5e38
00000260: d6cb 373a aa23 6d35 0000 0000 d2d0 3a39
00000270: 7d97 6e2d 9313 c930 254f 192e 3e81 a939
00000280: 81f1 f135 bf31 0e37 28c3 5d31 97ef 8138
00000290: d730 8131 6d76 1c2d 6968 f535 77b1 bb37
000002a0: 2eb2 f739 8595 383a af15 f334 c43d 9e39
000002b0: 59a2 3c35 5dff 2438 5300 3635 05f0 9e35
000002c0: 286b 7935 46a5 1136 0000 0000 8531 bd33
000002d0: 4900 d52f 16f3 8e30 e0a2 a538 32a3 3c3a
000002e0: 5648 303a 861d 7e39 07f9 5c30 ac48 9b2e
000002f0: 0000 0000 b013 3535 f198 9e35 a823 322c
00000300: f5c1 ed34 0000 0000 fa22 3a30 a74b 8c33
00000310: 09ef 6e33 66f0 e730 5491 3231 274c 3335
00000320: efed 3a31 b9a2 2f37 fdcd 8f31 0000 0000
00000330: 1bc5 b830 4dc9 6035 d7cd eb36 ae75 ea35
00000340: ecd9 5c35 ca8f 2736 5e76 a732 5ba5 2935
00000350: 7573 b634 f662 cd35 bd01 7835 06c7 8b36
00000360: 9337 4c35 ef5f b236 0000 0000 7401 0331
00000370: 9433 1635 13c2 9c35 fc97 3b35 de7c d832
00000380: a3df f836 2629 1a30 d4de 2c35 27aa eb31
00000390: 6d01 4534 eb7a 3235 6b1e 8236 b571 2930
000003a0: c161 0a36 54df 1536 b97b 7136 9b7e 7035
000003b0: db0a 8136 1660 9d30 77bd 9b36 55f9 bf36
000003c0: c592 ae36 c035 5537 68ca 6634 c298 9835
000003d0: ff15 3a35 388f 8935 19d1 1031 dde0 0c36
000003e0: b343 0636 4449 0631 0431 d735 4146 e533
000003f0: 0000 0000 46a5 9c36 087a ee36 11fc 3134
9.0112127e-07 0.0 6.742978e-11 8.6462606e-08 7.353274e-08 4.6530232e-10 1.0402681e-09 1.2826747e-06
4.441035e-09 1.38671685e-05 8.137163e-09 0.0 1.5038855e-09 1.4830364e-06 9.339239e-06 2.1490425e-06
1.1037686e-06 2.5134664e-06 2.391845e-08 7.1423443e-07 6.990248e-07 2.7680403e-06 1.9117417e-06 6.229541e-06
1.5528154e-06 6.8003346e-06 0.0 1.9632012e-09 6.2659416e-07 1.4212812e-06 8.645732e-07 5.0847557e-08
9.487082e-06 4.2773517e-11 7.9396875e-07 1.2808879e-08 2.3312386e-07 8.122368e-07 5.080376e-06 1.6813216e-11
3.4468258e-06 3.7823006e-06 4.7631397e-06 1.634049e-06 5.069565e-06 8.502354e-10 5.9846075e-06 7.8962385e-06
7.1199997e-06 1.701735e-05 3.2503868e-07 1.3535839e-06 8.647114e-07 1.2257923e-06 2.3512867e-09 3.5497774e-06
3.5899434e-06 3.366942e-09 1.8942036e-06 1.1727881e-07 0.0 6.3788953e-06 9.441205e-06 1.5118309e-07
1.851895e-05 0.0 3.2531742e-07 2.3894968e-08 2.116466e-08 3.0258489e-06 4.1704834e-06 7.704113e-06
1.598706e-07 1.324915e-05 1.5045318e-06 0.0 4.1399704e-07 8.026033e-06 8.087182e-06 1.5894473e-06
1.3240025e-06 2.150535e-06 3.5646768e-09 4.999982e-07 2.1818601e-05 1.4589934e-05 3.675787e-05 8.376599e-06
1.7172704e-05 6.9136345e-06 0.0 3.2224445e-06 5.598901e-07 9.114079e-07 6.2557024e-07 6.8582913e-06
7.921991e-06 1.2664097e-07 4.4688275e-07 1.0140783e-06 8.193232e-08 3.0709919e-07 4.5743222e-06 3.3265758e-07
1.536787e-05 2.0756865e-05 4.355507e-06 8.678888e-06 4.799379e-06 6.2631494e-07 5.05524e-06 6.5726754e-06
6.021701e-06 1.596649e-05 1.7144441e-07 1.0756137e-06 6.073866e-07 8.7384285e-07 1.2388639e-06 2.104522e-05
1.9622927e-05 4.452325e-06 1.1170728e-06 5.4778106e-08 0.0 5.227391e-06 9.025567e-06 4.7584777e-08
0.0007958661 0.0 2.0977555e-05 1.3211663e-09 1.0433334e-09 0.00016692886 0.00023344641 0.000268811
1.07456835e-05 2.5370152e-06 8.926593e-05 0.0 2.7050908e-05 0.00026753344 1.1001939e-06 1.4139719e-09
1.817822e-05 2.0008382e-09 7.213646e-11 8.909723e-10 0.00096431986 0.00050631573 0.0015668275 5.2979278e-05
0.000701127 8.834128e-07 0.0 0.00017816134 1.3562371e-11 1.4630238e-09 3.4858467e-11 0.00032330485
1.8026186e-06 8.475442e-06 3.2270666e-09 6.1958264e-05 3.7599466e-09 8.893869e-12 1.828431e-06 2.2374776e-05
0.00047244265 0.0007041323 4.5278054e-07 0.00030182127 7.0271705e-07 3.9338473e-05 6.7800755e-07 1.1841772e-06
9.291566e-07 2.1702886e-06 0.0 8.810006e-08 3.8744677e-10 1.0400949e-09 7.898151e-05 0.0007195949
0.0006724646 0.00024234326 8.0389423e-10 7.061493e-11 0.0 6.7456403e-07 1.1816429e-06 2.5315115e-12
4.4285812e-07 0.0 6.771611e-10 6.533019e-08 5.5631094e-08 1.6875787e-09 2.5985019e-09 6.679351e-07
2.7201812e-09 1.04687e-05 4.185266e-09 0.0 1.3443783e-09 8.3739434e-07 7.0275087e-06 1.7468608e-06
8.2273505e-07 2.4968635e-06 1.9495186e-08 6.319803e-07 3.3984148e-07 1.5302492e-06 9.238973e-07 4.165692e-06
7.6076793e-07 5.3159815e-06 0.0 1.9063835e-09 5.595441e-07 1.1679389e-06 6.9884095e-07 2.5202493e-08
7.4170107e-06 5.608335e-10 6.439925e-07 6.8587442e-09 1.8347573e-07 6.6489036e-07 3.877843e-06 6.164343e-10
2.0620503e-06 2.2332724e-06 3.5983815e-06 8.95912e-07 3.8457633e-06 1.1450563e-09 4.6414166e-06 5.7212696e-06
5.2026903e-06 1.2708304e-05 2.1494054e-07 1.1369341e-06 6.932241e-07 1.0248978e-06 2.1073616e-09 2.0992513e-06
2.0006962e-06 1.9541213e-09 1.6033014e-06 1.06764226e-07 0.0 4.6684027e-06 7.107159e-06 1.6576111e-07

exp_avg f4 [32]
00000000: 5a64 db39 eccf f4ba 3b4c bebb 6528 2a3a
00000010: 2c31 5cb9 2596 2d3b fd3d a1bb cea9 ebbb
00000020: b7b8 5cbc 6c4b febb bc63 a3ba fab8 20bc
00000030: e01e 22bc 5245 2dbc 236b 51ba 94f8 9931
00000040: 33dc a9ba 83c6 00bc 8068 9936 2fe7 d3ba
00000050: c56f 2d3c ef77 13bc c0aa d1ba 0400 0000
00000060: 3621 cbb8 7ead aeba 1d77 81ba 464b 31bc
00000070: b4e6 deba a1ce 04bc 0400 0000 47e3 0eb9
0.00041845703 -0.0018677688 -0.005807427 0.00064910046 -0.00020999153 0.0026487198 -0.0049207197 -0.007191873
-0.013471774 -0.007760456 -0.0012465636 -0.009809727 -0.0098950565 -0.010575609 -0.0007988682 4.481146e-09
-0.0012959301 -0.007859829 4.5719207e-06 -0.001616692 0.01058573 -0.009000762 -0.0015996322 6e-45
-9.68598e-05 -0.0013326851 -0.0009877417 -0.010821169 -0.0017006011 -0.008105905 6e-45 -0.00013626843

exp_avg_sq f4 [32]
00000000: 617a 9b37 e707 ca38 11a7 3d3b 1bc7 3037
00000010: d3b2 6c36 ceb3 c73a 4697 363b d65a 713a
00000020: d0c4 9d3a 085e 293a a638 a638 2198 873b
00000030: fcb4 273a b87f 383b 78fe 043a 2c11 2c32
00000040: db36 8038 6427 353a c6f0 7b35 3671 a338
00000050: df18 733b a912 4a3a 7c5e 443a 848a 672d
00000060: 9b57 a535 ba1a b438 fff7 ad38 666e b43a
00000070: 1f61 9638 7e4c a23a cab9 0831 29d2 9736
1.8534427e-05 9.6335825e-05 0.002893869 1.0536775e-05 3.527083e-06 0.0015236081 0.0027861162 0.0009206956
0.0012036804 0.000646085 7.9260484e-05 0.004138008 0.0006397513 0.0028152298 0.0005073319 1.0015622e-08
6.113733e-05 0.0006910472 9.385516e-07 7.793533e-05 0.0037093682 0.0007708469 0.0007490886 1.3161586e-11
1.2318955e-06 8.588047e-05 8.295476e-05 0.0013765811 7.1706476e-05 0.0012382416 1.9896214e-09 4.5246165e-06

exp_avg f4 [1, 32]
00000000: de7b 9fba 7c18 e13c d67c 8eba fe8c a83a
00000010: 8009 14b7 8029 16b9 46e9 54bb 8ec5 963b
00000020: 8cc2 953a 147e 553b 60b7 893d acd0 04ba
00000030: 0096 6db8 e247 0fbc 1c06 a7b9 75ab 0c35
00000040: 5e9d 873d 383f 583a 1810 d839 08aa 833d
00000050: 7c89 9e3b 3023 e43b 8fb2 313b 0400 0000
00000060: a01f 2b37 7788 023d bce5 c33c 25ec f63a
00000070: 8059 7d3d 8eea 9e3b 0400 0080 96f8 103a
-0.0012167653 0.027477495 -0.0010870944 0.0012859402 -8.823699e-06 -0.00014320575 -0.0032487675 0.004601187
0.0011425777 0.003257637 0.06724429 -0.0005066495 -5.66449e-05 -0.008745166 -0.00031857274 5.2403567e-07
0.06621812 0.00082491664 0.0004121072 0.06428915 0.0048381668 0.0069622025 0.0027114486 6e-45
1.01997575e-05 0.031868424 0.023913257 0.0018838687 0.061852932 0.0048497384 -6e-45 0.0005530206

exp_avg_sq f4 [1, 32]
00000000: cb8b 9039 1384 a43d 7f71 673a d7bc c739
00000010: 7796 1037 ecf4 9f3a 4cbc 873a 8e82 fb3a
00000020: 7a90 993a c0eb 563b 7cd9 8c3d d3e8 2b3a
00000030: 82d0 313b b4d6 883a 6179 0b3b abf3 f134
00000040: 840d e23d 23ff 023b 7ad5 9f37 33b3 c23d
00000050: d5e2 153a 7d31 383b 46a7 563b 516b 212c
00000060: 248b 0f37 f755 043d c8f7 143d 1091 8b3a
00000070: c25b ea3d 2986 f03a c6c3 d12d 300d 173a
0.00027569974 0.08033004 0.0008828863 0.00038096934 8.618102e-06 0.001220373 0.00103558 0.0019188689
0.0011716031 0.0032794327 0.06877419 0.0006557826 0.0027132337 0.0010439963 0.0021282064 4.506704e-07
0.11037734 0.00199885 1.9053685e-05 0.09506836 0.00057176995 0.002810567 0.0032753511 2.2939049e-12
8.55586e-06 0.032308545 0.036369115 0.001064809 0.11443283 0.001835053 2.384749e-11 0.0005762158

exp_avg f4 [1, 32]
00000000: 58a4 353b 3585 d83b 65a1 a539 8c47 2f3b
00000010: f630 b939 2014 3e3a c54a c739 36b0 653b
00000020: f441 253b 53a1 413b f588 f83b 5c2b bf39
00000030: f650 683b dc57 003a 7b53 4b3b 70d5 44b4
00000040: ff18 153c 385b 4f3b 3b55 553a bc30 1a3c
00000050: 9118 1439 2812 df3a f588 f63a 0400 0000
00000060: 6667 e739 1308 da3b bc96 cf3b cc5e d53a
00000070: d0f3 243c de23 723a 0400 0000 6e8b 853b
0.0027716365 0.0066076764 0.000315915 0.0026745526 0.00035322428 0.00072509237 0.00038011945 0.0035047657
0.0025216313 0.002954562 0.007584686 0.00036462664 0.0035448647 0.00048959046 0.00310251 -1.833157e-07
0.009100198 0.0031640064 0.00081380055 0.009411033 0.00014123532 0.0017018961 0.0018809127 6e-45
0.0004413679 0.0066537946 0.0063351076 0.0016278862 0.010067895 0.0009236912 6e-45 0.004075459
