noisy_ablation_results_20250630_200319/models/noisy_baseline_medium_noise/best_model.pth (torch, 45218 bytes, 18 tensors)

layers.0.weight f4 [64, 7]
0.47266445 0.31327817 0.096124664 0.41688237 0.11486315 -0.010059351 -0.1609832 0.22190115
0.33305028 -0.27714375 0.32838365 0.07070416 0.27910188 0.05117023 0.49194616 -0.12814713
0.6081265 0.11524428 0.14598483 -0.08616174 -0.12577742 -0.05915548 -0.14402334 0.23966686
-0.30456126 -0.19267438 -0.19678603 -0.23809159 0.021739097 -0.38049448 0.32800293 -0.3398799
0.27940053 0.048224043 -0.17120576 0.5199875 0.0029536772 0.59266883 0.0979025 0.17552759
-0.10818835 -0.08082915 0.41781107 0.2947004 0.48111662 -0.12221884 0.482378 -0.11435076
0.22974107 -0.25405282 -0.32651302 -0.16831781 -0.26442188 0.34101015 0.1467107 0.11061406
0.42402658 0.08957598 0.6070005 -0.13565283 0.3402159 -0.17802763 0.16939762 -0.43882346
0.122827455 -0.39409187 0.1954523 -0.5271625 -0.22936137 -0.22535576 0.6196332 0.21019523
0.6480938 -0.22273883 -0.082661994 -0.20369422 -0.20878732 0.15302 0.13526914 0.31391826
-0.19511963 -0.2575212 0.20046887 -0.15270412 0.5515815 -0.06642062 0.5439763 -0.23063527
0.14214228 0.0709042 0.14942856 -0.089465186 0.36255753 0.2661143 -0.15887691 -0.14836113
0.54563236 -0.18329008 -0.37245393 -0.3891816 -0.4598147 0.032904297 -0.3251399 -0.3553727
0.0144176595 -0.3235461 -0.37170592 -0.27616066 -0.37323162 -0.35849065 0.35210925 0.06271987
0.047853578 -0.3579819 -0.3144781 -0.13048561 -0.011588796 -0.3607527 -0.15333778 -0.27788085
-0.040420726 -0.20231299 -0.064199485 -0.40710104 -0.406538 -0.22239356 -0.17993042 -0.3375736
0.26743317 -0.13397132 0.2774418 0.0659744 -0.35312608 0.13368379 -0.11917511 -0.28048125
-0.34038216 -0.5982766 -0.016537629 -0.032406233 0.22478005 -0.245227 0.35758552 -0.21651909
0.024149094 0.13247238 0.19154519 0.35805735 0.42958453 -0.24325675 0.0787012 -0.073336564
0.0009497403 -0.31381375 0.49970067 -0.22367747 0.3591542 0.19760045 0.28238177 -0.09144566
0.36500645 -0.12901525 0.0036601808 -0.5467508 0.09038446 -0.2615352 -0.26140344 0.28073698
0.16138665 -0.1521695 -0.11272907 0.03476985 0.3266972 0.0144012645 -0.21737547 -0.35285187
-0.27881846 -0.09648529 0.18362306 -0.5938026 0.03705802 0.1481243 0.06850067 -0.13453165
0.1972048 0.19855449 0.14126042 -0.06638104 -0.10005006 0.34507057 -0.15198854 0.19301566
0.2399351 0.6355098 -0.21909532 -0.037700284 -0.09479186 -0.084727585 -0.019997213 0.060044203
-0.5416196 -0.33074635 0.3367714 0.029073197 -0.080617145 -0.35600406 -0.27804887 -0.56038827
-0.28058785 0.13082677 0.12001853 0.22389959 -0.45909566 -0.17910354 -0.25001743 0.3155738
0.04571562 0.21031444 0.22926645 0.16789374 -0.17321447 0.5911034 -0.11006897 -0.043393362
-0.6241 0.20820427 0.025952054 0.06545627 -0.53416544 -0.4506176 -0.24410598 0.5506859
0.10023514 0.5972254 0.21793178 0.37636268 -0.17479676 -0.26477477 -0.39873514 -0.34963852
0.06854777 -0.17304039 -0.26007718 -0.3357289 -0.018251037 0.08070758 -0.14942788 0.47300652
-0.023255818 0.58388406 -0.08868733 -0.23917879 -0.08059347 -0.17277782 -0.12727141 -0.36551565
00000000: 1301 f23e ff65 a03e 02dd c43d 9b71 d53e
00000010: 5f3d eb3d facf 24bc c8d8 24be 0e3a 633e
00000020: 9185 aa3e c9e5 8dbe e721 a83e 58cd 903d
00000030: 71e6 8e3e e097 513d 5ee0 fb3e 0039 03be
00000040: 2eae 1b3f 3105 ec3d 0c7d 153e 9175 b0bd
00000050: cccb 00be 044d 72bd db7a 13be 3b6b 753e
00000060: 74ef 9bbe 6f4c 45be 4782 49be 48ce 73be
00000070: 3116 b23c 2cd0 c2be 00f0 a73e bd04 aebe
00000080: 960d 8f3e 9386 453d 9050 2fbe e71d 053f
00000090: 7b92 413b 25b9 173f 1b81 c83d 81bd 333e
000000a0: db91 ddbd c189 a5bd 55eb d53e f9e2 963e
000000b0: eb54 f63e df4d fabd 40fa f63e bb30 eabd
000000c0: 3e41 6b3e 3613 82be b72c a7be 815b 2cbe
000000d0: 4e62 87be e298 ae3e 543b 163e a089 e23d
000000e0: 031a d93e 9d73 b73d 6364 1b3f 93e8 0abe
000000f0: c730 ae3e e04c 36be 9276 2d3e 78ad e0be
00000100: f68c fb3d 69c6 c9be a624 483e 1ff4 06bf
00000110: b5dd 6abe a9c3 66be 48a0 1e3f 6b3d 573e
00000120: 7ae9 253f a615 64be b14a a9bd 3895 50be
00000130: 58cc 55be 46b1 1c3e fe83 0a3e e5b9 a03e
00000140: 71cd 47be d2d9 83be b647 4d3e 785e 1cbe
00000150: 7234 0d3f 8907 88bd 0842 0b3f a72b 6cbe
00000160: bf8d 113e 3936 913d cd03 193e 8639 b7bd
00000170: 24a1 b93e 2240 883e a1b0 22be fbeb 17be
00000180: 90ae 0b3f 65b0 3bbe 48b2 bebe d042 c7be
00000190: d56c ebbe a8c6 063d bd78 a6be 69f3 b5be
000001a0: 0c38 6c3c d6a7 a5be 3d50 bebe ee64 8dbe
000001b0: 3718 bfbe 168c b7be aa47 b43e 4673 803d
000001c0: 1d02 443d 6749 b7be 4603 a1be 059e 05be
000001d0: efde 3dbc 94b4 b8be 9404 1dbe 6646 8ebe
000001e0: 3490 25bd 232b 4fbe 057b 83bd 8c6f d0be
000001f0: c025 d0be 23bb 63be ae3f 38be 72d6 acbe
00000200: 00ed 883e c72f 09be da0c 8e3e 961d 873d
00000210: f1cc b4be 67e4 083e 1412 f4bd 3d9b 8fbe
00000220: 9246 aebe a828 19bf ec79 87bc 66bc 04bd
00000230: be2c 663e c91c 7bbe 7315 b73e 2eb7 5dbe
00000240: 52d4 c53c d7a6 073e 6c24 443e 4b53 b73e
00000250: 81f2 db3e 4c18 79be 182e a13d 7b31 96bd
00000260: fef7 783a 32ac a0be c4d8 ff3e b50b 65be
00000270: 0fe3 b73e c657 4a3e 5894 903e dd47 bbbd
00000280: 20e2 ba3e 931c 04be a5df 6f3b dcf7 0bbf
00000290: 7d1b b93d f1e7 85be acd6 85be c2bc 8f3e
000002a0: 8b42 253e 52d2 1bbe 80de e6bd d56a 0e3d
000002b0: db44 a73e 48f3 6b3c ad97 5ebe 00a9 b4be
000002c0: 4bc1 8ebe 149a c5bd af07 3c3e 7203 18bf
000002d0: 26ca 173d e6ad 173e 144a 8c3d aac2 09be
000002e0: 0ef0 493e de51 4b3e 92a6 103e c8f2 87bd
000002f0: 0ce7 ccbd 17ad b03e e2a2 1bbe e6a5 453e
00000300: 8cb1 753e c5b0 223f 865a 60be 9d6b 1abd
00000310: 3c22 c2bd a885 adbd 32d1 a3bc e9f0 753d
00000320: 95a7 0abf 9657 a9be 4d6d ac3e ea2a ee3c
00000330: 9a1a a5bd 2a46 b6be 6c5c 8ebe 9b75 0fbf
00000340: 36a9 8fbe 74f7 053e 46cc f53d ef45 653e
00000350: 960e ebbe eb66 37be 4902 80be e492 a13e
00000360: 4d40 3b3d ab5c 573e d3c4 6a3e 56ec 2b3e
00000370: 225f 31be 8d52 173f d76b e1bd 3dbd 31bd
00000380: 05c5 1fbf 8033 553e 6799 d43c f00d 863d
00000390: 11bf 08bf 5ab7 e6be ebf6 79be c0f9 0c3f
000003a0: 1548 cd3d c4e3 183f 8229 5f3e 9cb2 c03e
000003b0: ecfd 32be 8f90 87be 0327 ccbe d203 b3be
000003c0: c662 8c3d 8031 31be d628 85be a9e4 abbe
000003d0: 3383 95bc 044a a53d 9f03 19be e92d f23e
000003e0: fc82 bebc 6d79 153f b4a1 b5bd 49eb 74be
000003f0: 300e a5bd abec 30be 7053 02be de24 bbbe

layers.0.bias f4 [64]
0.31253707 -0.28845212 -0.16982222 -0.28318682 -0.29400086 -0.038342312 -0.023855543 0.24383292
-0.22801091 0.31859684 -0.085955285 -0.22296028 -0.18073831 0.27074304 0.2629191 -0.18695243
0.13532227 -0.03577778 -0.26111954 -0.101142414 0.3805126 0.3723705 0.4152115 0.25356105
0.34259927 0.23030713 -0.20789577 -0.0142632015 0.08889582 0.003726735 -0.05347388 0.073307015
0.2662579 -0.2746948 -0.13221583 -0.083885185 -0.16223657 -0.37310407 0.20139599 -0.17202066
0.3895008 0.44450897 0.18267457 0.27848554 0.19597302 -0.1769366 0.1924197 0.24419346
0.24606074 0.34351927 -0.23330796 -0.01778767 -0.11547111 -0.28786582 -0.17276321 0.4144626
0.40686545 0.08255003 -0.2272009 -0.09662339 -0.096689634 0.21880166 0.2554691 -0.045958564
00000000: dc04 a03e ffaf 93be e0e5 2dbe ddfd 90be
00000010: 4887 96be d40c 1dbd b36c c3bc 56af 793e
00000020: b17b 69be 201f a33e 5309 b0bd b34f 64be
00000030: 7713 39be d59e 8a3e 559d 863e 7570 3fbe
00000040: ec91 0a3e b98b 12bd 76b1 85be c123 cfbd
00000050: 8cd2 c23e 59a7 be3e 9a96 d43e c1d2 813e
00000060: 2c69 af3e a2d5 6b3e a1e2 54be 34b0 69bc
00000070: 030f b63d 3d3c 743b 6d07 5bbd fd21 963d
00000080: f552 883e cca4 8cbe 9663 07be ffcb abbd
00000090: 5821 26be 7f07 bfbe c03a 4e3e 2f26 30be
000000a0: a66c c73e ae96 e33e 0b0f 3b3e a895 8e3e
000000b0: 27ad 483e de2e 35be ab09 453e da0d 7a3e
000000c0: 59f7 7b3e c2e1 af3e 48e8 6ebe 73b7 91bc
000000d0: 1e7c ecbd 2663 93be d7e8 30be 7134 d43e
000000e0: ab50 d03e fd0f a93d 5aa7 68be 7ce2 c5bd
000000f0: 3705 c6bd 8b0d 603e d9cc 823e 0c3f 3cbd

layers.4.weight f4 [32, 64]
-0.02606883 -0.09532361 -0.06783989 -0.06693124 0.13720024 -0.122817785 0.087195046 -0.12074584
0.014471176 0.09396438 0.0075741974 0.07835886 0.12285932 -0.2321962 0.09600588 0.02087701
0.0061140833 0.009745063 0.06257755 -0.032915387 -0.04745043 0.017859276 0.053708084 -0.00680428
-0.18417363 0.05534154 -0.085086286 0.06220298 0.0011944292 0.040144853 -0.04017832 -0.00346912
0.14408687 0.037627988 0.09666701 0.1118648 0.1265389 -0.0089430725 -0.041608494 0.06304695
-0.091850504 -0.022904534 0.019015057 -0.17031425 0.11084419 0.03637116 0.14573799 0.16920288
0.14749289 0.17427245 0.12501402 -0.06404949 -0.062089987 -0.07468649 -0.08914012 -0.13804133
-0.1949126 -0.14925765 -0.079113044 -0.09779095 -0.16193911 0.099919215 0.1488806 0.008894826
0.16274491 0.06670876 -0.0064821923 -0.09558481 0.046190493 0.066745006 0.17611092 0.26309067
-0.026756246 0.13618937 0.018897552 -0.0017240178 0.018970067 0.27300972 0.03973375 0.017003434
-0.007213931 -0.13403206 -0.09704671 -0.2430511 0.15755963 0.098003775 0.24098574 0.1631854
0.105572335 0.042068683 -0.11826809 0.13992667 -0.31675372 -0.2718896 -0.21240124 0.20322081
0.15914659 0.15900348 -0.04028195 -0.0052235713 -0.13249297 -0.07224931 0.15544967 0.04686389
0.17034729 0.11599888 -0.07083244 0.31913882 -0.021871934 0.03565763 -0.1486572 -0.101981826
-0.01818856 -0.029834585 -0.22408542 -0.025204696 -0.3270759 -0.095314234 -0.0031044725 0.13889991
0.22943996 0.3094244 -0.16667554 -0.14490569 -0.16324002 -0.08152417 -0.15394935 -0.13589148
0.012248462 -0.11707406 0.2535914 0.059670564 -0.136992 -0.042412344 0.007665664 -0.016551215
0.248532 -0.3428896 0.1367655 -0.06983937 0.25182492 0.013482765 -0.4788018 0.054432806
-0.060426943 -0.11843238 -0.03465066 0.07003047 -0.06238125 -0.028434724 -0.11013834 -0.085002944
0.019375026 -0.55586 0.05363144 -0.029740937 -0.0070841904 -0.14066002 -0.07097013 0.020832578
-0.24486798 0.3635604 -0.11641675 0.17529564 -0.046659883 -0.04266918 -0.22977717 0.1428795
0.042448852 -0.018265573 -0.4444531 0.0072737504 -0.4943554 0.21768844 -0.5634172 -0.5668219
-0.6012942 -0.5524947 0.039388254 0.10092616 0.007350679 0.1076683 0.09271762 0.03148631
0.03491593 0.09377905 -0.098358504 0.1011531 0.1272115 -0.5828932 -0.58672494 -0.09932794
-0.10622291 -0.10128325 0.020914523 0.09583669 -0.07347596 -0.0049930625 -0.05812824 -0.06562347
0.08475172 -0.014065354 0.13089034 0.104794845 0.06340859 -0.2421291 0.044698052 0.016338637
0.0005259689 0.16532172 0.078621656 0.21348317 -0.08408585 0.0036456522 -0.017354181 -0.026889112
-0.20999502 0.03724262 0.08553305 -0.15435226 0.095270984 0.20220546 0.11560636 0.088523015
0.025109641 -0.14004831 0.14112617 0.12247278 0.13404731 0.13380407 0.06523537 0.088249385
-0.09064975 -0.06611378 0.1777831 -0.16378914 0.07557037 0.051917747 0.18577245 0.14947252
0.07887989 0.13707288 0.30157253 0.013909006 0.11447578 0.11655206 -0.07662712 0.064757176
-0.18348834 -0.068749346 0.015107808 0.041715 -0.16629292 0.17170334 0.13380949 0.04739024
00000000: 4d8e d5bc 0639 c3bd a4ef 8abd 3f13 89bd
00000010: 387e 0c3e e487 fbbd 5193 b23d 9849 f7bd
00000020: 8318 6d3c 6670 c03d f930 f83b 9c7a a03d
00000030: ab9d fb3d d7c4 6dbe bb9e c43d 4306 ab3c
00000040: a658 c83b c2a9 1f3c a928 803d 49d2 06bd
00000050: 625b 42bd 9e4d 923c 02fd 5b3d 70f6 debb
00000060: 0398 3cbe d0ad 623d b841 aebd 8dc8 7e3d
00000070: 658e 9c3a ee6e 243d 0692 24bd 2d5a 63bb
00000080: 828b 133e ce1f 1a3d 5af9 c53d 5f19 e53d
00000090: 6a93 013e f785 12bc ab6d 2abd c21e 813d
000000a0: 1e1c bcbd 4aa2 bbbc 77c5 9b3c dc66 2ebe
000000b0: 4702 e33d edf9 143d 573c 153e 8543 2d3e
000000c0: 6008 173e 7a74 323e ad03 003e 612c 83bd
000000d0: 1252 7ebd 3bf5 98bd 188f b6bd b55a 0dbe
000000e0: 2b97 47be ffd6 18be 0506 a2bd 9f46 c8bd
000000f0: 5ed3 25be 72a2 cc3d 2874 183e 9bbb 113c
00000100: 9aa6 263e 9a9e 883d 9268 d4bb f8c1 c3bd
00000110: 3e32 3d3d 9bb1 883d 6c56 343e d2b3 863e
00000120: ea2f dbbc 3a75 0b3e 0acf 9a3c 70f8 e1ba
00000130: 1d67 9b3c eec7 8b3e dbbf 223d c94a 8b3c
00000140: d762 ecbb b33f 09be 6dc0 c6bd 63e2 78be
00000150: 5057 213e 34b6 c83d f7c4 763e 131a 273e
00000160: 4f36 d83d 3650 2c3d 8a36 f2bd f048 0f3e
00000170: 8b2d a2be 1d35 8bbe b67f 59be 1e19 503e
00000180: 53f7 223e cfd1 223e b0fe 24bd 7e2a abbb
00000190: 3dac 07be 72f7 93bd 332e 1f3e 5af4 3f3d
000001a0: 856f 2e3e d290 ed3d 9910 91bd 2a66 a33e
000001b0: c52c b3bc bc0d 123d 9839 18be d9db d0bd
000001c0: 2d00 95bc a967 f4bc a676 65be 147a cebc
000001d0: 7e76 a7be 1c34 c3bd 6874 4bbb c73b 0e3e
000001e0: 4ff2 6a3e e06c 9e3e feac 2abe 2862 14be
000001f0: 6428 27be 25f6 a6bd e6a4 1dbe 2327 0bbe
00000200: c6ad 483c 86c4 efbd bbd6 813e 1f69 743d
00000210: a147 0cbe 91b8 2dbd 4030 fb3b 6a96 87bc
00000220: 2c7f 7e3e 3a8f afbe 410c 0c3e f207 8fbd
00000230: 32ef 803e d1e6 5c3c 8225 f5be eff4 5e3d
00000240: 3e82 77bd ad8c f2bd daed 0dbd 236c 8f3d
00000250: 7b83 7fbd f0ef e8bc 3690 e1bd 0616 aebd
00000260: 60b8 9e3c d74c 0ebf a4ac 5b3d 44a3 f3bc
00000270: 7f22 e8bb 2e09 10be ca58 91bd 15a9 aa3c
00000280: acbe 7abe 9724 ba3e e86b eebd b380 333e
00000290: 6f1e 3fbd e1c5 2ebd b54a 6bbe 014f 123e
000002a0: d9de 2d3d afa1 95bc 5b8f e3be a458 ee3b
000002b0: 271c fdbe b8e9 5e3e 1c3c 10bf 3d1b 11bf
000002c0: 6bee 19bf 4b70 0dbf 9455 213d 60b2 ce3d
000002d0: f7dd f03b 3381 dc3d bce2 bd3d caf7 003d
000002e0: 0204 0f3d 3b0f c03d 2f70 c9bd 5b29 cf3d
000002f0: bb43 023e 7d38 15bf 9b33 16bf 726c cbbd
00000300: 668b d9bd 986d cfbd ef54 ab3c 0746 c43d
00000310: 907a 96bd d89c a3bb e117 6ebd 9965 86bd
00000320: 4f92 ad3d 5f72 66bc 1e08 063e ae9e d63d
00000330: 5ddc 813d b1f0 77be 4e15 373d 9bd8 853c
00000340: 2de1 093a 194a 293e 6404 a13d 559b 5a3e
00000350: 3435 acbd e5eb 6e3b 5b2a 8ebc 8e46 dcbc
00000360: ef08 57be b88b 183d f42b af3d 850e 1ebe
00000370: 6f1d c33d f30e 4f3e 07c3 ec3d 8e4b b53d
00000380: bcb2 cd3c d368 0fbe 6183 103e 02d3 fa3d
00000390: b343 093e ef03 093e 1f9a 853d 18bc b43d
000003a0: 93a6 b9bd a966 87bd c60c 363e 57b8 27be
000003b0: a3c4 9a3d b4a7 543d 223b 3e3e 530f 193e
000003c0: c88b a13d d55c 0c3e b767 9a3e 99e2 633c
000003d0: 4772 ea3d d9b2 ee3d aeee 9cbd 699f 843d
000003e0: 5ee4 3bbe 75cc 8cbd bd86 773c 59dd 2a3d
000003f0: b148 2abe 00d3 2f3e 5b05 093e 451c 423d

layers.4.bias f4 [32]
-0.23204654 0.3944943 0.1258715 -0.14122929 -0.22833098 0.06166247 0.08320869 0.1944339
0.103796765 0.10653426 0.26444244 0.1175464 0.08831009 0.19368608 0.13620302 -0.12260434
0.35454306 0.0016088468 -0.3972249 0.3274623 0.086144626 0.096567586 0.21487267 -0.080018096
-0.2249603 0.18178856 0.22480051 0.089375846 0.4439253 0.08974862 -0.0900162 -0.15831862
00000000: 9c9d 6dbe 28fb c93e 75e4 003e 699e 10be
00000010: 99cf 69be c991 7c3d 5169 aa3d ae19 473e
00000020: 6693 d43d a22e da3d 0065 873e 2bbc f03d
00000030: ecdb b43d a555 463e ce78 0b3e fc17 fbbd
00000040: ab86 b53e f1df d23a 1061 cbbe 23a9 a73e
00000050: 986c b03d 3ac5 c53d 9507 5c3e 87e0 a3bd
00000060: fe5b 66be c826 3a3e 1b32 663e af0a b73d
00000070: 2d4a e33e 20ce b73d 6a5a b8bd 471e 22be

mean_head.weight f4 [1, 32]
0.09261808 0.01846228 0.32555574 0.032096308 0.318053 0.1827337 0.2899952 -0.21640965
-0.26035693 -0.14923307 0.018585972 0.32285875 -0.17220862 0.28569797 -0.1384544 -0.021455094
0.014033378 -0.20059353 0.32416505 0.019692617 0.35795575 -0.16999793 -0.15443575 -0.018592788
0.27267376 0.039553218 0.042553794 -0.25574932 0.013116838 -0.14875968 -0.13377681 0.01394513
00000000: 8cae bd3d 353e 973c 3eaf a63e 6b77 033d
00000010: d8d7 a23e 8b1e 3b3e 407a 943e 7e9a 5dbe
00000020: 814d 85be 8ed0 18be 9c41 983c be4d a53e
00000030: 7557 30be 0147 923e fdc6 0dbe 98c2 afbc
00000040: 41ec 653c 6468 4dbe f6f8 a53e 6952 a13c
00000050: fa45 b73e f013 2ebe 6824 1ebe e74f 98bc
00000060: e59b 8b3e 8e02 223d e34c 2e3d 93f1 82be
00000070: 02e8 563c 7554 18be cafc 08be 1d7a 643c

var_head.0.weight f4 [1, 32]
0.27904615 -0.4526019 0.047003113 0.28203934 -0.12355811 0.31168866 0.317297 0.00579079
0.062338166 -0.3027047 -0.3992955 0.33053872 -0.034411356 -0.026287703 0.21681048 -0.059153337
-0.35602486 0.09077759 0.14565425 -0.39957628 0.18660875 -0.337226 -0.52863413 0.078722164
-0.06913062 -0.3957766 -0.3597023 -0.13391705 -0.39183643 -0.5406513 -0.16976905 0.16909538
00000000: 23df 8e3e 70bb e7be 5686 403d 7667 903e
00000010: 090c fdbd a895 9f3e c174 a23e abc0 bd3b
00000020: 4e56 7f3d 1cfc 9abe 7670 ccbe 5f3c a93e
00000030: ecf2 0cbd 4f59 d7bc 9103 5e3e c54a 72bd
00000040: e448 b6be 9ae9 b93d 6326 153e 4395 ccbe
00000050: 5d16 3f3e e3a8 acbe 9154 07bf 1639 a13d
00000060: 5b94 8dbd 3ba3 cabe e62a b8be 8d21 09be
00000070: c99e c8be 2068 0abf f0d7 2dbe 5727 2d3e

exp_avg f4 [64, 7]
-0.0016035945 -9.138354e-05 -0.0015865711 5.472144e-06 -0.0016682489 -4.1826617e-05 -2.5307763e-05 0.0
0.0 0.0 0.0 0.0 0.0 0.0 -0.0025386156 -6.148339e-05
-0.002493624 -0.00019232299 -0.002840057 0.00011501827 0.00011620507 -1.2160342e-06 1.4082962e-06 -1.2024976e-06
1.1753e-06 -1.3799181e-06 -6.1413916e-06 5.4512865e-09 1.7584495e-07 1.3509941e-06 1.7421932e-07 8.9688575e-07
2.2157224e-07 1.0648805e-06 2.2799977e-09 -0.0008614577 -3.204511e-05 -0.00061101554 -0.0001890837 -0.0009787362
5.3608746e-05 3.8761245e-05 0.0005777845 0.00010848329 0.0007335512 -5.986259e-05 0.0005729297 0.00011455063
6.40762e-05 -0.0003672038 -4.9853632e-05 -0.0004094938 4.74472e-05 -0.0004526396 -5.9060163e-05 -6.493261e-05
-0.0032051574 -0.00024039397 -0.0032786836 0.00019319195 -0.0034123946 -0.00014809458 0.00049022376 0.004412749
7.4907e-06 0.004512796 0.00017577459 0.004743098 0.00012466294 -0.00025084242 -0.00051064626 -4.4234155e-05
-0.00037075445 -0.00021398554 -0.0005535014 0.00010407327 -1.0452422e-06 0.0 0.0 0.0
0.0 0.0 0.0 0.0 0.0018234705 0.00010633636 0.001954787 -6.704444e-05
0.0016543206 0.00023259711 0.00012588206 -0.000634819 -2.076225e-05 -0.0006572378 7.506921e-05 -0.000747153
-4.3043354e-05 -8.3974315e-05 -0.0033771177 -8.632362e-05 -0.0033871403 -0.00019626037 -0.0029632377 -0.00012794328
5.9154707e-05 -0.000455447 1.3836476e-05 -0.00044313027 -2.3738918e-05 -0.00041841145 2.8594081e-06 1.386953e-06
-2.0309264e-05 -2.7822665e-05 -0.00016711812 8.958302e-05 -0.00013908376 -6.267794e-05 -2.0312067e-05 -0.0006065225
1.1212942e-05 -0.0006029323 -1.3110094e-05 -0.000551151 3.900206e-06 2.8522845e-07 1.1166374e-07 6.139108e-07
1.10119196e-07 7.75198e-07 1.3088913e-07 7.2036954e-07 1.4676192e-09 -0.0009834764 1.677267e-05 -0.0009656961
-1.5593801e-05 -0.0009023507 2.2379336e-06 5.5393e-06 -0.00089529046 -6.262941e-05 -0.0008922129 7.353927e-06
-0.0009464463 -3.3273023e-05 -1.1318447e-05 -0.00045564116 -2.802968e-06 -0.00047628506 4.5511468e-05 -0.00046572817
-1.893723e-05 -4.5700235e-05 -0.0009513231 -4.8872804e-05 -0.00090985035 -1.2912238e-05 -0.00096483517 -2.1823404e-05
-2.185673e-05 -0.0004912947 -2.814567e-05 -0.00054646115 5.4960317e-05 -0.00046695746 -9.524821e-05 -0.00010103673
-0.0004229822 -2.2084292e-05 -0.00042834695 -2.5202644e-06 -0.0004948526 -1.971381e-05 -3.4953024e-05 -0.0053255297
-0.00037955464 -0.0056030303 -0.00036341784 -0.00534182 -6.208486e-05 -0.0004413096 0.0 0.0
0.0 0.0 0.0 0.0 0.0 0.0007088792 0.00013935089 0.0008480897
-9.320559e-05 0.00068390527 7.975693e-05 9.689284e-07 -0.000997911 -1.4230329e-07 -0.0011300405 -3.9324645e-05
-0.0010715891 -4.3857446e-05 -1.0217716e-05 -0.0010804527 7.574081e-06 -0.001072434 -2.3694653e-05 -0.001005011
6.745199e-06 5.904665e-06 -0.00082578417 3.0368927e-05 -0.0008177663 -1.2745166e-05 -0.0007589065 1.36207145e-05
-3.5973244e-06 -0.0004252489 -4.0151455e-05 -0.00025234485 -2.3785044e-05 -0.0003884207 4.259965e-05 -4.6898813e-06
-0.0013711313 7.694518e-05 -0.0012628295 0.00010541701 -0.0009055885 -0.0002117529 -0.00034597312 -0.0013281162
0.00020842967 -0.0011076645 0.00017047877 -0.001467596 5.734746e-05 0.00017483052 -0.0006713036 1.0134243e-05
-0.0006532671 -1.3312388e-05 -0.0006074358 -9.738142e-07 5.448117e-06 0.0005596106 0.00010247873 0.0007743836
-0.00012932156 0.0004981334 0.0002073999 1.9178406e-05 1.5551187e-07 1.133656e-06 1.539484e-07 8.446432e-07
00000000: b42f d2ba 2aa5 bfb8 7ef4 cfba 5c9d b736
00000010: 25a9 daba fd6e 2fb8 024c d4b7 0000 0000
00000020: 0000 0000 0000 0000 0000 0000 0000 0000
00000030: 0000 0000 0000 0000 e75e 26bb a5f0 80b8
00000040: 126c 23bb 4faa 49b9 4020 3abb f735 f138
00000050: 1fb3 f338 9e36 a3b5 b004 bd35 8165 a1b5
00000060: 00bf 9d35 a035 b9b5 2712 ceb6 064e bb31
00000070: e4cf 3c34 ce53 b535 0b11 3b34 85c1 7035
00000080: 50e9 6d34 04ed 8e35 25ae 1c31 73d3 61ba
00000090: 2d68 06b8 8f2c 20ba c544 46b9 f048 80ba
000000a0: f4d9 6038 9293 2238 7676 173a 8681 e338
000000b0: ca4b 403a f714 7bb8 a930 163a e73a f038
000000c0: a660 8638 4285 c0b9 ee19 51b8 54b1 d6b9
000000d0: 0b02 4738 4250 edb9 5eb7 77b8 6e2c 88b8
000000e0: 9e0d 52bb 4412 7cb9 2fdf 56bb 9293 4a39
000000f0: 7ba2 5fbb d649 1bb9 5c82 003a d298 903b
00000100: a058 fb36 14e0 933b 2250 3839 fd6b 9b3b
00000110: f4b7 0239 8083 83b9 e4dc 05ba 1088 39b8
00000120: d261 c2b9 4e61 60b9 da18 11ba e941 da38
00000130: 404a 8cb5 0000 0000 0000 0000 0000 0000
00000140: 0000 0000 0000 0000 0000 0000 0000 0000
00000150: 8401 ef3a e600 df38 e21b 003b 369a 8cb8
00000160: cad5 d83a 50e5 7339 35ff 0339 fb69 26ba
00000170: 982a aeb7 7b4a 2cba 7a6e 9d38 97dc 43ba
00000180: 7389 34b8 5e1b b0b8 a252 5dbb a408 b5b8
00000190: c9fa 5dbb 3ecb 4db9 e132 42bb 8328 06b9
000001a0: e21c 7838 10c9 eeb9 3623 6837 f053 e8b9
000001b0: f022 c7b7 3c5e dbb9 42e4 3f36 5827 ba35
000001c0: d05d aab7 b864 e9b7 6e3c 2fb9 85de bb38
000001d0: 03d7 11b9 f671 83b8 d563 aab7 09ff 1eba
000001e0: 381f 3c37 1a0e 1eba 6df3 5bb7 1e7b 10ba
000001f0: 84de 8236 8021 9934 cacb ef33 a1cb 2435
00000200: ab7a ec33 3317 5035 888a 0c34 6b5f 4135
00000210: 43b5 c930 fee7 80ba 09b3 8c37 c526 7dba
00000220: 6fcf 82b7 bb8b 6cba 682f 1636 3ade b936
00000230: edb1 6aba e957 83b8 65e3 69ba c0c1 f636
00000240: f01a 78ba a38e 0bb8 5ce4 3db7 1fe3 eeb9
00000250: a01a 3cb6 e6b5 f9b9 91e3 3e38 fa2c f4b9
00000260: 64db 9eb7 41ae 3fb8 3662 79ba c6fc 4cb8
00000270: 0683 6eba a4a1 58b7 feec 7cba 6711 b7b7
00000280: f858 b7b7 3bca 00ba 5e1a ecb7 6340 0fba
00000290: 3185 6638 f8d1 f4b9 febf c7b8 aee3 d3b8
000002a0: b6c3 ddb9 a841 b9b7 c193 e0b9 d021 29b6
000002b0: ffb8 01ba 165f a5b7 869a 12b8 c881 aebb
000002c0: f6fe c6b9 a099 b7bb 1e89 beb9 6f0a afbb
000002d0: 8e33 82b8 925f e7b9 0000 0000 0000 0000
000002e0: 0000 0000 0000 0000 0000 0000 0000 0000
000002f0: 0000 0000 14d4 393a b81e 1239 5652 5e3a
00000300: 5f77 c3b8 1b48 333a 2d43 a738 200c 8235
00000310: 56cc 82ba 08cc 18b4 de1d 94ba 84f0 24b8
00000320: 9074 8cba 93f3 37b8 c26c 2bb7 fa9d 8dba
00000330: dc24 fe36 ea90 8cba e1c3 c6b7 93ba 83ba
00000340: d154 e236 b020 c636 7079 58ba c6c0 fe37
00000350: 5e5f 56ba 12d4 55b7 5af1 46ba 8684 6437
00000360: 9069 71b6 f1f3 deb9 4c68 28b8 274d 84b9
00000370: fe85 c7b7 f2a4 cbb9 07ad 3238 c65d 9db6
00000380: 88b7 b3ba a15d a138 8785 a5ba 5413 dd38
00000390: 0465 6dba fc09 5eb9 ba63 b5b9 2f14 aeba
000003a0: ea8d 5a39 0e2f 91ba 8cc2 3239 5a5c c0ba
000003b0: 5e88 7038 b652 3739 6cfa 2fba 3e06 2a37
000003c0: 0340 2bba 4558 5fb7 543c 1fba 00b4 82b5
000003d0: f8ce b636 d5b2 123a d9e9 d638 0100 4b3a
000003e0: 7e9a 07b9 2b95 023a 7d79 5939 50e1 a037
000003f0: c7fa 2634 2028 9835 044d 2534 70bb 6235

exp_avg_sq f4 [64, 7]
9.430074e-06 2.50358e-08 9.508759e-06 2.6585106e-08 9.664309e-06 3.477444e-08 1.9386164e-08 0.0
0.0 0.0 0.0 0.0 0.0 0.0 0.00020108013 8.938257e-07
0.00020154315 9.715113e-07 0.00020477458 1.0731408e-06 8.006486e-07 2.4291005e-08 2.70102e-07 2.2774985e-08
2.0606979e-07 2.9997047e-08 5.7313304e-07 1.4297387e-12 5.7549734e-09 3.211822e-07 5.603808e-09 1.608281e-07
8.9991286e-09 2.1230053e-07 8.894741e-13 3.274028e-05 2.0909957e-07 3.2457654e-05 2.6461328e-07 3.317249e-05
2.8432532e-07 2.01109e-07 1.9184774e-05 1.4369434e-07 1.9085886e-05 1.7072058e-07 1.9576593e-05 1.824151e-07
1.2615027e-07 2.1888012e-05 2.2968368e-07 2.151876e-05 1.8161901e-07 2.4903173e-05 2.011708e-07 2.315763e-08
0.00041977823 1.918288e-06 0.0004213518 1.975433e-06 0.00042529593 2.1494686e-06 1.4482484e-06 0.00032043926
1.4685082e-06 0.00032080588 1.374406e-06 0.0003253852 2.8730537e-06 9.1114026e-07 7.3218034e-05 1.317235e-06
7.30327e-05 1.8359098e-06 7.454361e-05 1.8752769e-06 3.591033e-07 0.0 0.0 0.0
0.0 0.0 0.0 0.0 0.00018728746 2.4779858e-06 0.00018708226 3.3420529e-06
0.00018925018 3.3044e-06 7.19811e-07 3.6714908e-05 3.417852e-08 3.6430178e-05 3.5827217e-08 4.0546936e-05
4.3675566e-08 2.7384226e-08 0.0005419687 2.326033e-06 0.0005448652 2.1974015e-06 0.0005483158 3.4249856e-06
1.3726255e-06 9.005589e-06 3.5748755e-07 9.020392e-06 2.7129914e-07 9.837577e-06 2.9894017e-07 2.545863e-09
1.8662786e-05 2.989425e-07 1.877856e-05 2.1686907e-07 1.9284556e-05 1.0661504e-06 3.3244294e-08 8.34207e-06
2.4093904e-07 8.210196e-06 1.4217596e-07 1.1244783e-05 1.6114918e-06 2.2533018e-09 9.558979e-09 3.8919316e-07
9.069606e-09 3.6689258e-07 1.3718856e-08 3.7006063e-07 1.3118036e-12 1.7804894e-05 3.21857e-07 1.755878e-05
2.0065235e-07 2.307178e-05 2.9088312e-06 2.949585e-09 7.2189696e-06 2.0045165e-07 7.2322327e-06 1.6781702e-07
7.3925653e-06 1.8203339e-07 1.3840123e-08 9.675232e-06 1.6957587e-08 9.713713e-06 1.8897e-08 1.0207096e-05
1.7048794e-07 1.2886278e-08 7.0788074e-06 8.4529866e-08 7.098227e-06 6.966981e-08 7.186702e-06 1.574032e-07
1.4464095e-08 2.0307654e-05 8.878234e-07 2.0400877e-05 5.668634e-07 2.0939764e-05 1.4039664e-06 6.420105e-08
1.0470328e-05 1.3295694e-07 1.0444399e-05 1.0598766e-07 1.11965655e-05 4.1880446e-07 1.8275783e-08 0.0005071531
2.0105535e-06 0.0005111324 2.0885734e-06 0.0005131328 2.9789667e-06 1.3494003e-06 0.0 0.0
0.0 0.0 0.0 0.0 0.0 2.5280799e-05 1.616055e-07 2.529662e-05
1.9287413e-07 2.5825984e-05 2.061918e-07 1.5013782e-07 3.181858e-05 2.3360114e-06 3.1593758e-05 1.4873342e-06
4.066179e-05 3.32348e-06 8.917837e-08 1.7445793e-05 8.861737e-07 1.735451e-05 4.98083e-07 2.463653e-05
2.4420845e-06 5.8868754e-09 1.897563e-05 9.121144e-09 1.881323e-05 8.169387e-09 2.2965492e-05 9.629762e-09
6.5585977e-09 1.6244123e-05 1.1791984e-07 1.6308935e-05 1.4129243e-07 1.6541777e-05 1.8782796e-07 7.241213e-08
0.00023972554 1.7282784e-06 0.00024136614 1.3967422e-06 0.00024253964 2.4951219e-06 6.8341984e-07 0.00062781805
2.2598897e-06 0.00062996196 2.2923568e-06 0.00063548825 2.6407668e-06 1.9228505e-06 1.2941671e-05 2.724183e-07
1.2924189e-05 1.5342084e-07 1.7572906e-05 1.7298385e-06 1.4486558e-09 6.435733e-05 7.4567715e-06 6.408008e-05
4.9234563e-06 6.5656975e-05 5.8213286e-06 3.5148076e-07 2.5947314e-08 1.8225109e-07 2.504383e-08 1.13497066e-07
00000000: dc35 1e37 4e0e d732 cf87 1f37 445d e432
00000010: e423 2237 e75a 1533 a086 a632 0000 0000
00000020: 0000 0000 0000 0000 0000 0000 0000 0000
00000030: 0000 0000 0000 0000 09d9 5239 3cef 6f35
00000040: 5455 5339 e064 8235 c2b8 5639 d608 9035
00000050: 27ec 5635 7ca8 d032 8902 9134 b9a2 c332
00000060: 0844 5d34 1ad6 0033 67d9 1935 c437 c92b
00000070: 48bd c531 f26e ac34 9e8b c031 17b0 2c34
00000080: 969a 1a32 baf4 6334 5d5d 7a2b 9c52 0938
00000090: da84 6034 2423 0838 2c10 8e34 b122 0b38
000000a0: 60a5 9834 6cf0 5734 fdee a037 664a 1a34
000000b0: a11a a037 514f 3734 6a38 a437 e2dd 4334
000000c0: ec73 0734 269c b737 f89e 7634 2f83 b437
000000d0: 0e03 4334 28e7 d037 6901 5834 2bec c632
000000e0: ae15 dc39 f0bb 0036 e2e8 dc39 ae91 0436
000000f0: 41fa de39 973f 1036 7061 c235 a100 a839
00000100: 8f19 c535 d631 a839 3b78 b835 7698 aa39
00000110: b0ce 4036 1595 7435 a28c 9938 dacb b035
00000120: 2229 9938 6169 f635 4c54 9c38 06b2 fb35
00000130: c8ca c034 0000 0000 0000 0000 0000 0000
00000140: 0000 0000 0000 0000 0000 0000 0000 0000
00000150: 9862 4439 794b 2636 832b 4439 0848 6036
00000160: 7571 4639 29c1 5d36 0939 4135 55fe 1938
00000170: aecb 1233 9bcc 1838 71e0 1933 f110 2a38
00000180: cb95 3b33 8d3a eb32 e712 0e3a f118 1c36
00000190: 49d5 0e3a 1277 1336 dabc 0f3a ced8 6536
000001a0: 0e3b b835 b616 1737 b7ec bf34 4a56 1737
000001b0: 12a7 9134 120c 2537 067e a034 4cf3 2e31
000001c0: 078e 9c37 587e a034 a786 9d37 84dc 6834
000001d0: 45c5 a137 a618 8f35 7dc8 0e33 ebf4 0b37
000001e0: 695a 8134 86be 0937 08a9 1834 faa7 3c37
000001f0: 704a d835 81d8 1a31 d638 2432 4df2 d034
00000200: 8dd0 1b32 55f9 c434 2bb0 6b32 bfac c634
00000210: b59e b82b b85b 9537 b0cb ac34 314b 9337
00000220: e672 5734 458a c137 5735 4336 a6b1 4a31
00000230: 7a3a f236 bb3b 5734 68ac f236 3131 3434
00000240: a70d f836 f574 4334 81c5 6d32 ce52 2237
00000250: 21aa 9132 14f8 2237 f152 a232 253f 2b37
00000260: 5e0f 3734 7362 5d32 7e86 ed36 c986 b533
00000270: 4e2d ee36 629d 9533 4d25 f136 aa02 2934
00000280: c37d 7832 5b5a aa37 c252 6e35 8d22 ab37
00000290: 8e2a 1835 cda7 af37 eb6f bc35 e7de 8933
000002a0: b7a9 2f37 edc2 0e34 5a3a 2f37 559b e333
000002b0: e2d8 3b37 0cd8 e034 dffc 9c32 78f2 043a
000002c0: 0ced 0636 84fd 053a 6b29 0c36 c283 063a
000002d0: 42ea 4736 0b1d b535 0000 0000 0000 0000
000002e0: 0000 0000 0000 0000 0000 0000 0000 0000
000002f0: 0000 0000 1a12 d437 c885 2d34 1434 d437
00000300: d618 4f34 e1a4 d837 9265 5d34 9235 2134
00000310: f174 0538 5fc4 1c36 8a83 0438 6aa0 c735
00000320: 448c 2a38 f408 5f36 5482 bf33 8e58 9237
00000330: 65e1 6d35 8794 9137 01b4 0535 8caa ce37
00000340: b1e2 2336 8145 ca31 db2d 9f37 37b3 1c32
00000350: 1bd1 9d37 5859 0c32 05a6 c037 2470 2532
00000360: 095a e131 fd43 8837 1e3b fd33 2ccf 8837
00000370: 2bb6 1734 32c3 8a37 c2ad 4934 fd80 9b33
00000380: d65e 7b39 32f7 e735 3b17 7d39 b277 bb35
00000390: 3d52 7e39 de71 2736 4174 3735 2894 243a
000003a0: 9ca8 1736 0824 253a 64d6 1936 e596 263a
000003b0: 0738 3136 520a 0136 0e20 5937 e340 9234
000003c0: f8d4 5837 00bc 2434 8769 9337 cc2c e835
000003d0: 0b1a c730 94f7 8638 2e35 fa36 bb62 8638
000003e0: 2b34 a536 52b1 8938 d554 c336 26b3 bc34
000003f0: bfe2 de32 ccb0 4334 f71f d732 acbb f333

exp_avg f4 [64]
-0.005115469 0.0 -0.0103157945 1.7347554e-06 -2.2653239e-07 0.0042551802 0.011476099 -0.0035422118
-0.016167492 0.01633506 0.0032520369 0.0 0.010021908 -0.0010638852 -0.018103711 0.0003430444
-0.0023558442 0.00088799355 -1.5791026e-07 0.0006377318 -0.002924995 6.475393e-05 -0.002456055 -0.0029261592
-0.0017009022 -0.02775481 0.0 0.009417267 -0.0064601433 0.00038913178 0.0008150231 0.0039721695
-0.007634889 -0.0054753358 0.00025026096 0.00938577 -2.0386105e-07 0.0012406524 0.0075798724 0.029657118
-0.0010880203 -0.002588826 0.0036793104 -0.001161447 -0.0049406644 0.00084469933 -0.03902239 0.0012923442
-0.01514969 -0.05132822 0.0020144302 0.0026215978 0.0006237581 0.0014059282 0.0034265062 -0.0010999434
-0.0015249441 0.0036815647 -0.00040664175 -6.8193214e-07 0.008855758 -0.004385906 -0.023243692 -3.611378e-06
00000000: aa9f a7bb 0000 0000 9403 29bc bed5 e835
00000010: c03c 73b4 0a6f 8b3b 3f06 3c3c 7424 68bb
00000020: b071 84bc 1bd1 853c 2020 553b 0000 0000
00000030: ee32 243c 1072 8bba 3c4e 94bc a4da b339
00000040: 8264 1abb 3dc8 683a 0b8e 29b4 752d 273a
00000050: 46b1 3fbb 80cc 8738 c4f5 20bb cec4 3fbb
00000060: cff0 deba 0e5e e3bc 0000 0000 e14a 1a3c
00000070: 9caf d3bb 6204 cc39 46a7 553a f928 823b
00000080: 172e fabb 726a b3bb 7535 8339 c6c6 193c
00000090: e6e4 5ab4 639d a23a 9460 f83b 7cf3 f23c
000000a0: e79b 8eba 4ba9 29bb 9620 713b b23b 98ba
000000b0: 4ce5 a1bb d06e 5d3a f1d5 1fbd e063 a93a
000000c0: 6836 78bc 8a3d 52bd 8804 043b 1dcf 2b3b
000000d0: b383 233a 1f47 b83a 3c8f 603b fa2b 90ba
000000e0: a2e0 c7ba 6846 713b 8832 d5b9 050e 37b5
000000f0: be17 113c a5b7 8fbb 8e69 bebc 005b 72b6

exp_avg_sq f4 [64]
0.0002700981 0.0 0.0054766214 3.6538776e-08 9.667679e-09 0.0016176845 0.0009418868 0.0003682126
0.009648116 0.006689457 0.0025216362 0.0 0.004870899 0.00040735505 0.01182219 3.5879188e-05
0.0003708494 3.2792625e-05 1.7384119e-08 4.426141e-05 0.00019801318 0.00019767843 0.00019792902 0.0004467796
0.00024836595 0.01110273 0.0 0.0010683103 0.00092436373 7.766209e-05 7.6863515e-05 0.00061174313
0.005315362 0.014175794 2.1696354e-05 0.0025961369 2.2657508e-08 3.3307486e-05 0.0012195735 0.005979548
0.00020545413 0.00018920327 0.0068356493 0.00036480933 0.01059312 0.0044241347 0.008415791 0.01601584
0.012081978 0.011399396 6.16103e-05 7.978372e-05 0.00010701872 3.4198867e-05 0.002769451 0.00025969316
0.00037151185 0.0006078366 3.1694373e-05 1.6531035e-07 0.0045437417 0.010247245 0.010537541 3.7790913e-05
00000000: f49b 8d39 0000 0000 3b75 b33b cfee 1c33
00000010: e716 2632 7c08 d43a f4e8 763a a90c c139
00000020: 2213 1e3c 3c33 db3b 0942 253b 0000 0000
00000030: 109c 9f3b 4592 d539 dcb1 413c fc7c 1638
00000040: 906e c239 d08a 0938 1554 9532 54a5 3938
00000050: c2a1 4f39 e647 4f39 2b8b 4f39 be3d ea39
00000060: 1d37 8239 3ae8 353c 0000 0000 8c06 8c3a
00000070: 0051 723a 84de a238 c931 a138 635d 203a
00000080: 7d2c ae3b 9741 683c 9100 b637 f323 2a3b
00000090: 63a0 c232 a4b3 0b38 19da 9f3a 16f0 c33b
000000a0: 2c6f 5739 de64 4639 95fd df3b e143 bf39
000000b0: c48e 2d3c 55f8 903b 63e2 093c a733 833c
000000c0: 7df3 453c 88c4 3a3c c734 8138 8f51 a738
000000d0: 3d6f e038 c170 0f38 ad7f 353b 6d27 8839
000000e0: 7ac7 c239 3957 1f3a 93ef 0438 2a80 3134
000000f0: abe3 943b 10e4 273c a6a5 2c3c af81 1e38

exp_avg f4 [32, 64]
4.456245e-05 0.0 6e-45 -1.678653e-07 -1.9200485e-07 6e-45 6e-45 0.00016475347
-6e-45 0.0010023931 2.7291337e-08 0.0 6.1844867e-09 5.6170553e-05 0.0010225956 0.00090085523
0.00033559898 0.0008779924 8.147252e-08 0.0007417051 2.4777548e-05 -0.00011742696 -3.2400734e-05 0.0012735229
0.00013232417 0.00097517227 0.0 -6e-45 0.00072879775 0.0010421328 0.00053564727 1.7952741e-12
0.0013023205 6e-45 0.00045097282 -1.0579048e-08 -1.360864e-08 0.0005356171 0.0009553429 6e-45
0.0003429948 0.00020018018 0.0010065187 5.594361e-05 0.000686499 -6e-45 0.001031735 0.0012947845
0.0016415829 0.0017732679 0.00042306402 -1.1723832e-05 0.00055341737 0.00047463804 -6e-45 0.00016831845
9.903211e-05 4.114031e-12 0.000803566 5.1831034e-08 6e-45 0.0011622314 0.00027554767 8.998164e-06
-0.00085546286 0.0 -0.00015752536 -6.906794e-19 -6.351133e-19 -0.0004929277 -0.00049554184 -0.0007523467
-0.00017335729 0.00029506112 -0.00023209798 0.0 -0.00017823008 -0.00010908251 1.3317476e-06 -4.8613052e-05
-0.00013065324 -3.1894688e-05 -4.090028e-19 -4.6170448e-05 -0.0004325416 -0.0004975101 -0.0009890175 0.00015639764
-0.00094215956 0.00011790838 0.0 -0.0005323916 5.9407597e-05 -3.9538718e-05 -3.8739337e-05 -0.00012709225
-0.00013928111 -3.9287952e-05 -2.9498611e-05 -0.00041387224 -9.750079e-19 -1.0387745e-05 0.00011674748 -0.00016007764
-0.00046967773 -0.00090788194 0.0001469737 -0.00029702645 0.00012398932 3.22696e-06 -4.567707e-05 0.00014134918
0.00015536166 0.00039962228 -1.04280225e-05 -1.3883454e-06 -1.45164295e-05 -7.449404e-06 -0.00033253155 -0.0008216376
-7.043814e-05 -0.00074063655 -6.7497494e-05 1.8330688e-37 -0.00029389534 9.620788e-06 0.0002684267 4.7165786e-06
0.007297109 0.0 0.00023315789 6e-45 6e-45 0.0030738031 0.0036166897 0.004251014
0.000677151 0.0004521297 0.002218478 0.0 0.0023604727 0.0009588596 -5.382295e-05 6e-45
0.0010969804 6e-45 6e-45 6e-45 0.007435991 0.008232177 0.014909062 0.0015369459
0.0025178948 0.00076609675 0.0 0.0022640275 -6.4114533e-06 6e-45 6e-45 0.0070171687
0.0009006934 -0.00029871534 6e-45 0.002276773 6e-45 6e-45 8.063845e-05 0.0008438433
0.004790908 0.012988605 0.00020285184 0.0034013772 0.00043063745 0.00095091085 0.0005700239 3.985953e-05
0.0003360259 0.0008163315 0.0 -5.150518e-06 6e-45 6e-45 0.002984895 0.009056782
0.0073132426 0.0029293413 6e-45 6e-45 0.0016607231 0.00016258859 0.0004757642 -7.693618e-08
7.1882e-05 0.0 6e-45 4.927131e-07 4.6451074e-10 6e-45 6e-45 0.00024134807
6e-45 0.00051965495 8.8094254e-11 0.0 4.8957236e-12 7.994964e-05 0.00072468596 0.00049823156
0.00024070975 0.0005125147 2.3512953e-10 0.00038871274 0.00010427535 3.9532897e-05 6.29437e-05 0.00083170726
8.96988e-05 0.0006651534 0.0 6e-45 0.00051692984 0.00060309866 0.00030588266 7.309308e-07
0.0008926849 6e-45 0.00025049073 5.3227502e-11 -1.593999e-11 0.00032022185 0.00064754667 6e-45
0.00027832357 0.00022439887 0.0006137998 0.00023315859 0.00041263827 6e-45 0.00058559165 0.00079240184
0.0010057336 0.0011180325 0.00025558396 -7.3025694e-06 0.000264155 0.00023685979 -6e-45 0.00019255017
0.00014580354 8.82111e-07 0.00039338486 2.3809363e-10 6e-45 0.0007946396 0.0007050493 6.7818028e-06
00000000: 91e8 3a38 0000 0000 0400 0000 763e 34b4
00000010: e429 4eb4 0400 0000 0400 0000 acc1 2c39
00000020: 0400 0080 bb62 833a 496e ea32 0000 0000
00000030: 527f d431 ac98 6b38 9d08 863a 5f27 6c3a
00000040: 55f3 af39 1329 663a fef5 ae33 fd6e 423a
00000050: 61d9 cf37 1e43 f6b8 06e6 07b8 56ec a63a
00000060: 80c0 0a39 b4a2 7f3a 0000 0000 0400 0080
00000070: ca0c 3f3a 2d98 883a ae6a 0c3a 91a9 fc2b
00000080: a0b2 aa3a 0400 0000 8c70 ec39 25bf 35b2
00000090: 6fcb 69b2 a868 0c3a fa6f 7a3a 0400 0000
000000a0: fcd3 b339 75e7 5139 2aed 833a fea4 6a38
000000b0: 2bf6 333a 0400 0080 483b 873a c2b5 a93a
000000c0: 622a d73a ff6c e83a b1ce dd39 7ab1 44b7
000000d0: 3613 113a d7d8 f839 0400 0080 a47e 3039
000000e0: 76af cf38 e6bf 902c 67a6 523a d39c 5e33
000000f0: 0400 0000 0456 983a 6277 9039 d2f6 1637
00000100: 2441 60ba 0000 0000 642d 25b9 43da 4ba1
00000110: ce73 3ba1 d137 01ba 40e7 01ba 2239 45ba
00000120: 3ec7 35b9 6fb2 9a39 545f 73b9 0000 0000
00000130: 46e3 3ab9 3ac3 e4b8 80be b235 dee5 4bb8
00000140: f6ff 08b9 a9c6 05b8 c16e f1a0 24a7 41b8
00000150: c0c6 e2b9 566b 02ba eca1 81ba acfe 2339
00000160: 42fb 76ba 9445 f738 0000 0000 3290 0bba
00000170: 6c2c 7938 60d6 25b8 0c7c 22b8 1144 05b9
00000180: fd0b 12b9 1ec9 24b8 c973 f7b7 fefc d8b9
00000190: c2e2 8fa1 0647 2eb7 53d6 f438 84da 27b9
000001a0: 143f f6b9 edfe 6dba f41c 1a39 37ba 9bb9
000001b0: 2103 0239 c08e 5836 6195 3fb8 2237 1439
000001c0: 94e8 2239 6584 d139 04f4 2eb7 2f57 bab5
000001d0: 978b 73b7 e5f5 f9b6 a157 aeb9 2a63 57ba
000001e0: 30b8 93b8 4727 42ba 718d 8db8 2081 7902
000001f0: f715 9ab9 f868 2137 9fbb 8c39 1a43 9e36
00000200: 961c ef3b 0000 0000 d87b 7439 0400 0000
00000210: 0400 0000 dc71 493b fc05 6d3b 174c 8b3b
00000220: d682 313a d20b ed39 e263 113b 0000 0000
00000230: 29b2 1a3b fa5b 7b3a f4bf 61b8 0400 0000
00000240: 8ec8 8f3a 0400 0000 0400 0000 0400 0000
00000250: 9da9 f33b 41e0 063c 2345 743c 5973 c93a
00000260: 4403 253b e2d3 483a 0000 0000 1460 143b
00000270: f721 d7b6 0400 0000 0400 0000 47f0 e53b
00000280: 831c 6c3a e59c 9cb9 0400 0000 ea35 153b
00000290: 0400 0000 0400 0000 701c a938 5e35 5d3a
000002a0: 0dfd 9c3b 28ce 543c a0b4 5439 a4e9 5e3b
000002b0: 2ec7 e139 8c46 793a a86d 153a d82e 2738
000002c0: a22c b039 14ff 553a 0000 0000 9dd2 acb6
000002d0: 0400 0000 0400 0000 3a9e 433b e662 143c
000002e0: eda3 ef3b 31fa 3f3b 0400 0000 0400 0000
000002f0: 9fac d93a 8b7c 2a39 fd6f f939 1d38 a5b3
00000300: 5bbf 9638 0000 0000 0400 0000 fd42 0435
00000310: 135e ff2f 0400 0000 0400 0000 6112 7d39
00000320: 0400 0000 7439 083a a8b8 c12e 0000 0000
00000330: c240 ac2c a3aa a738 daf8 3d3a c19b 023a
00000340: 0867 7c39 485a 063a 8a43 812f 24cc cb39
00000350: 67ae da38 20d0 2538 a400 8438 ee06 5a3a
00000360: ad1c bc38 b05d 2e3a 0000 0000 0400 0000
00000370: 9382 073a 4419 1e3a e05e a039 2f35 4435
00000380: 1203 6a3a 0400 0000 4c54 8339 d718 6a2e
00000390: ab35 8cad 73e3 a739 1fc0 293a 0400 0000
000003a0: f5eb 9139 9d4c 6b39 68e7 203a 087c 7439
000003b0: 5f57 d839 0400 0000 6482 193a 30b9 4f3a
000003c0: d2d2 833a f28a 923a e6ff 8539 9808 f5b6
000003d0: 497e 8a39 915d 7839 0400 0080 4be7 4939
000003e0: d7e2 1839 35ca 6c35 393f ce39 b3e4 822f
000003f0: 0400 0000 5c4f 503a 0fd3 383a 3e8f e336

exp_avg_sq f4 [32, 64]
7.081868e-07 0.0 6.459229e-11 1.1917749e-07 7.199842e-08 4.2025497e-10 9.119521e-10 2.1386213e-06
4.5838835e-09 3.0571227e-05 8.9023455e-09 0.0 1.6583996e-09 2.1042213e-06 2.0905374e-05 4.2734523e-06
2.3939779e-06 5.6978506e-06 2.9617949e-08 3.5854207e-06 1.3727204e-06 3.7159969e-06 7.984676e-07 1.4921818e-05
1.4457986e-06 1.653754e-05 0.0 1.84401e-09 5.2321943e-06 6.550637e-06 2.3484258e-06 4.637444e-09
2.0582012e-05 4.1343363e-11 2.2041565e-06 1.1765068e-08 2.910959e-07 1.7925803e-06 1.0779212e-05 1.9941614e-11
5.645683e-06 5.279713e-06 1.092067e-05 2.6516675e-06 1.2678591e-05 7.493883e-10 1.2071215e-05 1.901139e-05
1.7226017e-05 3.6434158e-05 1.0446889e-06 4.344748e-07 2.1797648e-06 1.3690365e-06 2.4396716e-09 4.2395927e-06
4.342651e-06 6.2647256e-09 4.8657153e-06 1.1060677e-07 5.247284e-14 1.461858e-05 2.0755006e-05 2.4652812e-07
2.8123586e-05 0.0 1.0759977e-06 2.932642e-08 2.7574997e-08 6.372324e-06 8.448371e-06 9.647813e-06
4.680021e-07 2.2342376e-05 2.9393657e-06 0.0 8.710287e-07 1.3752023e-05 1.3841176e-05 1.984597e-06
2.93312e-06 3.0099645e-06 6.685229e-09 1.6665118e-06 3.5953482e-05 2.493888e-05 5.5669712e-05 1.2888048e-05
2.6210688e-05 1.312615e-05 0.0 6.254841e-06 3.5112453e-06 2.9003909e-06 1.0512962e-06 8.935996e-06
1.4253486e-05 3.7486745e-07 7.269943e-07 2.520105e-06 6.532494e-08 5.967683e-07 7.847936e-06 8.478303e-07
2.5280944e-05 3.5909914e-05 7.734094e-06 1.2993724e-05 9.301431e-06 1.238811e-06 8.296124e-06 1.1847246e-05
9.923416e-06 2.5783222e-05 5.095428e-07 8.99089e-08 7.435383e-07 4.840859e-07 2.0658358e-06 3.1404892e-05
3.1058815e-05 1.2285884e-05 2.407015e-06 6.026566e-09 1.2940409e-06 9.973164e-06 1.5219845e-05 2.466697e-08
0.0007289644 0.0 4.030145e-05 1.3173157e-09 1.0514449e-09 0.00020768263 0.00027349955 0.00017645073
1.8905224e-05 5.524441e-06 0.000104876686 0.0 3.2985517e-05 0.00027123117 2.2899706e-06 1.4554269e-09
2.2868215e-05 2.1023292e-09 7.204789e-11 8.7006385e-10 0.00088412134 0.0005084113 0.0014975826 1.951657e-05
0.00063200615 2.088835e-06 0.0 0.00020615837 6.27863e-09 1.5346848e-09 4.1006618e-11 0.00027272178
3.5450919e-06 1.5756857e-05 3.4399765e-09 9.0858965e-05 3.7198695e-09 8.72921e-12 5.007646e-06 3.3042863e-05
0.00045399053 0.0007286665 1.2898046e-06 0.00024381465 1.8036034e-06 4.5757446e-05 1.3539302e-06 2.561037e-06
2.3444131e-06 4.5877186e-06 0.0 4.17414e-08 3.4367195e-10 1.0293539e-09 8.072467e-05 0.00065897
0.00064455357 0.00037872486 7.3363504e-10 7.312116e-11 4.7972237e-05 1.5657937e-06 2.194261e-06 6.5399086e-10
1.6933204e-07 0.0 2.4688937e-10 1.011959e-07 6.711595e-08 4.964884e-10 8.7578267e-10 8.829119e-07
2.3892386e-09 2.1591575e-05 3.8543146e-09 0.0 9.1994673e-10 9.610787e-07 1.4069619e-05 3.5961411e-06
1.7354911e-06 5.245752e-06 2.7383512e-08 3.0772667e-06 3.467834e-07 1.4969642e-06 1.7307237e-07 9.480961e-06
3.586158e-07 1.2268571e-05 0.0 5.86077e-10 4.310593e-06 5.3214544e-06 1.8335697e-06 1.2994658e-09
1.553713e-05 1.9209462e-10 1.7629068e-06 5.8330683e-09 2.7524982e-07 1.4683388e-06 7.722731e-06 1.7603355e-10
2.713207e-06 2.3885877e-06 7.705867e-06 1.135397e-06 9.135191e-06 2.7375577e-10 9.293575e-06 1.3018274e-05
1.1163357e-05 2.4894194e-05 9.4690495e-07 5.4014026e-07 1.6782298e-06 1.136711e-06 1.3662539e-09 1.8193629e-06
1.855386e-06 1.5210929e-09 3.994749e-06 1.7177352e-07 2.7246158e-13 1.018777e-05 1.4227375e-05 4.3309242e-07
00000000: 3a1a 3e35 0000 0000 3a0a 8e2e 85ee ff33
00000010: 8d9d 9a33 a109 e72f edac 7a30 3c85 0f36
00000020: 4480 9d31 9b39 0038 eef0 1832 0000 0000
00000030: c0ed e330 3f36 0d36 f35d af37 ad64 8f36
00000040: 3aa8 2036 2a30 bf36 8f6a fe32 0f9d 7036
00000050: 503e b835 5760 7936 4756 5635 b858 7a37
00000060: 430d c235 19ba 8a37 0000 0000 5570 fd30
00000070: 3590 af36 8bcd db36 a699 1d36 6457 9f31
00000080: 89a7 ac37 7dd4 352e 1feb 1336 511f 4a32
00000090: ea47 9c34 9798 f035 5dd8 3437 8668 af2d
000000a0: 0c70 bd36 6428 b136 ec37 3737 4df3 3136
000000b0: 22b6 5437 83fd 4d30 7985 4a37 a67a 9f37
000000c0: 9780 9037 e1d0 1838 3d37 8c35 c341 e934
000000d0: 1348 1236 bcbf b735 28a7 2731 d341 8e36
000000e0: 17b7 9136 1c41 d731 2d44 a336 b786 ed33
000000f0: 1151 6c29 5342 7537 091b ae37 915a 8434
00000100: f1ea eb37 0000 0000 006b 9035 7be9 fb32
00000110: 0fde ec32 d9d1 d536 7abd 0d37 0bdd 2137
00000120: b841 fb34 e36b bb37 eb41 4536 0000 0000
00000130: a3d0 6935 7db8 6637 6637 6837 1e2f 0536
00000140: 9ed6 4436 ccfe 4936 e5b3 e531 e9ac df35
00000150: c2cc 1638 d633 d137 e67e 6938 bf39 5837
00000160: 06df db37 6338 5c37 0000 0000 ade0 d136
00000170: bca2 6b36 56a4 4236 431a 8d35 d0eb 1537
00000180: 4222 6f37 6441 c934 ab26 4335 131f 2936
00000190: c448 8c33 9b31 2035 a1aa 0337 7496 6335
000001a0: 6a12 d437 fa9d 1638 aec1 0137 9fff 5937
000001b0: 580d 1c37 3945 a635 952f 0b37 89c3 4637
000001c0: bf7c 2637 0c49 d837 84c7 0835 f113 c133
000001d0: 9097 4735 21f2 0135 caa2 0a36 bfb8 0338
000001e0: 2645 0238 781f 4e37 3488 2136 3c12 cf31
000001f0: e8ae ad35 6a52 2737 bd58 7f37 3ee3 d332
00000200: f917 3f3a 0000 0000 5a09 2938 ed0c b530
00000210: 6e82 9030 62c5 5939 7d64 8f39 a205 3939
00000220: a996 9e37 965e b936 3ef1 db38 0000 0000
00000230: ee59 0a38 0834 8e39 65ad 1936 4808 c830
00000240: 1ed5 bf37 9178 1031 5b6f 9e2e 4d29 6f30
00000250: 61c4 673a e846 053a 894a c43a 84b7 a337
00000260: 37ad 253a e92d 0c36 0000 0000 372c 5839
00000270: 6abb d731 ecec d230 5959 342e 19fc 8e39
00000280: 37e8 6d36 982d 8437 b564 6c31 898b be38
00000290: a3a0 7f31 de90 192d 5a07 a836 8197 0a38
000002a0: 9405 ee39 fb03 3f3a 591d ad35 7fa8 7f39
000002b0: 5713 f235 afeb 3f38 b0b8 b535 48de 2b36
000002c0: b654 1d36 34f0 9936 0000 0000 2847 3333
000002d0: 87ef bc2f 2c79 8d30 ba4a a938 babe 2c3a
000002e0: 42f7 283a 978f c639 faa8 4930 8ecb a02e
000002f0: cc35 4938 4328 d235 1e41 1336 84c4 3330
00000300: a3d1 3534 0000 0000 97ba 872f 0951 d933
00000310: 6221 9033 4479 0830 babb 7030 3e01 6d35
00000320: ee2f 2431 8e1f b537 e96e 8431 0000 0000
00000330: 7fdf 7c30 6afe 8035 8e0c 6c37 3c55 7136
00000340: 05ef e835 ab04 b036 fb38 eb32 0a83 4e36
00000350: 8c2d ba34 4ceb c835 c5d5 3934 6b10 1f37
00000360: c887 c034 1cd5 4d37 0000 0000 8119 2130
00000370: b6a3 9036 f28e b236 fa18 f635 e398 b230
00000380: bc55 8237 d435 532f 049d ec35 366c c831
00000390: 0cc6 9334 bd13 c535 e190 0137 0a8d 412f
000003a0: 8b14 3636 a04b 2036 7248 0137 f263 9835
000003b0: 5943 1937 b37f 962f 9aeb 1b37 1069 5a37
000003c0: 414a 3b37 e0d3 d037 d02e 7e35 28fe 1035
000003d0: 893f e135 1891 9835 c9c6 bb30 d530 f435
000003e0: 9406 f935 b30e d130 a20a 8636 bf70 3834
000003f0: da61 992a 24ec 2a37 1cb2 6e37 c583 e834

exp_avg f4 [32]
0.00072136294 -0.0014879631 0.012945609 0.0006160321 -0.00018951473 0.0076958137 -0.01140693 -0.0015542477
0.0016349974 -0.0018775179 -0.00053700886 -0.018185094 -0.0011808248 -0.013798131 -0.0026695305 -7.0474497e-09
-0.00075730396 0.00022427348 6.46227e-05 -0.0010997691 0.018188465 -0.010992221 0.0044843284 6e-45
0.00024412575 -0.0014992885 -0.0009838083 -0.009903815 -0.0017088347 -0.0013906114 6e-45 0.00013825402
00000000: d919 3d3a c207 c3ba d219 543c 377d 213a
00000010: 79b8 46b9 2a2d fc3b 22e4 3abc e6b7 cbba
00000020: 694d d63a 0c17 f6ba 0ec6 0cba e8f8 94bc
00000030: e8c5 9aba 8e11 62bc 4af3 2ebb 0626 f2b1
00000040: cf85 46ba f42a 6b39 0c86 8738 2126 90ba
00000050: faff 943c b718 34bc 46f1 923b 0400 0000
00000060: 02fc 7f39 c683 c4ba 21f3 80ba 9c43 22bc
00000070: fafa dfba 2d45 b6ba 0400 0000 48f8 1039

exp_avg_sq f4 [32]
2.450247e-05 0.00015839931 0.0029093064 1.0161444e-05 5.5749533e-06 0.0011149637 0.0026380739 0.0010623415
0.0014828532 0.00076977955 0.00012510472 0.0030781855 0.0007921771 0.002517269 0.00034162938 9.578709e-09
9.708429e-05 0.0007575773 2.6385958e-06 0.00012521454 0.0035078262 0.0008893719 0.00096596795 1.5802058e-11
4.5966403e-06 0.00014931454 0.00013998001 0.0016247757 0.0001161228 0.0010038664 2.0877613e-09 4.506925e-06
00000000: a78a cd37 fe17 2639 10aa 3e3b 127b 2a37
00000010: 7c10 bb36 f923 923a 89e3 2c3b 443e 8b3a
00000020: 4c5c c23a 08cb 493a 8b2e 0339 62bb 493b
00000030: 1baa 4f3a c4f8 243b b81c b339 9c8f 2432
00000040: bb99 cb38 2798 463a bb12 3136 064c 0339
00000050: 8fe3 653b bd24 693a 0339 7d3a 12ff 8a2d
00000060: d73c 9a36 5191 1c39 99c7 1239 6df6 d43a
00000070: f486 f338 2b94 833a 4978 0f31 313a 9736

exp_avg f4 [1, 32]
7.1565155e-05 -0.0064248974 0.0012397674 0.0019517529 0.00019277999 -0.0018975548 -0.0040199403 0.004028606
9.872648e-05 -0.0013499362 0.026841233 -0.00576121 -0.0117755085 -0.015614128 -0.006937267 8.8553406e-07
0.030835748 -0.00051640184 0.0005449057 0.02863041 0.00556215 0.0033356785 -0.014098078 6e-45
0.00017322518 0.01293498 0.007228812 0.002210385 0.047043905 -0.001323709 -6e-45 0.00067998236
00000000: 4015 9638 f287 d2bb b17f a23a f6d1 ff3a
00000010: fc24 4a39 60b7 f8ba b4b9 83bb 6602 843b
00000020: 600b cf38 58f0 b0ba 25e2 db3c 88c8 bcbb
00000030: 10ee 40bc 66d2 7fbc 0352 e3bb 70b5 6d35
00000040: 409b fc3c 245f 07ba 01d8 0e3a 528a ea3c
00000050: b242 b63b 669b 5a3b a0fb 66bc 0400 0000
00000060: c8a3 3539 3ded 533c acdf ec3b 1bdc 103b
00000070: 1cb1 403d 4e80 adba 0400 0080 d840 323a

exp_avg_sq f4 [1, 32]
0.0005057596 0.081567265 0.0014833151 0.0010264011 1.6682106e-05 0.0030147885 0.0018997863 0.00345731
0.0021153048 0.0074514155 0.07080466 0.0013038763 0.0057668705 0.0020310255 0.005069307 5.6618876e-07
0.114014186 0.0031336832 3.119464e-05 0.09432939 0.0010834625 0.005928146 0.007784476 1.1798559e-11
2.4410185e-05 0.035666455 0.038653653 0.0027250564 0.12075963 0.008868155 6.952012e-11 0.001369013
00000000: f494 043a bd0c a73d cc6b c23a 4e88 863a
00000010: 8df0 8b37 c293 453b 4002 f93a 0994 623b
00000020: eda0 0a3b 012b f43b 0902 913d d4e6 aa3a
00000030: 04f8 bc3b f41a 053b 6e1c a63b 32fc 1735
00000040: 4580 e93d 7b5e 4d3b fdd6 0238 c42f c13d
00000050: f802 8e3a e540 c23b eb14 ff3b fc8f 4f2d
00000060: 79c4 cc37 fd16 123d 4b53 1e3d dc96 323b
00000070: d350 f73d bd4b 113c 59e0 982e 7470 b33a

exp_avg f4 [1, 32]
0.004381242 0.004674156 0.00080442714 0.004264974 0.00066762115 0.0013422801 0.0006239014 0.0050939834
0.0032006577 0.004046917 0.0041702604 0.0009887771 0.006327109 0.0006383894 0.0035407892 -1.1943241e-07
0.005966224 0.0037870598 0.0011979635 0.0068051945 0.0004069767 0.001680965 0.0024217817 6e-45
0.0008191873 0.007404162 0.007836715 0.002739203 0.009853337 0.002072476 -6e-45 0.00754729
00000000: 8690 8f3b aa29 993b 31e0 523a 32c1 8b3b
00000010: 4c03 2f3a 72ef af3a 508d 233a 6eeb a63b
00000020: 20c2 513b 009c 843b aea6 883b db99 813a
00000030: a353 cf3b 9659 273a 960c 683b 553d 00b4
00000040: 5080 c33b 5230 783b fc04 9d3a 1cfe de3b
00000050: 7d5f d539 d353 dc3a c1b6 1e3b 0400 0000
00000060: bbbe 563a 9d9e f23b 9165 003c 3384 333b
00000070: e46f 213c 61d2 073b 0400 0080 424f f73b
